best_precision_controller.pth (torch, 644634 bytes, 140 tensors)

input_layer.0.weight f4 [64, 80]
-0.13006721 0.11520857 -0.07063835 0.32178962 0.03620515 -0.2625138 0.38774794 0.18820651
0.48035637 0.0056223525 -0.061414573 -0.1297397 0.014063438 0.014925889 0.06878643 0.43074557
-0.17658319 0.14079659 -0.06227326 -0.30344173 0.005701012 -0.18015985 0.110968165 -0.06947458
-0.25599495 -0.21644096 0.11037591 -0.27569884 -0.0737045 0.24918935 0.47915956 -0.09931453
0.0724611 -0.040663414 -0.15779783 -0.006762808 -0.074204445 -0.0662815 -0.01042522 -0.0314528
-0.0052984986 0.012232733 0.07850887 0.120008186 -0.20957272 -0.19840482 -0.06690887 0.09931674
-0.16575617 0.27961892 0.111769296 -0.034282405 -0.097875245 -0.025225153 0.059135027 0.08476129
-0.20563923 0.17332716 0.3981792 0.03329894 -0.21878862 -0.13664602 -0.13668405 0.0035445655
0.0030604869 -0.16891514 -0.053052485 0.10758702 0.0830973 -0.15072381 -0.24408357 0.017674983
0.122746214 -0.12383929 -0.069881976 -0.037529353 -0.10343404 0.19906689 0.06251006 -0.12217978
0.21210028 -0.12405742 0.2374976 0.19783193 0.17939055 -0.01036835 -0.08358096 -0.20463702
-0.05740112 -0.22355123 0.331339 0.13800852 -0.017743697 0.023324788 0.093501486 0.15489538
0.009662012 0.24192049 -0.21169719 0.15774284 0.37836993 -0.011879108 -0.110974036 -0.096947685
-0.2617367 -0.28607854 -0.08361622 -0.23607351 0.08878579 0.034821164 -0.027119856 0.050026495
-0.30020556 0.1027505 0.36724025 0.047885995 -0.099091135 -0.18572709 0.37731692 0.1713954
0.07090825 -0.10545644 -0.022391949 0.14652932 -0.14964905 0.011530959 0.063283786 0.06849449
0.06038927 0.13538359 -0.14532058 0.11933699 -0.10109251 -0.4476024 -0.17148091 -0.20679942
0.1396729 -0.05822963 0.14796661 -0.017167287 0.1927348 -0.19009417 -0.10396945 -0.21039732
0.17737645 0.0035154421 -0.1439966 0.16798444 -0.2287049 0.41925716 0.028178263 0.19378608
-0.07917886 -0.1608879 0.039455455 0.26267543 0.315113 0.06629357 -0.10826696 -0.28415975
0.22219498 0.019173633 -0.020210268 0.07096556 0.087460674 -0.05978705 0.35029042 -0.24652952
-0.08950054 -0.014175629 0.22715475 -0.09529119 -0.094106995 -0.061948974 0.01954286 0.11941847
-0.023294687 0.06126152 -0.20412798 -0.16654408 -0.052429672 -0.42378598 0.13756637 0.24850638
0.0019523557 0.14970767 -0.3050655 -0.09802109 -0.071883485 0.042211752 -0.09128788 0.08289034
0.06606721 -0.07061654 -0.08860575 -0.088148 -0.13991779 0.1295627 0.048272632 0.12968697
0.025241856 -0.014528297 -0.12586905 0.20527321 -0.027369466 -0.07157232 -0.10898133 0.01577313
-0.041961502 -0.15975387 0.08568337 0.34417966 -0.292524 -0.043191418 0.06039771 -0.19498505
-0.062268745 0.16355543 -0.15890947 -0.019025559 0.11026991 -0.0774734 0.0122396825 0.07567315
-0.06327466 0.060044035 -0.16522227 -0.26603183 -0.13428617 0.13205369 -0.21722761 -0.12019219
0.04052635 -0.3410297 -0.16125803 0.033876758 0.0076236604 0.20776975 0.104042344 -0.05294772
-0.22864762 -0.014074456 -0.089178905 -0.19224508 -0.38172126 -0.1519693 0.008378279 -0.010897632
0.06742329 0.1491929 0.22957966 -0.015754785 0.042611785 0.19251615 0.03125977 0.16632774
00000000: 5730 05be 79f2 eb3d d7aa 90bd 9cc1 a43e
00000010: da4b 143d 3568 86be e686 c63e 35b9 403e
00000020: 45f1 f53e b63b b83b d98d 7bbd 7cda 04be
00000030: 566a 663c b78b 743c e6df 8c3d af8a dc3e
00000040: 39d2 34be fb2c 103e 3f12 7fbd b75c 9bbe
00000050: 8ecf ba3b d37b 38be 4743 e33d b048 8ebd
00000060: c511 83be b3a2 5dbe c40c e23d 6628 8dbe
00000070: 63f2 96bd 7e2b 7f3e 6754 f53e 6b65 cbbd
00000080: 7c66 943d ae8e 26bd c195 21be 8c9a ddbb
00000090: 80f8 97bd 98be 87bd 8bce 2abc a7d4 00bd
000000a0: 079f adbb cd6b 483c 42c9 a03d dac6 f53d
000000b0: 3b9a 56be a22a 4bbe 8507 89bd 9366 cb3d
000000c0: fcbb 29be 362a 8f3e 4de7 e43d b56b 0cbd
000000d0: d172 c8bd fba4 cebc 9237 723d 5497 ad3d
000000e0: 1793 52be ad7c 313e 25de cb3e 7864 083d
000000f0: 200a 60be efec 0bbe e7f6 0bbe f14b 683b
00000100: 7392 483b 17f8 2cbe 904d 59bd 9556 dc3d
00000110: eb2e aa3d 5857 1abe 0bf1 79be 20cb 903c
00000120: 5e62 fb3d 749f fdbd 481e 8fbd 61b8 19bd
00000130: 3ad5 d3bd 31d8 4b3e 4605 803d 6439 fabd
00000140: d130 593e d111 febd 9232 733e 7494 4a3e
00000150: 28b2 373e 03e0 29bc 7f2c abbd 5e8c 51be
00000160: 701d 6bbd 9dea 64be 44a5 a93e 1b52 0d3e
00000170: 3b5b 91bc a013 bf3c b57d bf3d e59c 1e3e
00000180: 6a4d 1e3c 01ba 773e 26c7 58be 5787 213e
00000190: b4b9 c13e 97a0 42bc 5b46 e3bd 828c c6bd
000001a0: 5a02 86be e378 92be fb3e abbd 41bd 71be
000001b0: 53d5 b53d a3a0 0e3d 762a debc 95e8 4c3d
000001c0: 8bb4 99be db6e d23d ea06 bc3e 1b24 443d
000001d0: 4bf0 cabd 3e2f 3ebe af2f c13e 4782 2f3e
000001e0: 5838 913d 8cf9 d7bd 526f b7bc c80b 163e
000001f0: 9a3d 19be 59ec 3c3c ee9a 813d d746 8c3d
00000200: bd5a 773d ffa1 0a3e ebce 14be f466 f43d
00000210: 9709 cfbd 242c e5be b198 2fbe 3ac3 53be
00000220: 6a06 0f3e 3182 6ebd 8f84 173e 69a2 8cbc
00000230: 455c 453e 0ca8 42be efed d4bd 6572 57be
00000240: 2ca2 353e 5563 663b d873 13be 1d04 2c3e
00000250: 9e31 6abe e0a8 d63e 1ad6 e63c dc6f 463e
00000260: 8728 a2bd ccbf 24be 0b9c 213d 657d 863e
00000270: 7e56 a13e ecc4 873d 11bb ddbd 637d 91be
00000280: 1587 633e 0612 9d3c 0190 a5bc 6456 913d
00000290: 951e b33d 44e3 74bd 4459 b33e 3c72 7cbe
000002a0: 0f4c b7bd e640 68bc 419b 683e 0728 c3bd
000002b0: 2bbb c0bd 35be 7dbd 5918 a03c ac91 f43d
000002c0: 80d4 bebc 5ced 7a3d ed06 51be 888a 2abe
000002d0: 7fc0 56bd 7afa d8be 33de 0c3e 7578 7e3e
000002e0: 30e6 ff3a f84c 193e 8c31 9cbe 48bf c8bd
000002f0: a637 93bd 3be6 2c3d 24f5 babd 69c2 a93d
00000300: 3f4e 873d 689f 90bd ee76 b5bd f086 b4bd
00000310: 9c46 0fbe 16ac 043e 86b9 453d a9cc 043e
00000320: 02c8 ce3c 1808 6ebc d1e3 00be 2433 523e
00000330: ee35 e0bc 8294 92bd 9b31 dfbd a736 813c
00000340: d3df 2bbd 8596 23be c37a af3d 5138 b03e
00000350: b5c5 95be 7ce9 30bd 9763 773d 29aa 47be
00000360: 830d 7fbd 137b 273e 2ab9 22be 7ddb 9bbc
00000370: 31d5 e13d 60aa 9ebd f388 483c 86fa 9a3d
00000380: 2596 81bd bcf0 753d 0730 29be 5335 88be
00000390: 5082 09be 1539 073e ea70 5ebe 5327 f6bd
000003a0: f5fe 253d 729b aebe d320 25be 5bc2 0a3d
000003b0: e6cf f93b 98c1 543e 2714 d53d b5df 58bd
000003c0: 9a22 6abe 8c98 66bc 6ea3 b6bd e5db 44be
000003d0: f870 c3be d79d 1bbe 0d45 093c fb8b 32bc
000003e0: 3915 8a3d 06c6 183e ee16 6b3e 2e10 81bc
000003f0: b289 2e3d f422 453e 3f0a 003d d251 2a3e

input_layer.0.bias f4 [64]
0.035983413 0.021582734 0.010589255 0.03934959 0.013969358 0.028058657 -0.016678017 0.04578253
0.006739603 0.040018026 0.0065355008 0.008945158 0.012738524 0.018878968 0.030083261 -0.007373602
0.025245361 0.04683822 0.0048451773 0.007198442 0.03765663 0.0011509343 0.024341473 0.036583778
0.013222149 0.031429414 0.031919785 0.04656696 -0.0028323163 0.025538906 0.04897267 0.011364836
-0.012567069 0.009254186 0.03779878 0.026121123 0.03867881 -0.014363246 0.0383024 -0.008261951
0.05562519 -0.027625838 0.03073974 0.0288043 0.0007050596 0.002916512 0.02248476 0.010332971
0.012740626 0.017297657 0.046297263 0.020238321 0.044068314 -0.012470162 0.0041731596 -0.008943115
-0.026296314 0.006494767 0.02732381 0.0042772884 -0.034970902 0.0030623307 0.009775439 -0.008969543
00000000: 5863 133d 46ce b03c 8e7e 2d3c 092d 213d
00000010: bcdf 643c 45db e53c 56a0 88bc 7686 3b3d
00000020: e3d7 dc3b f1e9 233d c127 d63b b68e 123c
00000030: 3eb5 503c 11a8 9a3c 2c71 f63c 429e f1bb
00000040: 5ccf ce3c 6fd9 3f3d 4bc4 9e3b e8e0 eb3b
00000050: d73d 1a3d f2da 963a c567 c73c dfd8 153d
00000060: b6a1 583c 21bc 003d 52be 023d ffbc 3e3d
00000070: 629e 39bb f836 d13c 9197 483d 9433 3a3c
00000080: 1ce6 4dbc df9e 173c e5d2 1a3d f7fb d53c
00000090: ac6d 1e3d d253 6bbc fae2 1c3d 225d 07bc
000000a0: 3dd7 633d 954f e2bc e8d1 fb3c fff6 eb3c
000000b0: c0d3 383a f422 3f3b f631 b83c 9f4b 293c
000000c0: 0fbe 503c d1b3 8d3c 33a2 3d3d d6ca a53c
000000d0: fa80 343d a64f 4cbc 00bf 883b 2586 12bc
000000e0: 5e6b d7bc 0ed2 d43b 2fd6 df3c 7f28 8c3b
000000f0: a63d 0fbd 62b1 483b 2a29 203c fdf4 12bc

input_layer.1.weight f4 [64]
1.0389233 0.99212897 0.9937962 1.0976577 0.9758567 1.0092267 0.9488831 1.0072217
1.0006883 1.0079687 1.0068742 1.0354007 0.99385315 0.99268425 1.059353 0.9942644
1.0026199 1.0218185 0.9899545 1.015831 1.0334802 0.998771 1.0046377 1.0501422
1.0133009 1.0018471 0.98067284 1.1209197 1.0039512 0.96010405 1.0462996 0.9889616
1.0077163 0.97914815 1.0514985 0.9839675 0.9639055 0.9953543 1.0116988 0.99078596
1.0659032 1.0096804 1.0222851 1.0337831 0.99043506 1.0038494 1.0134026 1.0374187
0.99000454 0.9944682 0.9908789 1.0504504 1.0552777 1.0156678 1.0158104 0.97879416
0.9661041 0.98634243 1.0393077 1.0016266 0.9765446 0.9944226 1.0223807 1.016924
00000000: 70fb 843f 2afc 7d3f 6e69 7e3f 0c80 8c3f
00000010: bfd1 793f 572e 813f 01ea 723f a4ec 803f
00000020: 8e16 803f 1e05 813f 41e1 803f 0388 843f
00000030: 296d 7e3f 8e20 7e3f e198 873f 1d88 7e3f
00000040: d955 803f f3ca 823f a86d 7d3f c006 823f
00000050: 1449 843f 75af 7f3f f897 803f 0f6b 863f
00000060: d8b3 813f 873c 803f 600d 7b3f 4c7a 8f3f
00000070: 7981 803f 61c9 753f 25ed 853f 962c 7d3f
00000080: d9fc 803f 74a9 7a3f 8197 863f 4be5 7b3f
00000090: 83c2 763f 8acf 7e3f 597f 813f 26a4 7d3f
000000a0: 846f 883f 353d 813f 3dda 823f 0153 843f
000000b0: 278d 7d3f 237e 803f 2db7 813f 23ca 843f
000000c0: f070 7d3f 7895 7e3f 3daa 7d3f 2975 863f
000000d0: 5713 873f 6701 823f 1306 823f 4192 7a3f
000000e0: 9952 773f f080 7c3f 0908 853f 4d35 803f
000000f0: d4fe 793f 7b92 7e3f 5fdd 823f 912a 823f

input_layer.1.bias f4 [64]
0.004386472 0.005523636 -0.016610673 0.06626481 -0.011375577 -0.0065223905 -0.050371125 -0.0030009598
0.011941105 0.011830019 0.00070607674 -0.00940642 -0.010053157 -0.0042005684 0.012493656 -0.012683532
-0.0061036944 0.019276282 -0.002509925 -0.012664795 0.013583256 -0.009510831 0.008184083 0.03306698
-0.009390433 0.006784567 -0.048162714 0.1443611 -0.008304151 -0.00045055238 0.0037368673 -0.0048352564
0.0043028584 -0.00949909 0.0088073565 -0.0011469712 -0.05178538 -0.032278597 0.0034583926 -0.011492919
0.04039451 -0.006913112 -0.0009231222 0.0063911458 -0.012828716 -0.007240497 -0.016264088 0.0022012137
-0.002851485 -0.0033950012 0.00076638337 0.003069501 0.013846153 -0.017023155 -0.00279822 -0.010714398
-0.045315117 -0.031756468 0.023070134 -0.0020717143 -0.029746318 -0.017584825 -0.014654437 0.0031972756
00000000: 65bc 8f3b 9eff b43b 1b13 88bc d8b5 873d
00000010: a160 3abc c7b9 d5bb f451 4ebd c0ab 44bb
00000020: a0a4 433c b2d2 413c 0218 393a 631d 1abc
00000030: ffb5 24bc eca4 89bb 31b2 4c3c 97ce 4fbc
00000040: 8001 c8bb 4be9 9d3c 8e7d 24bb 0080 4fbc
00000050: 4e8c 5e3c 51d3 1bbc 8816 063c 3e71 073d
00000060: 55da 19bc 1351 de3b 4446 45bd 65d3 133e
00000070: 220e 08bc 1e38 ecb9 3be6 743b 1271 9ebb
00000080: fefe 8c3b 12a2 1bbc bb4c 103c f855 96ba
00000090: e81c 54bd 9036 04bd 33a6 623b cc4c 3cbc
000000a0: b774 253d 6387 e2bb affd 71ba d16c d13b
000000b0: 892f 52bc b141 edbb 443c 85bc 3d42 103b
000000c0: fbdf 3abb ab7e 5ebb 1ee7 483a ae29 493b
000000d0: fada 623c 2574 8bbc 5762 37bb 718b 2fbc
000000e0: 589c 39bd 1213 02bd 94fd bc3c 99c5 07bb
000000f0: 8dae f3bc 0d0e 90bc 2a19 70bc 6289 513b

res1.0.weight f4 [64, 64]
0.32219958 -0.027913516 0.1887109 -0.094956376 0.015239975 0.2739129 0.012423014 -0.05691233
0.08265714 -0.070571706 -0.18841411 -0.18357477 -0.086529255 0.2198118 -0.41747877 0.05574158
0.09438312 -0.017339585 -0.2402727 0.28586602 -0.10513697 0.24448018 0.31452125 -0.10753125
0.14152576 -0.0017410313 0.2650881 -0.1836943 0.13050948 0.13932584 0.0067277774 0.20352568
-0.13989176 -0.14780708 -0.043059643 0.0049768174 0.02210558 0.06409727 -0.0034135627 0.056718096
0.0022045074 0.02166537 0.18037342 -0.054300275 -0.12596844 0.18842453 0.29118192 0.38776714
0.12142648 -0.1577269 0.27874443 0.16798507 0.0069032647 -0.20955555 -0.17905736 0.31583795
0.11268796 -0.010520268 -0.1084454 -0.07853708 -0.056855854 0.062238287 0.1807558 -0.09118855
-0.22405067 -0.07107601 0.04064582 -0.20242073 -0.038571443 -0.1710384 -0.12495003 0.08301137
-0.22764319 -0.27844873 -0.2050827 0.070062295 -0.09138902 -0.20082255 0.115600646 0.056564678
-0.29571646 0.35269096 0.21733476 0.080992885 -0.1858726 0.06765675 0.008131801 -0.18038258
0.37549543 0.057353325 0.16709027 0.005727045 -0.049269002 -0.17987034 0.3209193 -0.5216575
0.1490955 -0.02583262 -0.13434362 0.008639985 -0.15326276 0.019093944 -0.08935381 -0.06941124
0.31217602 0.2015968 0.09619977 0.26704106 -0.10358954 -0.14995976 -0.038645636 0.2837203
-0.14009069 0.09323871 0.112568475 0.31358552 0.45833167 -0.03902144 0.080177605 0.27412003
0.17947565 -0.028629437 0.33135518 0.13921133 -0.061900187 -0.1373373 -0.27989906 0.06459908
0.29206765 0.19166914 -0.05689553 0.00267382 0.17922676 0.19560581 -0.06433322 -0.47411186
0.16564044 -0.21925038 0.15317 -0.027500533 -0.3226683 -0.18298973 -0.2688091 -0.17741999
0.018555457 0.13411835 -0.20454985 -0.14322793 0.24206455 -0.014436955 0.042153426 -0.1527239
-0.1979125 0.10758855 0.24804878 0.4019088 0.16372979 0.056101114 -0.16113843 -0.10498442
-0.11518027 -0.05194956 -0.10237574 0.20279169 -0.14230089 0.18179318 0.35124463 -0.13225606
0.34002057 -0.20524575 -0.25078356 0.23531201 0.29252687 0.034119036 0.022970479 -0.12513061
0.24805017 -0.023789024 0.5146945 -0.33616272 -0.025478682 -0.12911883 0.07457182 0.0267848
0.27905297 0.08425439 -0.030515848 0.37632263 -0.42388192 0.11248993 -0.4638081 -0.034636382
-0.20481104 0.20619257 -0.3369011 0.13475047 -0.14080654 0.3188961 0.18847908 -0.3027207
0.3658456 -0.22555417 -0.20372042 -0.39477324 0.24137121 0.06746242 0.3882798 0.073995546
-0.12978157 0.009827986 0.3120574 0.007911717 -0.11779258 0.13769998 -0.04418507 0.17480049
0.0006235912 0.14209454 -0.10267948 0.16184995 -0.06229735 0.16057812 -0.025411678 0.14763173
0.22884957 -0.15971313 -0.44451153 -0.081207044 -0.06488604 0.1508996 -0.13549623 0.087637275
0.017966995 0.3100335 -0.08824026 0.15202384 -0.22582261 0.18244758 -0.06639688 0.21914488
-0.031557813 -0.15376973 0.18500006 -0.0725241 -0.14329727 0.1281615 -0.07504295 0.013391282
0.10978312 -0.04480225 -0.021246513 0.031600025 0.5005449 -0.0958028 -0.20532885 -0.1696742
00000000: 58f7 a43e e3aa e4bc 6e3d 413e 7d78 c2bd
00000010: 17b1 793c 503e 8c3e e689 4b3c e71c 69bd
00000020: 2648 a93d e687 90bd a1ef 40be 06fb 3bbe
00000030: 4036 b1bd 5816 613e c7bf d5be 4851 643d
00000040: f04b c13d bf0b 8ebc 0c0a 76be 085d 923e
00000050: 0d52 d7bd 0359 7a3e ee08 a13e 5839 dcbd
00000060: 21ec 103e 5133 e4ba a1b9 873e 5c1a 3cbe
00000070: 47a4 053e 6fab 0e3e b074 dc3b 0969 503e
00000080: c93f 0fbe bd5a 17be 4f5f 30bd 9214 a33b
00000090: c316 b53c 6e45 833d 14b6 5fbb 3c51 683d
000000a0: 7f79 103b 937b b13c cfb3 383e f769 5ebd
000000b0: dffd 00be 5cf2 403e cc15 953e 6a89 c63e
000000c0: 72ae f83d 2983 21be 97b7 8e3e 4704 2c3e
000000d0: c834 e23b bb95 56be d05a 37be 83b5 a13e
000000e0: f2c8 e63d 345d 2cbc 9f18 debd 0cd8 a0bd
000000f0: afe1 68bd 93ed 7e3d 0c18 393e 10c1 babd
00000100: 8a6d 65be 4d90 91bd 3b7c 263d 6147 4fbe
00000110: 17fd 1dbd b124 2fbe cde5 ffbd dd01 aa3d
00000120: 4c1b 69be d590 8ebe 3301 52be d27c 8f3d
00000130: 2b2a bbbd 6da4 4dbe 08c0 ec3d 5db0 673d
00000140: 2668 97be e993 b43e 018d 5e3e 99df a53d
00000150: 6355 3ebe 9f8f 8a3d 3f3b 053c 36b6 38be
00000160: f040 c03e 52eb 6a3d b619 2b3e efa9 bb3b
00000170: 4bce 49bd ee2f 38be 894f a43e 598b 05bf
00000180: 7eac 183e ee9e d3bc 6091 09be b98e 0d3c
00000190: eaf0 1cbe e76a 9c3c 21ff b6bd 7b27 8ebd
000001a0: 89d5 9f3e 646f 4e3e 6304 c53d 9bb9 883e
000001b0: c126 d4bd 0d8f 19be e34a 1ebd ca43 913e
000001c0: ef73 0fbe f0f3 be3d 4d8a e63d 488e a03e
000001d0: 73aa ea3e f2d4 1fbd 2834 a43d 7659 8c3e
000001e0: 77c8 373e 4888 eabc 63a7 a93e 6a8d 0e3e
000001f0: 0d8b 7dbd 26a2 0cbe ee4e 8fbe 864c 843d
00000200: e489 953e ea44 443e 4a0b 69bd 413b 2f3b
00000210: 3887 373e e44c 483e 23c1 83bd cabe f2be
00000220: a69d 293e 2c83 60be 99d8 1c3e cc48 e1bc
00000230: c834 a5be a961 3bbe 59a1 89be 96ad 35be
00000240: 9d01 983c 5256 093e 8475 51be 58aa 12be
00000250: c5df 773e fa88 6cbc 12a9 2c3d a763 1cbe
00000260: 93a9 4abe 6357 dc3d 8000 7e3e fdc6 cd3e
00000270: c8a8 273e 48ca 653d 7901 25be 1202 d7bd
00000280: a2e3 ebbd 10c9 54bd 5faa d1bd a0a8 4f3e
00000290: 53b7 11be fe27 3a3e 56d6 b33e 226e 07be
000002a0: 2d17 ae3e f12b 52be b466 80be a2f5 703e
000002b0: 15c6 953e 67c0 0b3d 962c bc3c 3d22 00be
000002c0: dd00 7e3e 33e1 c2bc 05c3 033f 851d acbe
000002d0: abb8 d0bc ba37 04be 1cb9 983d cc6b db3c
000002e0: 08e0 8e3e 918d ac3d 5ffc f9bc 5cad c03e
000002f0: 0d07 d9be 1f61 e63d 4178 edbe e1de 0dbd
00000300: fcb9 51be 2524 533e 4d7e acbe 07fc 093e
00000310: 972f 10be 5a46 a33e a900 413e 35fe 9abe
00000320: 1d50 bb3e acf7 66be 169c 50be b81f cabe
00000330: 042a 773e bd29 8a3d 9ccc c63e fa8a 973d
00000340: 76e5 04be 9005 213c fdc5 9f3e 25a0 013c
00000350: 3c3d f1bd 3901 0d3e 67fb 34bd e6fe 323e
00000360: 7f78 233a 3b81 113e 9f49 d2bd febb 253e
00000370: 822b 7fbd 976e 243e 272c d0bc c62c 173e
00000380: 8b57 6a3e d78b 23be 0497 e3be e14f a6bd
00000390: f9e2 84bd 6d85 1a3e 86bf 0abe 2c7b b33d
000003a0: 852f 933c b6bc 9e3e 4fb7 b4bd 23ac 1b3e
000003b0: 0b3e 67be 8ad3 3a3e 16fb 87bd 8467 603e
000003c0: c442 01bd d075 1dbe a870 3d3e 8487 94bd
000003d0: 85bc 12be c53c 033e 1eb0 99bd 1c67 5b3c
000003e0: f9d5 e03d 9082 37bd 2b0d aebc 076f 013d
000003f0: b623 003f 4234 c4bd ba41 52be 13bf 2dbe

res1.0.bias f4 [64]
0.005907705 0.059934553 0.011501279 0.020813055 0.015683822 0.051459964 0.004469262 0.03205897
0.01055779 0.06086023 0.016458977 0.0459281 0.037022848 0.005205366 0.0060293246 0.034252908
-0.010542446 -0.00027743255 0.01450003 0.022908056 0.0027715943 0.043188762 0.008404897 0.009405376
0.039586633 -0.0131070735 0.029320784 -0.0067440653 0.04231931 -0.016052222 0.034220897 0.0036818632
0.062711865 0.006248042 0.00471914 0.044284128 0.01496196 0.007722904 0.0035140372 0.008553313
-0.014523114 0.046883747 0.06462454 0.0098625505 0.029767789 0.028590392 0.014863391 0.014998191
0.041142434 0.043502454 0.032795068 0.012877281 -0.016497578 0.05738238 0.0023870035 0.052087232
0.027203763 0.010078969 0.042260207 0.008707276 0.05191365 0.013130697 0.0077273403 0.0049315263
00000000: 6c95 c13b ef7d 753d dc6f 3c3c 2480 aa3c
00000010: 5c7b 803c afc7 523d e372 923b 4450 033d
00000020: 95fa 2c3c 9448 793d fad4 863c 1a1f 3c3d
00000030: 45a5 173d c691 aa3b a491 c53b c74c 0c3d
00000040: 39ba 2cbc 5e74 91b9 8991 6d3c ada9 bb3c
00000050: a3a3 353b b3e6 303d b1b4 093c 0219 1a3c
00000060: 9825 223d 0dbf 56bc 2432 f03c 52fd dcbb
00000070: 0357 2d3d f37f 83bc 362b 0c3d 6a4b 713b
00000080: 146f 803d 60bc cc3b 04a3 9a3b 4663 353d
00000090: 0223 753c 6a10 fd3b c34b 663b 3223 0c3c
000000a0: 5bf2 6dbc 2c09 403d df59 843d 8996 213c
000000b0: 94db f33c 6636 ea3c 9585 733c f9ba 753c
000000c0: f884 283d a12f 323d 1f54 063d 3bfb 523c
000000d0: ee25 87bc c909 6b3d 466f 1c3b 6c59 553d
000000e0: 6dda de3c 4322 253c 0a19 2d3d f6a8 0e3c
000000f0: 68a3 543d 2322 573c a135 fd3b a498 a13b

res1.1.weight f4 [64]
0.98752546 1.1172588 1.0140461 1.0688366 0.9844542 0.9658949 0.9801339 1.070873
1.2704791 1.0156065 0.9980217 1.0416853 1.0426786 0.99005216 1.0387576 1.0427917
1.0241517 0.9934143 1.005918 0.9851207 0.9997098 1.0505707 0.9862977 0.98650885
1.0642035 0.97352666 1.01662 0.9868024 1.0194298 0.9741655 1.0037988 0.98878044
1.0563138 1.0032785 1.1420206 1.0333314 1.054839 1.0233593 1.019918 0.9800655
0.9751963 1.1408647 1.0596033 1.0018709 1.0150075 1.0608993 1.0603329 1.0096693
1.0134861 1.0475969 1.0559542 1.0226065 0.9843709 1.0470574 0.9815509 0.9699026
1.0884235 1.0083742 1.0139408 0.9981995 1.0326786 1.0006042 1.0181867 0.9941729
00000000: 78ce 7c3f 5602 8f3f 43cc 813f a3cf 883f
00000010: 3105 7c3f e344 773f 0eea 7a3f 5e12 893f
00000020: 0f9f a23f 65ff 813f 5a7e 7f3f f255 853f
00000030: 7e76 853f 0f74 7d3f 02f6 843f 337a 853f
00000040: 6717 833f 6650 7e3f ecc1 803f df30 7c3f
00000050: fbec 7f3f 1a79 863f 027e 7c3f d88b 7c3f
00000060: d237 883f 0b39 793f 9b20 823f 159f 7c3f
00000070: ad7c 823f e962 793f 7b7c 803f b720 7d3f
00000080: 4a35 873f 6e6b 803f bb2d 923f 3444 843f
00000090: f704 873f 70fd 823f ac8c 823f 93e5 7a3f
000000a0: 77a6 793f db07 923f 15a1 873f 4e3d 803f
000000b0: c4eb 813f 8ccb 873f fdb8 873f d83c 813f
000000c0: eab9 813f a817 863f 8229 873f c5e4 823f
000000d0: bbff 7b3f fa05 863f eb46 7b3f 894b 783f
000000e0: 7651 8b3f 6812 813f d0c8 813f 018a 7f3f
000000f0: d02e 843f cc13 803f f153 823f 1d82 7e3f

res1.1.bias f4 [64]
-0.0084492 0.105855115 -0.0011748222 0.0011223659 -0.018514369 -0.017858928 -0.012120945 -0.004779298
0.058402024 -0.006071167 0.0017291084 0.02634906 0.022197863 -0.00584735 -0.01973821 0.013017384
-0.028949047 -0.017299809 0.0005339984 -0.0012785984 -0.011794031 0.01092775 -0.023910392 -0.0059944997
0.034234215 -0.03253665 -0.0069043958 -0.021446908 0.0042817337 -0.034750752 0.0040464094 -0.008528021
0.042316966 -0.00928601 -0.028535802 0.015803425 0.0014789582 -0.0050840937 -0.012537192 -0.015892014
-0.026580943 0.09832756 0.042499363 -0.0055286535 -0.0054072184 0.019435443 0.009139633 -0.0068665156
0.030622417 0.028776048 0.020318326 -0.0077389367 -0.028779734 0.009749434 -0.015797086 -0.033650115
0.0044980003 -0.0038095487 0.0009005875 -0.0020501227 0.026722977 0.0010097445 -0.0065224133 -0.006852394
00000000: 836e 0abc 91ca d83d 7efc 99ba 5a1c 933a
00000010: 72ab 97bc e34c 92bc ee96 46bc a89b 9cbb
00000020: f636 6f3d a4f0 c6bb 40a3 e23a fcd9 d73c
00000030: 4bd8 b53c 219b bfbb 07b2 a1bc de46 553c
00000040: 8d26 edbc 54b8 8dbc 07fc 0b3a a596 a7ba
00000050: c03b 41bc 4e0a 333c badf c3bc 826d c4bb
00000060: 2d39 0c3d 2645 05bd 453e e2bb 6db1 afbc
00000070: c94d 8c3b ce56 0ebd be97 843b 1db9 0bbc
00000080: 8e54 2d3d 5924 18bc eac3 e9bc 2f76 813c
00000090: 9ad9 c13a 7898 a6bb cb68 4dbc f82f 82bc
000000a0: 47c0 d9bc f65f c93d d013 2e3d b529 b5bb
000000b0: 092f b1bb 1437 9f3c 66be 153c 8200 e1bb
000000c0: dddb fa3c bfbb eb3c 9e72 a63c e896 fdbb
000000d0: 7ac3 ebbc 17bc 1f3c e468 81bc b4d4 09bd
000000e0: f663 933b 9fa9 79bb 6715 6c3a 5a5b 06bb
000000f0: 25ea da3c 6759 843a f8b9 d5bb 0c8a e0bb

res1.3.weight f4 [64, 64]
-0.1338552 0.051590327 0.03039752 -0.2389004 -0.031552903 -0.035536148 0.16596524 0.09724951
-0.055932783 -0.0130569665 0.18368302 -0.009846637 0.09008522 0.012390049 -0.106428176 -0.05425987
-0.11681005 -0.022004036 0.22709315 0.09029673 0.22061294 -0.16261111 -0.10946554 -0.16812381
0.08808708 -0.120114 0.06202996 -0.124355264 0.22403571 0.1785798 0.3333264 0.05098035
-0.39690602 0.027440738 -0.13827266 0.016156785 -0.12494385 -0.11648573 -0.036975663 -0.26439697
-0.2766515 0.14537127 -0.0041808356 -0.29872823 -0.19965586 0.06309785 -0.056576196 -0.21849668
0.02449817 0.046619266 0.27812305 0.14978606 -0.044878297 -0.0340577 0.020092083 -0.0475048
0.11664854 -0.011602263 -0.024810094 -0.1607694 0.35428092 0.031921793 0.23863891 0.09679886
-0.035066668 0.34581882 0.27720678 0.09020579 -0.012010587 0.017102027 -0.12706545 -0.12689748
-0.011286048 0.32479328 -0.40770295 0.08484233 -0.23499541 0.20193684 0.18774255 0.1505842
0.2843879 0.012597209 0.09516765 0.059407007 0.2929992 -0.21370983 -0.13979785 -0.07541843
-0.3455641 -0.07156912 -0.15872364 0.14349271 0.20933226 -0.11724816 0.15277803 0.049385894
0.19180062 0.02533568 -0.11413354 0.018888356 -0.26498678 -0.06959793 -0.1399456 -0.16047955
0.25969738 -0.2531414 -0.2638393 -0.10211467 0.134113 -0.0075591514 -0.053619485 0.22546057
0.0771764 -0.09186283 -0.105977856 0.12186748 0.27634513 0.2102857 0.006092519 0.052269038
0.019628206 0.16382864 0.2640219 0.09742963 -0.052785 0.06548881 -0.12400238 -0.071802266
0.18361211 -0.18826662 0.004037604 0.110940516 -0.25721636 0.046003375 -0.05346608 -0.1833481
0.05690817 -0.3788037 0.12821043 0.427121 -0.024202794 0.16651839 -0.012945268 -0.118950315
-0.22467603 0.05546412 0.35147786 -0.17768152 -0.075021625 0.16218556 0.2540307 -0.03811825
-0.09352093 -0.41524193 -0.07767468 -0.30229527 -0.07983513 -0.027773106 -0.37250784 0.1353529
0.14511466 -0.20088437 -0.058389287 -0.10603177 -0.067022964 -0.13337876 -0.0036204604 0.22123279
0.19644263 -0.12973778 0.1800638 -0.08163362 -0.16408125 -0.1600963 0.37832215 -0.19507572
-0.1932017 -0.32965383 0.030375982 0.100761086 0.009532651 0.29410195 0.12512682 0.29542
0.1631142 0.14812924 -0.313193 0.2522059 0.12193952 0.16644295 -0.16512397 -0.08116272
-0.06986931 -0.1536656 0.30657986 -0.19865909 -0.16744687 -0.29011682 0.021096375 -0.0032242408
0.36769027 0.11404132 0.010020801 -0.2378439 -0.1347263 0.020626498 -0.35622305 0.06463107
-0.04034661 0.25217503 0.17381634 -0.20509085 -0.11580575 0.16602084 -0.17001534 0.050659277
-0.12367515 0.101087674 -0.14768165 0.13220182 -0.05693534 -0.050119057 -0.0079493765 -0.014692988
-0.16144828 0.06913036 -0.18790586 0.049612656 -0.15771554 -0.11149984 0.11495716 -0.11596778
0.22054134 0.24566248 -0.031692594 -0.1448205 0.3621276 0.1102585 0.13354604 -0.14200263
-0.18011144 0.15271604 0.3221619 0.048054382 -0.0877455 -0.013403271 0.11450766 0.094371244
0.16818665 0.27216196 0.076325364 0.11885054 0.35396156 0.053884503 -0.14569773 -0.047756914
00000000: 5611 09be 6150 533d 3804 f93c 4ea2 74be
00000010: 9e3d 01bd 5a8e 11bd cbf2 293e c02a c73d
00000020: c619 65bd e3ec 55bc 6717 3c3e ca53 21bc
00000030: 9a7e b83d a2ff 4a3c 04f7 d9bd 993f 5ebd
00000040: 1c3a efbd cf41 b4bc 1b8b 683e 7eed b83d
00000050: 5ce8 613e 8783 26be 782f e0bd a628 2cbe
00000060: 0067 b43d 54fe f5bd 2113 7e3d f9ad febd
00000070: 9e69 653e a0dd 363e c2a9 aa3e c5d0 503d
00000080: 4437 cbbe 66cb e03c 5997 0dbe 3c5b 843c
00000090: 90e2 ffbd 1290 eebd cb73 17bd 0a5f 87be
000000a0: 44a5 8dbe 35dc 143e 64ff 88bb e8f2 98be
000000b0: 9672 4cbe 7239 813d 71bc 67bd 98bd 5fbe
000000c0: 63b0 c83c d8f3 3e3d 2566 8e3e 8461 193e
000000d0: 4ed2 37bd 1680 0bbd 2798 a43c 6594 42bd
000000e0: 6ee5 ee3d 6b17 3ebc 8a3e cbbc bca0 24be
000000f0: 4f64 b53e 6dc0 023d c25d 743e 7b3e c63d
00000100: 11a2 0fbd 2a0f b13e 0cee 8d3e d0bd b83d
00000110: 0ec8 44bc 8d19 8c3c 721d 02be 6af1 01be
00000120: 1ee9 38bc 4e4b a63e 71be d0be d1c1 ad3d
00000130: a3a2 70be 88c8 4e3e 953f 403e bf32 1a3e
00000140: 4a9b 913e 8664 4e3c 42e7 c23d c354 733d
00000150: fe03 963e c0d6 5abe 2b27 0fbe fa74 9abd
00000160: c7ed b0be d592 92bd 7388 22be c1ef 123e
00000170: 325b 563e ce1f f0bd d871 1c3e dd48 4a3d
00000180: 6267 443e c68c cf3c d8be e9bd c1bb 9a3c
00000190: 59ac 87be 5c89 8ebd e64d 0fbe c054 24be
000001a0: 0ef7 843e c09b 81be f215 87be 7f21 d1bd
000001b0: eb54 093e c2b2 f7bb 1ba0 5bbd 23df 663e
000001c0: a90e 9e3d 9422 bcbd eb0a d9bd a895 f93d
000001d0: 1c7d 8d3e 2255 573e c1a3 c73b 0f18 563d
000001e0: 55cb a03c b2c2 273e e12d 873e 3089 c73d
000001f0: 1635 58bd ff1e 863d f6f4 fdbd 110d 93bd
00000200: d004 3c3e f7c8 40be e14d 843b c834 e33d
00000210: ddb1 83be 096e 3c3d 40ff 5abd 9bbf 3bbe
00000220: 8b18 693d 8ff2 c1be 9849 033e 9baf da3e
00000230: f044 c6bc cc83 2a3e 6418 54bc 399c f3bd
00000240: 7911 66be 582e 633d e8f4 b33e 25f2 35be
00000250: f0a4 99bd f913 263e 5010 823e e221 1cbd
00000260: e787 bfbd 979a d4be e713 9fbd 72c6 9abe
00000270: 9a80 a3bd 6d84 e3bc 59b9 bebe f399 0a3e
00000280: f098 143e a2b4 4dbe 9b29 6fbd 2f27 d9bd
00000290: 5643 89bd 7194 08be 3f45 6dbb d98a 623e
000002a0: 4228 493e fbd9 04be a562 383e 872f a7bd
000002b0: ea04 28be 49f0 23be 71b3 c13e eec1 47be
000002c0: abd6 45be 63c8 a8be 0dd7 f83c d45b ce3d
000002d0: d62e 1c3c 8894 963e 3f21 003e 4a41 973e
000002e0: 6907 273e 31af 173e d55a a0be 2221 813e
000002f0: 6dbb f93d 0570 2a3e 4216 29be a438 a6bd
00000300: a417 8fbd 845a 1dbe 09f8 9c3e 4a6d 4bbe
00000310: 3177 2bbe 318a 94be 4ed2 ac3c c94d 53bb
00000320: e641 bc3e 7f8e e93d 492e 243c 5a8d 73be
00000330: b1f5 09be e7f8 a83c de62 b6be 4b5d 843d
00000340: 7d42 25bd 161d 813e e9fc 313e 5603 52be
00000350: 912b edbd 5e01 2a3e 8018 2ebe 1a80 4f3d
00000360: 6649 fdbd 0e07 cf3d dc39 17be ea5f 073e
00000370: 0835 69bd a449 4dbd 1a3e 02bc dcba 70bc
00000380: b352 25be 3894 8d3d 656a 40be a436 4b3d
00000390: 2f80 21be 075a e4bd a96e eb3d 8480 edbd
000003a0: 97d5 613e f28e 7b3e 18d0 01bd d34b 14be
000003b0: ca68 b93e 35cf e13d 4bc0 083e 2369 11be
000003c0: 226f 38be 9861 1c3e 68f2 a43e acd4 443d
000003d0: eab3 b3bd 6599 5bbc fe82 ea3d b645 c13d
000003e0: 1f39 2c3e d058 8b3e 7950 9c3d e967 f33d
000003f0: 733a b53e ffb5 5c3d c931 15be c19c 43bd

res1.3.bias f4 [64]
0.0099563105 0.009359744 -0.0011482479 0.007908015 0.009934715 0.0038252259 0.015542197 0.012389116
0.0091109825 0.008138283 -0.003136455 0.018838085 0.011164085 0.02931156 -0.008199112 0.009956783
-0.0025719434 0.029097259 0.017052341 -0.0058851093 0.009977464 0.007721632 0.021050077 0.03591812
0.013556395 0.0015162801 0.012116746 -0.0005125531 0.009511518 0.014144066 0.014642459 0.010881482
0.004852977 0.01543823 0.0070491857 -0.011712319 0.014001066 0.045577656 0.0060854517 -0.004380136
0.018081093 -0.0053286958 0.019483332 0.021053948 0.0016389005 -0.0018501361 0.009444322 0.01179602
0.0038901174 0.008976907 0.020274973 0.013006418 0.024446184 -0.0005138994 0.012889385 0.018737113
0.005786095 -0.0025387506 0.012159435 -0.003688907 0.007755242 0.014581114 0.017718008 0.004418169
00000000: cb1f 233c 9d59 193c ce80 96ba 9e90 013c
00000010: 37c5 223c a4b0 7a3b b3a4 7e3c b8fb 4a3c
00000020: 3b46 153c 6f56 053c fc8c 4dbb 5452 9a3c
00000030: 91e9 363c cc1e f03c 9155 06bc c621 233c
00000040: 0d8e 28bb 605d ee3c 5ab1 8b3c e0d7 c0bb
00000050: 8478 233c be05 fd3b 3671 ac3c e11e 133d
00000060: a41b 5e3c ebbd c63a 5185 463c db5c 06ba
00000070: 33d6 1b3c 83bc 673c ede6 6f3c 3e48 323c
00000080: b905 9f3b a1f0 7c3c dbfc e63b 07e5 3fbc
00000090: ba64 653c a3af 3a3d 7868 c73b 3e87 8fbb
000000a0: cd1e 943c 579c aebb 829b 9f3c 5479 ac3c
000000b0: 60d0 d63a 4480 f2ba 5cbc 1a3c 1844 413c
000000c0: 57f1 7e3b e013 133c b317 a63c df18 553c
000000d0: 5d43 c83c 34b7 06ba 002e 533c 937e 993c
000000e0: 4899 bd3b 2b61 26bb 5e38 473c 97c1 71bb
000000f0: af1f fe3b a0e5 6e3c 5b25 913c 4ac6 903b

res1.4.weight f4 [64]
1.0023063 0.9865626 1.0206795 0.99930197 0.9983962 0.9942977 0.9777341 1.0224714
1.0121899 1.0073471 1.0256307 1.0337554 0.9929809 1.0446398 1.0358386 1.0119703
1.0512651 0.99040115 1.0004458 0.99042326 1.045194 1.0109644 1.0149269 1.0015248
1.0108283 0.984537 1.0029119 0.9807758 0.97470516 1.0079768 1.0289413 0.9967113
0.99974287 0.99202687 0.9991327 0.9652234 0.9696153 0.9895467 1.0085523 0.9781063
0.9869116 0.9959619 1.0211692 0.9902523 1.0209808 0.99635535 0.99723244 1.0232315
0.9922566 0.9906374 1.031642 1.0152256 0.9664021 0.993305 0.9900997 1.0074008
0.99181855 0.99890375 1.0097219 0.99671024 1.005758 1.0205609 1.0064058 0.9899413
00000000: 934b 803f 5e8f 7c3f a0a5 823f 41d2 7f3f
00000010: e596 7f3f 4b8a 7e3f c84c 7a3f 58e0 823f
00000020: 708f 813f c0f0 803f de47 833f 1952 843f
00000030: ff33 7e3f c2b6 853f 5c96 843f 3e88 813f
00000040: db8f 863f ee8a 7d3f 9c0e 803f 618c 7d3f
00000050: ebc8 853f 4867 813f 20e9 813f f731 803f
00000060: d262 813f 9e0a 7c3f 6b5f 803f 1f14 7b3f
00000070: 4786 793f 6205 813f 59b4 833f 7928 7f3f
00000080: 26ef 7f3f 79f5 7d3f 29c7 7f3f e118 773f
00000090: b538 783f ef52 7d3f 3e18 813f 2d65 7a3f
000000a0: 3da6 7c3f 5cf7 7e3f acb5 823f 2d81 7d3f
000000b0: 80af 823f 2511 7f3f a04a 7f3f 40f9 823f
000000c0: 8704 7e3f 6a9a 7d3f d80c 843f eaf2 813f
000000d0: 2166 773f 3d49 7e3f 2d77 7d3f 82f2 803f
000000e0: d2e7 7d3f 28b8 7f3f 913e 813f 6728 7f3f
000000f0: aebc 803f bda1 823f e8d1 803f cb6c 7d3f

res1.4.bias f4 [64]
-0.00015153686 -0.0044636466 -0.011645909 -0.0017894035 -0.0007326739 -0.008483143 0.006375837 0.001635256
-0.0060553798 -0.00409213 -0.012905044 0.008261722 0.0022175286 0.007939581 -0.015666006 -0.0016618136
-0.010901782 0.013461906 0.0054360707 -0.009885193 -0.0013580215 -0.0021950433 0.013139336 0.011617005
0.0049790097 -0.0051479293 -1.4972065e-05 -0.010671192 -0.0026780094 0.0027114928 0.0030416648 -0.00041838462
-0.0075152977 -0.0013823526 -0.0040782974 -0.018158266 -0.0009745589 0.020670328 -0.008053125 -0.012880435
0.013460353 -0.019714935 0.0049300594 0.0035953927 -0.005771292 -0.009088425 -0.0006296325 0.0070699668
-0.0047180336 0.0030213494 0.009602342 0.00032356312 0.024770092 -0.007878932 -0.001176444 0.008858624
-0.001390934 -0.013653981 0.0024523605 -0.012404986 -0.00021355381 0.0019185232 0.008168191 -0.012241543
00000000: dee5 1eb9 c843 92bb 7cce 3ebc 6b8a eaba
00000010: ea10 40ba e1fc 0abc 66ec d03b 1656 d63a
00000020: 356c c6bb 4617 86bb ad6f 53bc 2c5c 073c
00000030: f553 113b 0415 023c ff55 80bc 36d1 d9ba
00000040: 639d 32bc 548f 5c3c 1121 b23b 81f5 21bc
00000050: a4ff b1ba b7da 0fbb 5f46 573c 4055 3e3c
00000060: f626 a33b f6af a8bb 8830 7bb7 39d6 2ebc
00000070: 8b81 2fbb 4db3 313b ab56 473b a25a dbb9
00000080: e342 f6bb 0e30 b5ba 3da3 85bb a5c0 94bc
00000090: 8a79 7fba d254 a93c 41f1 03bc 7608 53bc
000000a0: d088 5c3c 3781 a1bc 568c a13b aea0 6b3b
000000b0: 1b1d bdbb 9ee7 14bc ec0d 25ba 2eab e73b
000000c0: bc99 9abb d501 463b 2453 1d3c e8a3 a939
000000d0: a6ea ca3c a316 01bc e932 9aba c323 113c
000000e0: 0050 b6ba f2b4 5fbc c8b7 203b 483e 4bbc
000000f0: 6aed 5fb9 f576 fb3a e0d3 053c c190 48bc

res2.0.weight f4 [64, 64]
0.0010665435 -0.015249022 0.084065475 0.12914625 -0.21944436 -0.20433539 -0.50825745 0.3405008
-0.089427136 0.2379419 -0.18579797 0.31773472 0.0024338912 -0.21862195 0.055704743 -0.050363675
-0.061169267 -0.25041443 -0.2992011 0.18989453 -0.06763602 -0.2545232 -0.04569533 -0.09353718
-0.13791832 0.08024409 -0.31757018 0.1383351 -0.1262405 -0.08649388 -0.024167677 0.20897411
0.17023954 -0.07710281 -0.09384221 0.15106753 -0.3294616 -0.23196997 -0.10607177 0.14820626
-0.073481925 -0.11235501 -0.1780697 0.021317318 0.18088053 0.2355379 0.10204661 -0.10160506
0.17997523 -0.03281112 0.044581108 0.1395505 0.24110374 0.002224477 -0.15103953 -0.021028085
-0.16038384 -0.36783245 0.09584365 -0.00010804793 0.011627158 0.23536995 0.23941752 0.19324595
0.0007935724 -0.24361394 -0.22313355 0.27050304 -0.13510603 -0.044346813 -0.3181694 -0.11689719
0.31967935 -0.07932078 -0.13752587 0.120868236 0.0037488544 -0.037411183 0.02413935 0.13527173
0.05731132 0.024775276 -0.034040812 0.16148348 -0.17088096 0.0057679317 0.22490713 0.11747936
-0.12047977 -0.3105361 -0.05630108 0.08031933 -0.040959317 0.33012894 0.029251738 0.017995832
-0.24120153 0.04889531 0.013148557 0.004636804 -0.08373797 -0.07741918 0.025525877 -0.0044689374
0.118686 -0.2151869 -0.030155117 0.21635355 -0.072638296 -0.0323144 0.06661165 -0.15363805
-0.108065866 -0.02731316 -0.05309138 0.15537505 -0.049569 -0.050578073 0.013111142 -0.26681995
0.29513937 -0.22739722 -0.20070097 0.27669603 0.03249866 0.019777492 -0.0058065006 0.13950051
0.23013313 0.042334832 -0.047424205 0.0457074 0.32512027 0.1871727 -0.31129658 -0.16115075
0.16964397 -0.20760825 0.28191316 -0.20012124 -0.036053807 0.09783224 -0.022727821 0.21867226
0.32959798 0.14737241 0.22133836 -0.38329664 -0.15727 0.1068488 0.033689115 0.09810649
-0.29505235 -0.18094257 -0.04138933 0.3278566 0.17063569 -0.13588387 -0.025249984 -0.2711273
-0.1350111 0.38996142 0.055989977 0.17176537 0.32198226 -0.096743755 -0.23216595 0.082124636
0.067012794 0.22050011 0.28995496 0.2162821 -0.16106082 0.14511827 0.018437974 -0.11786476
0.08267409 0.091514535 0.1721029 0.10945873 -0.109623894 -0.006073201 -0.10573946 0.38092494
-0.30767557 0.0648789 0.13100253 0.06413825 0.10326326 -0.24527058 -0.20961036 -0.05431591
0.51096237 -0.11569574 -0.21988249 -0.13502079 0.4186523 -0.0961543 -0.17692275 0.23038515
-0.016537296 -0.37169254 0.1836785 -0.051079098 -0.00075408723 0.4073439 0.4002694 -0.3062968
-0.14203821 0.13563961 -0.042412914 0.16383623 -0.04841086 0.46910134 -0.00866244 -0.12820074
-0.17438574 -0.3753079 0.09941039 -0.015938688 0.076675735 0.0893182 0.09941557 0.07396877
0.19769698 -0.1048834 -0.16153485 0.25396895 0.11556602 0.28273487 -0.13231951 -0.2909837
0.14084919 -0.12985268 0.07437957 0.51596135 -0.12795421 -0.29916334 0.13051783 -0.033384565
0.036177274 -0.06404484 -0.2476266 -0.20095314 0.14379762 0.2504298 -0.054299466 -0.3020897
0.005198581 0.23437007 -0.35500765 0.23136748 0.1676787 -0.1165859 0.28720492 -0.1813412
00000000: 43cb 8b3a 09d7 79bc 852a ac3d ea3e 043e
00000010: 06b6 60be 4c3d 51be 291d 02bf 1f56 ae3e
00000020: 9325 b7bd 0ba7 733e d341 3ebe 20ae a23e
00000030: eb81 1f3b 6fde 5fbe a82a 643d 244a 4ebd
00000040: a08c 7abd 5236 80be e330 99be b673 423e
00000050: c184 8abd dd50 82be 072b 3bbd 6c90 bfbd
00000060: 763a 0dbe 0357 a43d 8f98 a2be b7a7 0d3e
00000070: 3145 01be b423 b1bd 4bfb c5bc 4ffd 553e
00000080: 4653 2e3e 14e8 9dbd 5830 c0bd 72b1 1a3e
00000090: 31af a8be 8989 6dbe 283c d9bd 62c3 173e
000000a0: b17d 96bd 621a e6bd e757 36be a8a1 ae3c
000000b0: bf38 393e d930 713e d0fd d03d 5016 d0bd
000000c0: 6d4b 383e f464 06bd ae9a 363d 54e6 0e3e
000000d0: e6e3 763e 88c8 113b 1baa 1abe 1743 acbc
000000e0: a93b 24be 8954 bcbe ad49 c43d ca97 e2b8
000000f0: d67f 3e3c d204 713e de29 753e 44e2 453e
00000100: be07 503a ef75 79be 1f7d 64be 607f 8a3e
00000110: 3c59 0abe 01a5 35bd 19e7 a2be cb67 efbd
00000120: 03ad a33e ef72 a2bd 95d3 0cbe c489 f73d
00000130: 57af 753b 783c 19bd e3bf c53c ac84 0a3e
00000140: 46bf 6a3d 85f5 ca3c 616e 0bbd ed5b 253e
00000150: 6bfb 2ebe eb00 bd3b 0e4e 663e 0599 f03d
00000160: 19be f6bd 96fe 9ebe f69b 66bd 767e a43d
00000170: f5c4 27bd a906 a93e 57a1 ef3c ff6b 933c
00000180: 89fd 76be 7346 483d 0c6d 573c 55f0 973b
00000190: d07e abbd f28d 9ebd a51b d13c 2a70 92bb
000001a0: a511 f33d f459 5cbe dd07 f7bc c98b 5d3e
000001b0: 63c3 94bd 1b5c 04bd b06b 883d 4b53 1dbe
000001c0: a351 ddbd d9bf dfbc 5976 59bd a31a 1f3e
000001d0: dd08 4bbd f42a 4fbd 1ed0 563c a09c 88be
000001e0: 821c 973e d1da 68be 8e84 4dbe 1aab 8d3e
000001f0: 511d 053d 6804 a23c 7544 bebb 39d9 0e3e
00000200: 05a8 6b3e 4a67 2d3d e23f 42bd af37 3b3d
00000210: 2a76 a63e 33aa 3f3e 4462 9fbe b404 25be
00000220: 26b7 2d3e 4297 54be ec56 903e 95ec 4cbe
00000230: 28ad 13bd 455c c83d b22f babc 9feb 5f3e
00000240: 11c1 a83e cbe8 163e 86a6 623e 753f c4be
00000250: 630b 21be 8bd3 da3d 99fd 093d 0eec c83d
00000260: 1a11 97be 0249 39be dc87 29bd d2dc a73e
00000270: 1fbb 2e3e 2425 0bbe 0ed9 cebc 33d1 8abe
00000280: 5a40 0abe 06a9 c73e bf55 653d 43e3 2f3e
00000290: dcda a43e 9721 c6bd e9bc 6dbe f630 a83d
000002a0: 013e 893d c8ca 613e fa74 943e 0e79 5d3e
000002b0: 21ed 24be e299 143e 3c0b 973c 1463 f1bd
000002c0: 0951 a93d f96b bb3d be3b 303e e62b e03d
000002d0: 7e82 e0bd b401 c7bb ee8d d8bd 9808 c33e
000002e0: a787 9dbe 3bdf 843d 8725 063e ea5a 833d
000002f0: b07b d33d 3628 7bbe 19a4 56be 5c7a 5ebd
00000300: 6ece 023f e3f1 ecbd e028 61be e442 0abe
00000310: 9859 d63e 8cec c4bd 3d2b 35be 16ea 6b3e
00000320: 3979 87bc 7c4e bebe 3716 3c3e 5138 51bd
00000330: f0ad 45ba 618f d03e 1cf0 cc3e efd2 9cbe
00000340: 7772 11be 1ce5 0a3e 2ab9 2dbd afc4 273e
00000350: 774a 46bd 0d2e f03e e8ec 0dbc 0e47 03be
00000360: 2d92 32be 5b28 c0be ad97 cb3d da91 82bc
00000370: 2b08 9d3d 76ec b63d 649a cb3d f07c 973d
00000380: 1471 4a3e 1ccd d6bd 6469 25be 3808 823e
00000390: e1ad ec3d a0c2 903e c47e 07be d1fb 94be
000003a0: c53a 103e 1af8 04be 5154 983d 0b16 043f
000003b0: 6e06 03be f02b 99be 77a6 053e 41be 08bd
000003c0: 9f2e 143d f129 83bd d491 7dbe a9c6 4dbe
000003d0: af3f 133e 5638 803e 1e69 5ebd 80ab 9abe
000003e0: dc58 aa3b b5fe 6f3e 90c3 b5be 99eb 6c3e
000003f0: f7b3 2b3e 97c4 eebd 860c 933e 82b1 39be

res2.0.bias f4 [64]
-0.005063455 0.033285163 0.004703314 0.01808063 0.027619544 0.024906777 0.023336325 0.014641744
0.042585984 0.03096514 0.0034713869 0.026982294 0.026587049 -0.011965995 0.058671422 0.025643354
-0.0001280291 0.018880693 0.04146366 0.024804922 0.022395942 0.02377847 0.030653976 0.023990074
0.026485551 0.004015429 -0.001426238 0.0064011193 0.04429984 0.02539586 0.015811883 0.04019957
0.010281359 0.022538053 -0.0052852514 0.014415739 0.059887238 0.028612083 0.017632 0.0028459434
0.027163507 0.02833669 -0.008056737 0.08575465 0.03523279 0.028321015 0.048222378 0.013027488
-0.01786326 0.022433333 0.016029488 0.018084235 0.022411726 0.0046775253 0.02067751 -0.010834942
-0.0051958207 -0.0047868667 0.009983482 0.10850991 0.039920535 -0.014241988 0.03269298 0.028674792
00000000: 57eb a5bb 0656 083d 421e 9a3b d41d 943c
00000010: 6242 e23c 4c09 cc3c d22b bf3c ede3 6f3c
00000020: a46e 2e3d 9baa fd3c 3580 633b f909 dd3c
00000030: 15cd d93c 050d 44bc 7251 703d 0312 d23c
00000040: 8d3f 06b9 afab 9a3c ccd5 293d b133 cb3c
00000050: b277 b73c 11cb c23c 0c1e fb3c d586 c43c
00000060: 3af8 d83c dc93 833b 9bf0 baba 7bc0 d13b
00000070: c073 353d fb0a d03c ec87 813c 4ea8 243d
00000080: 2573 283c b9a1 b83c e72f adbb fe2f 6c3c
00000090: 524c 753d e363 ea3c fc70 903c 0283 3a3b
000000a0: 0186 de3c 5922 e83c 6700 04bc 22a0 af3d
000000b0: 4250 103d 7901 e83c d484 453d 3f71 553c
000000c0: f955 92bc 1cc6 b73c 4650 833c 6425 943c
000000d0: cc98 b73c ed45 993b e263 a93c 0a85 31bc
000000e0: b441 aabb 26db 9cbb c291 233c 723a de3d
000000f0: b783 233d 3a57 69bc 13e9 053d 66e7 ea3c

res2.1.weight f4 [64]
0.93204784 1.1534684 0.9776176 0.9948783 0.97994864 0.9922023 1.1565672 1.0155461
1.0609529 1.018761 0.97258806 1.0086824 0.99841356 0.9820799 0.9695094 1.0163214
1.0287826 0.99673265 0.9781965 1.076611 1.0155933 1.1025531 1.0298605 0.97865707
1.0932235 1.0050304 0.9771152 1.0822877 1.3545139 1.0225947 1.6816822 1.1429285
1.0957426 0.94646233 0.96213716 1.0061992 0.9108726 1.0894094 0.9667288 0.9936085
0.932639 1.0255562 0.9597448 0.97802263 0.9372997 0.9657202 1.0422736 1.0171986
0.89885545 1.0607244 1.0088588 0.9622179 1.0000736 1.0315638 0.9947778 0.8901204
0.9758684 1.0957525 0.9840441 1.0382949 1.0176113 0.9695476 0.9856752 1.1875005
00000000: b09a 6e3f daa4 933f 2645 7a3f 58b0 7e3f
00000010: eadd 7a3f f800 7e3f 650a 943f 6afd 813f
00000020: 4ecd 873f c366 823f 88fb 783f 811c 813f
00000030: 0898 7f3f 9769 7b3f c531 783f d216 823f
00000040: 26af 833f df29 7f3f 166b 7a3f 64ce 893f
00000050: f6fe 813f 7620 8d3f 78d2 833f 4589 7a3f
00000060: bfee 8b3f d6a4 803f 3924 7a3f 6788 8a3f
00000070: b660 ad3f 62e4 823f 5d41 d73f 7b4b 923f
00000080: 4b41 8c3f 5b4b 723f 9f4e 763f 23cb 803f
00000090: f22e 693f c471 8b3f 8a7b 773f 205d 7e3f
000000a0: 6ec1 6e3f 6d45 833f d6b1 753f b15f 7a3f
000000b0: e0f2 6f3f 7039 773f 3969 853f 9033 823f
000000c0: 641b 663f d1c5 873f 4922 813f ea53 763f
000000d0: 6902 803f 480a 843f c2a9 7e3f eede 633f
000000e0: 83d2 793f 9e41 8c3f 50ea 7b3f d9e6 843f
000000f0: 1641 823f 4634 783f 3655 7c3f 0400 983f

res2.1.bias f4 [64]
-0.06906894 0.033802122 -0.02521011 0.0037811012 -0.03795393 -0.030611217 -0.012491842 -0.004148261
-0.0024929836 -0.008592596 -0.0250695 0.0059153438 -0.02234948 -0.028209154 -0.06463893 0.010240957
-0.035887785 0.0049468763 -0.03528725 -0.05809808 -0.015201731 -0.0041008038 -0.016449135 -0.012287608
-0.0264665 -0.030761803 -0.028310094 -0.031383634 0.090990484 -0.015535028 0.022048524 0.00803944
-0.008758364 -0.06030053 -0.04262535 -0.037713382 -0.034558907 -0.01349699 -0.058057256 -0.011534686
-0.057287924 0.024357935 -0.036486268 -0.03382714 -0.071189635 -0.049541228 -0.009477479 -0.02975842
-0.09812946 -0.0152585395 -0.0038276068 -0.036997937 -0.009210623 -0.027177533 -0.0081975125 -0.09644866
-0.027069809 -0.0052092485 -0.009724073 0.0004227609 -0.006148794 -0.0392995 0.0019199852 -0.0039679767
00000000: 0474 8dbd 1874 0a3d 6f85 cebc 5acc 773b
00000010: 9575 1bbd 60c4 fabc 95aa 4cbc 23ee 87bb
00000020: 5361 23bb f6c7 0cbc 8d5e cdbc 80d5 c13b
00000030: 4216 b7bc e216 e7bc 6a61 84bd b0c9 273c
00000040: 12ff 12bd 6819 a23b 5d89 10bd 41f8 6dbd
00000050: ae10 79bc 0960 86bb 56c0 86bc f751 49bc
00000060: 46d0 d8bc 2d00 fcbc 92ea e7bc 208c 00bd
00000070: 3859 ba3d a186 7ebc 1b9f b43c dbb7 033c
00000080: 3e7f 0fbc b0fd 76bd eb97 2ebd 5979 1abd
00000090: a48d 0dbd 7b22 5dbc 72cd 6dbd fbfb 3cbc
000000a0: bea6 6abd 4b8a c73c a072 15bd 548e 0abd
000000b0: dfcb 91bd beeb 4abd 6e47 1bbc eec7 f3bc
000000c0: 19f8 c8bd f4fe 79bc 96d8 7abb 268b 17bd
000000d0: 27e8 16bc 6ba3 debc dc4e 06bc e086 c5bd
000000e0: 81c1 ddbc 58b2 aabb b851 1fbc 02a6 dd39
000000f0: d37b c9bb 83f8 20bd 03a8 fb3a cd05 82bb

res2.3.weight f4 [64, 64]
-0.08634911 -0.010555792 0.011722035 0.050757278 0.14098488 -0.09574137 0.31150877 0.30546898
-0.049768228 0.13228089 -0.18512847 -0.06608383 0.075263724 0.19731933 0.03872649 -0.31665677
-0.0076717497 -0.27067614 -0.33694282 -0.022769865 -0.12875728 -0.16838914 -0.0121339755 0.059363853
-0.012258947 0.25970817 -0.1687318 -0.24129018 0.17333142 -0.0013136797 0.3139757 0.05261402
0.26802033 0.031221312 0.05688082 0.19627059 -0.0050946428 -0.57917786 -0.22739077 0.24462593
0.030378228 0.0864452 -0.04673329 0.40548778 0.17477459 -0.081499614 -0.021178324 0.11779445
0.31795332 -0.080109864 -0.07482356 0.021787602 0.28142938 0.124486156 0.29714218 -0.025170593
-0.0708443 -0.078579456 -0.10652201 -0.48230425 -0.19209401 0.15371443 -0.19400771 -0.114829704
-0.095086664 -0.07726871 -0.3406141 0.09979055 -0.13893272 0.1461754 0.23459354 0.22019476
-0.13481204 -0.23376983 -0.13937956 -0.3022203 0.42551202 0.016483225 -0.34073296 -0.14263669
0.11958177 -0.017410908 0.14967048 -0.023049245 -0.18616672 0.27918032 -0.11369279 -0.40914375
-0.36323246 -0.20650086 0.047778733 -0.12299914 0.0055733095 0.2447244 0.19104223 0.15334314
0.1689945 -0.35911614 -0.09603159 0.084058285 -0.015860658 -0.37807876 0.020555977 -0.069873475
-0.079349466 0.14015864 0.03884554 0.12965134 -0.11404097 0.018490333 0.055091806 0.20718297
-0.16264439 -0.15280865 -0.0473862 0.0988612 0.40294874 0.250584 -0.111612 -0.1349928
-0.110917516 -0.15109694 0.22397463 0.072288856 0.061865736 0.17831556 0.08309821 -0.03319336
0.079673775 0.44290408 0.12472148 -0.32521886 0.09276483 0.04495369 -0.16852666 0.090578705
-0.0019952562 0.10484661 -0.097846664 -0.12170775 -0.4203542 0.054346282 0.07016876 0.06346594
0.1243555 -0.021930372 0.103443 0.04670093 0.03745174 -0.34296837 0.044441037 -0.36889842
0.3239769 0.123912595 -0.080456994 0.16629317 -0.13932185 -0.122773856 -0.31041974 -0.19173896
-0.33013576 0.14257072 -0.0037168537 -0.25309938 -0.14261217 0.3566115 0.1982229 -0.054294232
-0.16108145 -0.16891451 0.10303379 -0.09387732 -0.03983216 -0.14542428 0.21350446 0.08693188
0.21570481 0.0050844927 0.0766663 -0.054815363 0.073960386 0.2871845 0.28043836 -0.031783555
0.032549877 -0.016761897 -0.011825963 0.07658575 -0.095758416 0.09250847 -0.09774252 -0.15296501
-0.10575963 -0.1334174 0.04145377 -0.022170182 -0.03575602 -0.21050102 0.15663545 -0.18964465
-0.13069353 -0.0959119 -0.3351997 -0.047153965 -0.18486014 0.016244221 0.11959956 0.08004088
-0.16767392 -0.14336236 -0.22859268 0.07710443 0.5064949 -0.0688255 0.19637065 0.15823378
-0.21640153 -0.024230875 0.31104755 0.106945276 0.40257776 -0.36168426 0.36730817 0.1100282
-0.10006582 0.19160609 0.40573317 0.277969 0.29915088 -0.18486656 -0.3093778 0.23996049
0.047618836 0.1980957 0.036192637 -0.009876671 -0.053618155 -0.22118583 -0.025632923 0.15943587
0.06281987 0.14616439 -0.021557495 0.031821135 -0.07720098 -0.0199764 0.044119097 -0.019926535
-0.14358738 0.0018797332 -0.106697805 -0.15416951 -0.217688 0.15126602 -0.058221206 -0.35434824
00000000: cdd7 b0bd 33f2 2cbc c70d 403c dde6 4f3d
00000010: 575e 103e 0d14 c4bd 147e 9f3e 6e66 9c3e
00000020: c5d9 4bbd a474 073e 5192 3dbe f656 87bd
00000030: de23 9a3d 140e 4a3e ab9f 1e3d d620 a2be
00000040: 4d63 fbbb 1096 8abe c583 acbe de87 babc
00000050: f3d8 03be 346e 2cbe 95cd 46bc 8327 733d
00000060: c0d9 48bc 78f8 843e 07c8 2cbe c614 77be
00000070: cb7d 313e c72f acba 6cc1 a03e cc81 573d
00000080: f639 893e d6c3 ff3c ddfb 683d 28fb 483e
00000090: f6f0 a6bb 0045 14bf 20d9 68be 387f 7a3e
000000a0: c3db f83c 2e0a b13d 686b 3fbd 189c cf3e
000000b0: 1cf8 323e 45e9 a6bd 2a7e adbc 373e f13d
000000c0: c7ca a23e a410 a4bd 183d 99bd ea7b b23c
000000d0: 8317 903e 99f2 fe3d 0523 983e 8f32 cebc
000000e0: d116 91bd 44ee a0bd 3628 dabd 95f0 f6be
000000f0: 4bb4 44be 5167 1d3e f5a9 46be d62b ebbd
00000100: ccbc c2bd 0f3f 9ebd f964 aebe fd5e cc3d
00000110: 6144 0ebe 01af 153e 4a39 703e bc7a 613e
00000120: 2b0c 0abe 5c61 6fbe 84b9 0ebe 9fbc 9abe
00000130: b6dc d93e d407 873c 8d74 aebe 5a0f 12be
00000140: 49e7 f43d 52a1 8ebc 3843 193e c5d1 bcbc
00000150: 7da2 3ebe b9f0 8e3e c4d7 e8bd 4a7b d1be
00000160: 9bf9 b9be f674 53be a2b3 433d f9e6 fbbd
00000170: 4fa0 b63b 0899 7a3e 93a0 433e fc05 1d3e
00000180: e50c 2d3e 12de b7be 36ac c4bd c026 ac3d
00000190: 36ee 81bc 8a93 c1be 0265 a83c d319 8fbd
000001a0: f981 a2bd bf85 0f3e 801c 1f3d 52c3 043e
000001b0: 508e e9bd 0a79 973c f2a7 613d c627 543e
000001c0: 408c 26be df79 1cbe 0818 42bd be77 ca3d
000001d0: 4c4f ce3e 8c4c 803e d594 e4bd 8d3b 0abe
000001e0: b928 e3bd 28b9 1abe 9b59 653e 2e0c 943d
000001f0: ed66 7d3d 5b98 363e 652f aa3d c3f5 07bd
00000200: 012c a33d 53c4 e23e fa6d ff3d 1683 a6be
00000210: 7dfb bd3d 5c21 383d 4192 2cbe 5481 b93d
00000220: d8c2 02bb d2b9 d63d d563 c8bd ea41 f9bd
00000230: aa38 d7be 359a 5e3d a4b4 8f3d 6efa 813d
00000240: 19ae fe3d 53a7 b3bc ecd9 d33d 7949 3f3d
00000250: ff66 193d 8d99 afbe ce07 363d 41e0 bcbe
00000260: 4de0 a53e e3c5 fd3d a3c6 a4bd c248 2a3e
00000270: 63aa 0ebe dc70 fbbd 56ef 9ebe 3857 44be
00000280: 8e07 a9be 0ffe 113e 7596 73bb 3e96 81be
00000290: ed08 12be c895 b63e f2fa 4a3e a163 5ebd
000002a0: 89f2 24be edf7 2cbe 6103 d33d c142 c0bd
000002b0: 0c27 23bd 1aea 14be eaa0 5a3e 5709 b23d
000002c0: b9e1 5c3e d19b a63b 3903 9d3d 1386 60bd
000002d0: 8b78 973d d909 933e 9e95 8f3e 792f 02bd
000002e0: 0553 053d 3f50 89bc afc1 41bc fdd8 9c3d
000002f0: fd1c c4bd 1575 bd3d 3b2d c8bd dca2 1cbe
00000300: 8198 d8bd 929e 08be 6ecb 293d 3e9e b5bc
00000310: e874 12bd 948d 57be 0b65 203e 3532 42be
00000320: 86d4 05be 756d c4bd 4c9f abbe 8424 41bd
00000330: fa4b 3dbe 9a12 853c 9df0 f43d 79ec a33d
00000340: b6b2 2bbe 95cd 12be 3314 6abe ede8 9d3d
00000350: a6a9 013f 62f4 8cbd 6315 493e 0908 223e
00000360: 5d98 5dbe d47f c6bc a041 9f3e 2006 db3d
00000370: ac1e ce3e ae2e b9be d10f bc3e 7756 e13d
00000380: 4fef ccbd 6334 443e 42bc cf3e f451 8e3e
00000390: 4e2a 993e a94d 3dbe c466 9ebe 34b8 753e
000003a0: f80b 433d 99d9 4a3e bb3e 143d c3d1 21bc
000003b0: b69e 5bbd 8a7e 62be 23fc d1bc 2843 233e
000003c0: b4a7 803d 1eac 153e 5899 b0bc e156 023d
000003d0: 8c1b 9ebd 8ca5 a3bc 3ab6 343d f93c a3bc
000003e0: 9208 13be 6161 f63a 6184 dabd 9dde 1dbe
000003f0: 9ae9 5ebe 7be5 1a3e 5c79 6ebd 226d b5be
