best_precision_controller.pth (torch, 644634 bytes, 140 tensors)

input_layer.0.weight f4 [64, 80]
0	0xbe2b3f83	-0.16723447
1	0x3d9fc382	0.07800962
2	0xbddcfc4d	-0.1079031
3	0x3e91b558	0.28458667
4	0xba96b2d4	-0.0011497387
5	0xbe99885a	-0.2998684
6	0x3eb36f18	0.35045695
7	0x3e1a846f	0.15089582
8	0x3ee2da3d	0.44307128
9	0xbd017c7a	-0.03161285
10	0xbdc9b626	-0.09849195
11	0xbe2afc34	-0.1669777
12	0xbcbda485	-0.023149738
13	0xbcb6fdca	-0.022337813
14	0x3d003811	0.03130347
15	0x3ec94e26	0.39317435
16	0xbe5b4c5d	-0.21415849
17	0x3dd39062	0.10330273
18	0xbdcc49cf	-0.09975015
19	0xbeaea57b	-0.34110627
20	0x3be30ed6	0.006929259
21	0xbe3727a4	-0.17886215
22	0x3de23e6a	0.11047061
23	0xbd8bb736	-0.06822054
24	0xbe83ee2b	-0.25767645
25	0xbe5ce548	-0.21571839
26	0x3ddf93dd	0.109168746
27	0xbe8d270e	-0.2756886
28	0xbd997861	-0.074936636
29	0x3e7c9073	0.24664478
30	0x3ef3ed8b	0.47642168
31	0xbdd4954c	-0.103800386
32	0x3d8a15eb	0.06742462
33	0xbd37cf54	-0.044875458
34	0xbe258735	-0.16164859
35	0xbc1307b7	-0.008974007
36	0xbda0cefc	-0.07851979
37	0xbd90ff37	-0.07079928
38	0xbc75ff58	-0.015014492
39	0xbd141ae7	-0.03615847
40	0xbbad9f07	-0.0052984986
41	0x3c486bcd	0.012232733
42	0x3da0c942	0.07850887
43	0x3df5c6da	0.120008186
44	0xbe569a3b	-0.20957272
45	0xbe4b2aa2	-0.19840482
46	0xbd890785	-0.06690887
47	0x3dcb6693	0.09931674
48	0xbe29bbfc	-0.16575617
49	0x3e68f3d6	0.22749266
50	0x3de4e74d	0.111769296
51	0xbd0c6bb5	-0.034282405
52	0xbdc872d1	-0.097875245
53	0xbccea4fb	-0.025225153
54	0x3d723792	0.059135027
55	0x3dad9754	0.08476129
56	0xbe529317	-0.20563923
57	0x3e317cad	0.17332716
58	0x3ecbde25	0.3981792
59	0xbbb182ca	-0.0054172026
60	0xbe600a20	-0.21878862
61	0xbe0becef	-0.13664602
62	0xbe0bf6e7	-0.13668405
63	0x3b684bf1	0.0035445655
64	0x3b489273	0.0030604869
65	0xbe2cf817	-0.16891514
66	0xbd594d90	-0.053052485
67	0x3ddc5695	0.10758702
68	0x3daa2eeb	0.0830973
69	0xbe2ef60c	-0.17086047
70	0xbe79f10b	-0.24408357
71	0x3c90cb20	0.017674983
72	0x3dfb625e	0.122746214
73	0xbdfd9f74	-0.12383929
74	0xbd8f1e48	-0.069881976
75	0xbd19b861	-0.037529353
76	0xbdd3d53a	-0.10343404
77	0x3e4bd831	0.19906689
78	0x3d800546	0.06251006
79	0xbe08c903	-0.1335793
80	0x3e4e5ba0	0.2015214
81	0xbe09d6e1	-0.13460876
82	0x3e685330	0.22687984
83	0x3e3fa36f	0.18714689
84	0x3e2cb82b	0.1686713
85	0xbcad39ca	-0.02114572
86	0xbdc14b7e	-0.09438227
87	0xbe5c9e90	-0.21544862
88	0xbd8bb93e	-0.068224415
89	0xbe700157	-0.23438011
90	0x3ea41e86	0.32054538
91	0x3e0249e8	0.12723505
92	0xbce97f9f	-0.028503237
93	0x3c4d0c29	0.012515106
94	0x3da95b01	0.08269311
95	0x3e137947	0.14401732
96	0xbaa0f3ed	-0.0012279727
97	0x3e6c976e	0.23104641
98	0xbe63dc64	-0.22252041
99	0x3e167500	0.1469307
100	0x3eb76222	0.35817057
101	0xbd02bfc7	-0.031921174
102	0xbe07fd2d	-0.13280173
103	0xbdf3684e	-0.11885129
104	0xbe91bbe4	-0.28463662
105	0xbe9e600c	-0.30932653
106	0xbdd87611	-0.105693944
107	0xbe848d92	-0.2588926
108	0x3d849d84	0.06475356
109	0x3c20fbb7	0.0098256385
110	0xbd55d6eb	-0.052206915
111	0x3ccc0a84	0.024907358
112	0xbea7d617	-0.32780525
113	0x3d9b6163	0.075869344
114	0x3ead9d65	0.33909145
115	0x3c9ff4d3	0.019525921
116	0xbe04cb17	-0.12968098
117	0xbe5d9524	-0.21638924
118	0x3eb091a6	0.3448612
119	0x3e0d1b62	0.13779977
120	0x3d913858	0.07090825
121	0xbdd7f98c	-0.10545644
122	0xbcb76f52	-0.022391949
123	0x3e160bc8	0.14652932
124	0xbe193d9a	-0.14964905
125	0x3c3cec59	0.011530959
126	0x3d819aee	0.063283786
127	0x3d8c46d7	0.06849449
128	0x3d775abd	0.06038927
129	0x3e1b919e	0.15192267
130	0xbe14ceeb	-0.14532058
131	0x3df466f4	0.11933699
132	0xbdcf0997	-0.10109251
133	0xbee52c24	-0.4476024
134	0xbe2f98b1	-0.17148091
135	0xbe53c33a	-0.20679942
136	0x3e0f066a	0.1396729
137	0xbd6e8231	-0.05822963
138	0x3e17848f	0.14796661
139	0x3b0cbff5	0.002147672
140	0x3e455c45	0.1927348
141	0xbe42a80c	-0.19009417
142	0xbdd4edef	-0.10396945
143	0xbe577265	-0.21039732
144	0x3e35a22c	0.17737645
145	0x3b666355	0.0035154421
146	0xbe1373d8	-0.1439966
147	0x3e2c041d	0.16798444
148	0xbe6a319e	-0.2287049
149	0x3ed28f22	0.41124827
150	0x3ce6d61a	0.028178263
151	0x3e466fdc	0.19378608
152	0xbda22887	-0.07917886
153	0xbe24bfcc	-0.1608879
154	0x3d219c0b	0.039455455
155	0x3e867d65	0.26267543
156	0x3ea1567e	0.315113
157	0x3d87c4ec	0.06629357
158	0xbdddbb11	-0.10826696
159	0xbe971cee	-0.2951426
160	0x3e64e306	0.22352228
161	0x3ca7ffc6	0.020507704
162	0xbc9ac755	-0.018893877
163	0x3d93f67b	0.07224747
164	0x3db59e34	0.088680655
165	0xbd6ff9e9	-0.058587942
166	0x3eb3ef47	0.35143492
167	0xbe7b4b29	-0.2454039
168	0xbdb4c4fe	-0.08826636
169	0xbc551362	-0.0130051095
170	0x3e69ac3e	0.22819611
171	0xbdc0d7e7	-0.0941618
172	0xbdbe6963	-0.09297445
173	0xbd79312b	-0.060837906
174	0x3ca96512	0.020678077
175	0x3df6d4d8	0.120523155
176	0xbcb6079b	-0.022220423
177	0x3d7f900f	0.062393244
178	0xbe4fe226	-0.20301113
179	0xbe295746	-0.16537198
180	0xbd3ee457	-0.04660448
181	0xbed6c215	-0.41944948
182	0x3e106af4	0.141033
183	0x3e810aa7	0.2520344
184	0x3baa5083	0.005197586
185	0x3e1b476f	0.15163969
186	0xbe9b928f	-0.30385253
187	0xbdc50cb5	-0.09621564
188	0xbd90158d	-0.070353605
189	0x3d320324	0.043460026
190	0xbdb76b5c	-0.08956024
191	0x3dac6548	0.08417755
192	0x3d8a4b61	0.06752659
193	0xbd91970d	-0.07108889
194	0xbdb3cbc9	-0.08779103
195	0xbdb77d47	-0.08959442
196	0xbe11b603	-0.14229588
197	0x3e0380c2	0.12842086
198	0x3d400320	0.04687798
199	0x3e0230dd	0.12713952
200	0x3ccec802	0.025241856
201	0xbc6e0818	-0.014528297
202	0xbe00e3d1	-0.12586905
203	0x3e523324	0.20527321
204	0xbce035ee	-0.027369466
205	0xbd929482	-0.07157232
206	0xbddf319b	-0.10898133
207	0x3c8136a7	0.01577313
208	0xbd2bdfd3	-0.041961502
209	0xbe39e66e	-0.18154308
210	0x3daf7ac3	0.08568337
211	0x3eb03851	0.34417966
212	0xbe95c5b5	-0.292524
213	0xbd30e97c	-0.043191418
214	0x3d776397	0.06039771
215	0xbe47aa29	-0.19498505
216	0xbd7f0d83	-0.062268745
217	0x3e277b13	0.16355543
218	0xbe22b92a	-0.15890947
219	0xbd17e4a4	-0.037083283
220	0x3de1d531	0.11026991
221	0xbd9eaa60	-0.0774734
222	0x3c4888f3	0.0122396825
223	0x3d9afa86	0.07567315
224	0xbd819625	-0.06327466
225	0x3d75f0bc	0.060044035
226	0xbe293007	-0.16522227
227	0xbe883553	-0.26603183
228	0xbe098250	-0.13428617
229	0x3e09dd50	0.1346333
230	0xbe5e70ea	-0.21722761
231	0xbdf62753	-0.12019219
232	0x3d25fef5	0.04052635
233	0xbeae9b72	-0.3410297
234	0xbe2520d3	-0.16125803
235	0x3d0ac25b	0.033876758
236	0x3bf9cfe6	0.0076236604
237	0x3e54c198	0.20776975
238	0x3dd51427	0.104042344
239	0xbd3d25f5	-0.046178777
240	0xbe714abf	-0.2356367
241	0xbcadac09	-0.021200197
242	0xbdc5cb6d	-0.09657941
243	0xbe4c60c2	-0.19958785
244	0xbec758c8	-0.38934922
245	0xbe239088	-0.15973103
246	0x3a2b2732	0.0006528973
247	0xbc99e311	-0.018785032
248	0x3d7358f5	0.059411008
249	0x3e109594	0.1411956
250	0x3e62f764	0.22164685
251	0xbcc38498	-0.023866937
252	0x3d0d6833	0.0345232
253	0x3e3cb918	0.18429983
254	0x3cbaa3ce	0.022783186
255	0x3e218341	0.15772726

input_layer.0.bias f4 [64]
0	0x3ca9c758	0.020724937
1	0x3b2394f1	0.0024960602
2	0x3b56eb3f	0.0032794026
3	0x3c799e37	0.015235475
4	0x3b22a3ea	0.0024816939
5	0x3c4c613c	0.012474354
6	0xbaa3a636	-0.0012485448
7	0xba93ce40	-0.0011276677
8	0x3cb71650	0.022349507
9	0x3be321c2	0.0069315145
10	0x3c84aafe	0.016194817
11	0x3bee9dfd	0.0072820173
12	0x3c890d75	0.01673005
13	0x3c0ba167	0.008522368
14	0x3c2a46a5	0.0103928195
15	0x3b4e8ab8	0.0031515788
16	0x3b227101	0.0024786594
17	0x3c8973b7	0.01677881
18	0x3c8fa27d	0.017533535
19	0x3b7bda87	0.0038429813
20	0x3c7d50e9	0.015461185
21	0x3c8d1a7a	0.01722454
22	0x3c8323f6	0.016008358
23	0x3c80f85d	0.015743429
24	0x3ade51dc	0.0016961652
25	0x3b9610d3	0.0045796423
26	0x3c802c93	0.015646255
27	0x3c801970	0.01563713
28	0x3c8cc347	0.01718296
29	0x3c842454	0.016130604
30	0x3c697625	0.014249359
31	0x3b170476	0.002304343
32	0x3c2dc1e8	0.010605313
33	0x3c9d45fa	0.019198406
34	0xb99b985b	-0.00029677417
35	0x3b706438	0.0036680829
36	0x3c832dbc	0.016013019
37	0x3c89adad	0.016806448
38	0x3c56a558	0.013100944
39	0x3c928108	0.017883793
40	0x3c14390d	0.009046805
41	0x3b9b36e2	0.004736767
42	0x3aa4a9ab	0.0012562772
43	0x3c889b54	0.016675629
44	0x3c930cb3	0.017950391
45	0x3b450974	0.003006545
46	0x3c0491ee	0.008091433
47	0x3cc2dd16	0.023787063
48	0x3c2c106f	0.010501965
49	0x3c8398c9	0.016064065
50	0x3c7d6693	0.01546635
51	0x3b763bf4	0.0037572356
52	0x3c9abd38	0.018889055
53	0x3b6cb9aa	0.0036121407
54	0x3c93acec	0.018026792
55	0x3b5b10ca	0.0033426755
56	0x3b4ae2e7	0.0030957998
57	0x3c9de2e3	0.019273227
58	0x3ca7d9d8	0.020489618
59	0x3c804236	0.015656572
60	0x3b557ea7	0.0032576711
61	0x3af682be	0.0018807275
62	0x3b05d18a	0.0020419084
63	0x3b16e2ac	0.002302329

input_layer.1.weight f4 [64]
0	0x3f811358	1.0084028
1	0x3f7de68e	0.99179924
2	0x3f7e598b	0.9935538
3	0x3f848ede	1.03561
4	0x3f7e6d4d	0.9938553
5	0x3f7cbf51	0.98729426
6	0x3f7c7069	0.98609024
7	0x3f800000	1.0
8	0x3f81e872	1.0149062
9	0x3f7f6229	0.99759156
10	0x3f80cbfc	1.0062251
11	0x3f8130ff	1.0093077
12	0x3f80dbe3	1.0067104
13	0x3f7f5634	0.9974091
14	0x3f812266	1.0088623
15	0x3f7e3fc3	0.9931604
16	0x3f7e1e4d	0.99264985
17	0x3f80d5b0	1.0065212
18	0x3f80f080	1.0073395
19	0x3f7ee8b4	0.99573827
20	0x3f7c42ef	0.9853963
21	0x3f80e540	1.0069962
22	0x3f80cda7	1.006276
23	0x3f80bd67	1.0057801
24	0x3f7e1b29	0.99260193
25	0x3f7eb728	0.99498224
26	0x3f7e4be9	0.9933458
27	0x3f814ed2	1.0102179
28	0x3f80dc61	1.0067254
29	0x3f80c55a	1.0060227
30	0x3f800000	1.0
31	0x3f7e241e	0.9927386
32	0x3f7fc6d0	0.9991274
33	0x3f80ddc1	1.0067674
34	0x3f7cc9f6	0.9874567
35	0x3f7eecb3	0.99579924
36	0x3f789809	0.9710699
37	0x3f813b92	1.0096304
38	0x3f80f052	1.007334
39	0x3f811799	1.0085326
40	0x3f7f77b7	0.99792045
41	0x3f7ef6b6	0.995952
42	0x3f800000	1.0
43	0x3f80e1cc	1.0068908
44	0x3f80f06d	1.0073372
45	0x3f7e424d	0.99319917
46	0x3f7dd707	0.9915623
47	0x3f87e38e	1.0616319
48	0x3f807d03	1.003815
49	0x3f80cf1d	1.0063206
50	0x3f800000	1.0
51	0x3f7e778d	0.9940117
52	0x3f810286	1.0078895
53	0x3f7e5f41	0.99364096
54	0x3f81fdd8	1.0155592
55	0x3f7e66b9	0.9937549
56	0x3f7e7654	0.99399304
57	0x3f81a829	1.0129443
58	0x3f82fa6e	1.0232675
59	0x3f80d859	1.0066024
60	0x3f802aa5	1.0013014
61	0x3f7cc7ba	0.9874226
62	0x3f7fe3e0	0.99957085
63	0x3f7df5dd	0.9920328

input_layer.1.bias f4 [64]
0	0x3c0e889c	0.008699562
1	0xbbe183f6	-0.006882186
2	0xbbd646c6	-0.0065391986
3	0x3d7e0756	0.062018715
4	0xbbe6c175	-0.007042105
5	0xbc1bfd89	-0.009520897
6	0xbc11dfe8	-0.008903481
7	0x00000000	0.0
8	0x3c38560e	0.011250986
9	0x3a0f903b	0.0005476509
10	0x3bca380b	0.0061712316
11	0x3a8ee99c	0.0010903361
12	0x3bde6a5a	0.0067875804
13	0xba46e40b	-0.00075870816
14	0x3b8bbd61	0.004264519
15	0xbbd86ba8	-0.0066046305
16	0xbbe2a8e3	-0.0069171055
17	0x3bdcf10a	0.0067426013
18	0x3be6463e	0.0070274165
19	0xbbb4dade	-0.005519255
20	0xbb8733fd	-0.0041260705
21	0x3be592ce	0.007006026
22	0x3bce923c	0.0063040536
23	0x3c13deb4	0.0090252645
24	0x3b421155	0.0029612381
25	0xbbabaf88	-0.005239431
26	0xbd00b5ba	-0.031423308
27	0x3bde3219	0.0067808744
28	0x3be3b188	0.0069486536
29	0x3bc9fa7c	0.0061638933
30	0x00000000	0.0
31	0xbbf4c164	-0.007469343
32	0x3b5df8b8	0.0033870172
33	0x3c003671	0.00782548
34	0xbc209fe0	-0.009803742
35	0xbbb0bcf9	-0.005393621
36	0xbd2e0a80	-0.042490482
37	0x3c08fad6	0.008360585
38	0x3be3b5b6	0.006949152
39	0x3bf617be	0.0075101545
40	0xba9eb86f	-0.0012109409
41	0xbb9b4482	-0.0047383914
42	0x00000000	0.0
43	0x3bdad2ce	0.006677962
44	0x3bf42d72	0.0074517066
45	0xbbd89832	-0.00660994
46	0xbc0eb46a	-0.008710006
47	0x3cd4c90f	0.025974778
48	0x3b2ac207	0.002605559
49	0x3bca1a37	0.006167676
50	0x00000000	0.0
51	0xbbcfb131	-0.0063382615
52	0x3be68c21	0.0070357476
53	0xbbd01c48	-0.0063510276
54	0x3c7f699a	0.015589142
55	0xbbc745d6	-0.006081323
56	0xbbd4da6d	-0.006495765
57	0x3c316a05	0.0108285
58	0x3c8c1d9f	0.017103968
59	0x3bcc0b0e	0.0062269038
60	0xbb0b2321	-0.0021230655
61	0xbbef6eda	-0.0073069157
62	0xba75e411	-0.0009379993
63	0xbbf37fc0	-0.0074310005

res1.0.weight f4 [64, 64]
0	0x3eb89678	0.360523
1	0xbcad33cc	-0.021142863
2	0x3e44d3a7	0.19221364
3	0xbd927ab9	-0.07152314
4	0x3c5e412b	0.013565342
5	0x3e87ba0b	0.26509127
6	0xbc74ec20	-0.014948875
7	0xbd9ac908	-0.07557875
8	0x3d9077de	0.07054113
9	0xbd9b4b30	-0.075827
10	0xbe4e0042	-0.20117286
11	0xbe111913	-0.14169721
12	0xbdbc8552	-0.09205116
13	0x3e5e5b07	0.21714412
14	0xbeddfe45	-0.43358055
15	0x3d8383db	0.06421634
16	0x3db08636	0.08619349
17	0xbd267795	-0.040641386
18	0xbe7d28f5	-0.24722655
19	0x3e80d4de	0.25162405
20	0xbd3a0708	-0.04541686
21	0x3e76a52b	0.24086444
22	0x3e9bfedb	0.30467877
23	0xbda5e8d4	-0.08101049
24	0x3e0b5352	0.13606003
25	0xbc4c9c12	-0.012488382
26	0x3e8d0876	0.27545518
27	0xbe7b1603	-0.24520116
28	0x3e017f7f	0.12646292
29	0x3dffa35a	0.12482329
30	0x3d005f17	0.031340685
31	0x3e5029d8	0.20328462
32	0xbe0a39a3	-0.13498549
33	0xbe20568b	-0.15658014
34	0xbd6b5f03	-0.057463657
35	0xb6d204d4	-6.2590498e-06
36	0x3d0d2443	0.03445841
37	0x3d559b21	0.052149896
38	0xbd210675	-0.0393128
39	0x3d83f0e4	0.064424306
40	0xbcb88e8b	-0.022528907
41	0xbc73ee8f	-0.01488842
42	0x3e1d7032	0.1537483
43	0xbd970701	-0.07374383
44	0xbe06be88	-0.1315862
45	0x3e449e5f	0.19201039
46	0x3e943f22	0.28954417
47	0x3ec0d9db	0.3766621
48	0x3dc5eef7	0.096647196
49	0xbe2160d7	-0.15759598
50	0x3e890747	0.26763365
51	0x3e057bc4	0.13035494
52	0x3d590bee	0.052989893
53	0xbe4eea36	-0.20206532
54	0xbe3f8c90	-0.18705964
55	0x3e9632ce	0.29335636
56	0x3df0517c	0.11734292
57	0xbc6c60fb	-0.014427419
58	0xbdf54b28	-0.119772255
59	0xbd9343dc	-0.071906775
60	0xbd8667a8	-0.065627396
61	0x3d500ba9	0.05079237
62	0x3e12d939	0.14340676
63	0xbda32777	-0.07966512
64	0xbea64353	-0.3247324
65	0xbdc9c33f	-0.09851693
66	0x3d015127	0.031571534
67	0xbe6a4e6d	-0.2288148
68	0xbda3ba33	-0.07994499
69	0xbe80b5ef	-0.25138804
70	0xbe1954ce	-0.14973757
71	0x3d4f97bf	0.050681826
72	0xbe89d83c	-0.26922786
73	0xbe93ae3e	-0.28843874
74	0xbe77e13e	-0.24207017
75	0x3cd54d99	0.026037978
76	0xbdc6a5c0	-0.09699583
77	0xbe7657f3	-0.24056987
78	0x3dc2b47f	0.09507083
79	0x3d46e4ba	0.048557974
80	0xbea90264	-0.33009636
81	0x3e90b2f0	0.28261518
82	0x3e4cb36f	0.19990323
83	0x3d4c5af0	0.049891412
84	0xbe638e2b	-0.22222202
85	0x3d865b89	0.06560428
86	0xbca9c2a1	-0.02072269
87	0xbe65c317	-0.22437702
88	0x3eb3968b	0.35075793
89	0x3c2a9602	0.010411741
90	0x3e1ebb70	0.15501189
91	0xbd9f5501	-0.07779885
92	0xbd949111	-0.07254232
93	0xbe58f73c	-0.21188062
94	0x3e9f0beb	0.3106378
95	0xbf0afd82	-0.5429307
96	0x3df67b32	0.120352164
97	0xbd4f8d40	-0.050671816
98	0xbe6ae0a5	-0.22937258
99	0xbcb263ec	-0.021776162
100	0xbe248ef9	-0.16070165
101	0x3c2da241	0.010597766
102	0xbddf49b0	-0.10902727
103	0xbdc1373a	-0.09434362
104	0x3e2d9050	0.16949582
105	0x3e36c80d	0.17849751
106	0x3b612951	0.0034356902
107	0x3e687500	0.22700882
108	0xbdef71db	-0.11691638
109	0xbe15f18d	-0.14642926
110	0xbdb4d841	-0.0883031
111	0x3e0e58f5	0.13901122
112	0xbe31c932	-0.17361906
113	0x3d97f08c	0.074189276
114	0x3e00282c	0.12515324
115	0x3eb19983	0.34687433
116	0x3ed0e374	0.40798533
117	0xbd23bcb0	-0.03997487
118	0x3d80e9bb	0.062945805
119	0x3e7283ed	0.23683138
120	0x3e0de898	0.13858259
121	0xbddbd940	-0.107347965
122	0x3ea7d574	0.3278004
123	0x3dfd2dae	0.12362228
124	0xbdc2bd47	-0.09508758
125	0xbe203c47	-0.15647994
126	0xbeb54fcc	-0.35412443
127	0x3d622f1f	0.05522072
128	0x3e51bf60	0.2048316
129	0x3e2cf12b	0.16888873
130	0xbd665ed0	-0.056242764
131	0xbd2fa911	-0.042885844
132	0x3e34ff44	0.17675501
133	0x3e2c08ea	0.16800275
134	0xbe0c58ff	-0.13705824
135	0xbeeeafda	-0.4661854
136	0x3e23afd1	0.15985037
137	0xbe641cd4	-0.22276622
138	0x3e22b707	0.15890132
139	0xbdc37b19	-0.095449634
140	0xbea8cb4d	-0.32967606
141	0xbe39370e	-0.18087408
142	0xbe745cf9	-0.23863591
143	0xbe37948c	-0.1792776
144	0x3c530e3b	0.012881811
145	0x3e0e874a	0.13918796
146	0xbe3fff85	-0.18749817
147	0xbdf621e5	-0.120181836
148	0x3e28bf9a	0.1647934
149	0xbbb42704	-0.005497815
150	0x3d411b61	0.04714525
151	0xbdf4489b	-0.11927911
152	0xbe524f21	-0.20537998
153	0x3de24223	0.11047771
154	0x3e6ac56f	0.22926877
155	0x3ef1aeba	0.47203618
156	0x3e1ea544	0.15492731
157	0x3d941956	0.07231395
158	0xbe2fc856	-0.17166266
159	0xbdd73768	-0.10508615
160	0xbe197169	-0.14984669
161	0xbd47e529	-0.04880253
162	0xbe014548	-0.12624085
163	0x3e1540f3	0.14575557
164	0xbe1e8894	-0.15481788
165	0x3e489965	0.19589765
166	0x3eb827d3	0.35967883
167	0xbe08c31a	-0.13355675
168	0x3eae26d5	0.34014
169	0xbe3fad5a	-0.18718472
170	0xbe865740	-0.2623844
171	0x3e7d3bdc	0.24729866
172	0x3e994275	0.29933515
173	0x3d3dec41	0.046367887
174	0xbd10b980	-0.035333157
175	0xbe02df88	-0.12780583
176	0x3e82eb39	0.25570086
177	0xbcc54564	-0.02408094
178	0x3efef9d5	0.49799982
179	0xbe91ea13	-0.28498897
180	0xbddab2ba	-0.10678621
181	0xbdcf47bb	-0.101211034
182	0x3c6347c5	0.013872092
183	0x3cd94a36	0.026524644
184	0x3e9a7c23	0.30172834
185	0x3d868e13	0.06570067
186	0xbca1dece	-0.019759562
187	0x3eb8b4a6	0.36075324
188	0xbed78abd	-0.42098036
189	0x3d4d0f2f	0.05006331
190	0xbedecb94	-0.43514693
191	0xbd83a190	-0.064273
192	0xbe65a49d	-0.22426076
193	0x3e6d92c6	0.23200521
194	0xbea81f13	-0.32836208
195	0x3e1fe771	0.15615632
196	0xbe13f861	-0.14450218
197	0x3eafd89e	0.34344953
198	0x3e1c1137	0.15240942
199	0xbe8e7cff	-0.2782974
200	0x3ec235ef	0.37931773
201	0xbe5909ab	-0.21195094
202	0xbe346033	-0.17614822
203	0xbec996e9	-0.39372948
204	0x3e68a052	0.22717407
205	0x3da7ed85	0.081996
206	0x3eca6363	0.3952895
207	0x3d537e6e	0.051634245
208	0xbdcabe3d	-0.09899566
209	0x3d75914c	0.05995302
210	0x3e943917	0.28949806
211	0x3a712a06	0.00091996824
212	0xbe14c5b1	-0.14528538
213	0x3dea5fb3	0.114440344
214	0xbccc97d9	-0.02497475
215	0x3e165bdd	0.1468348
216	0x3c9ef383	0.019403225
217	0x3e129a86	0.14316759
218	0xbdae2aca	-0.08504255
219	0x3e89fbbe	0.26949877
220	0xbd839e42	-0.0642667
221	0x3e360cfb	0.17778389
222	0xbcbbc8a0	-0.022922814
223	0x3e17b6c1	0.14815809
224	0x3e4a1af4	0.19736844
225	0xbe1126ab	-0.14174907
226	0xbec43a12	-0.38325554
227	0xbdf9037b	-0.12158867
228	0xbd5e486c	-0.054268286
229	0x3e15b761	0.14620735
230	0xbd69cb5b	-0.0570787
231	0x3d9a686b	0.075394474
232	0x3dc7b863	0.09751966
233	0x3e7b6bde	0.24552867
234	0xbcd32b81	-0.02577758
235	0x3e4300c3	0.1904326
236	0xbe6cbe07	-0.23119365
237	0x3e4ccb98	0.1999954
238	0xbde598d9	-0.11210794
239	0x3e739577	0.23787485
240	0xbc9ea09c	-0.019363694
241	0xbe28c294	-0.16480476
242	0x3e4a52cf	0.19758151
243	0xbe0c978f	-0.1372969
244	0xbe2f0d5d	-0.17094941
245	0x3d98d1fc	0.07461926
246	0xbdf357d5	-0.11881987
247	0x3c72a135	0.014808943
248	0x3daaacd4	0.083337456
249	0xbd90bdb2	-0.070674315
250	0xbcdc7691	-0.026912006
251	0x3d359c83	0.044338714
252	0x3ef7ea3c	0.48420894
253	0xbe0f2774	-0.13979894
254	0xbde69a9e	-0.1125996
255	0xbe5f1d86	-0.21788606

res1.0.bias f4 [64]
0	0x3b417f27	0.0029525252
1	0x3c82cdde	0.015967306
2	0x3c864ae5	0.016393134
3	0x3c8d0c78	0.01721786
4	0x3b4896c1	0.0030607434
5	0x3c7a3d74	0.015273441
6	0x3b2caeec	0.0026349379
7	0x3c82f5d5	0.015986362
8	0x3cdab0c9	0.026695626
9	0x3c832752	0.01600996
10	0x3cadbb5b	0.021207502
11	0x3afe023e	0.001937933
12	0x3bc0a977	0.005879577
13	0x3c889b91	0.016675742
14	0x3b9971f5	0.004682774
15	0x3c0bbe43	0.008529249
16	0x3b298675	0.0025867496
17	0x3c86eb74	0.016469695
18	0x3c8a31ab	0.016869387
19	0x3b9d8f04	0.0048083086
20	0x3aa88b93	0.0012858979
21	0x3c5a21fc	0.013313767
22	0x3b5c19b0	0.0033584647
23	0x3b3b3f54	0.0028571682
24	0x3c8f4952	0.017491017
25	0x3c8dc06a	0.017303664
26	0x3c810b8f	0.015752582
27	0x3af182ea	0.0018425856
28	0x3bf56db9	0.0074898866
29	0x3b7c7709	0.00385231
30	0x3c9e29fe	0.019307133
31	0x3b4dd22e	0.0031405794
32	0x3c82598a	0.015911836
33	0x3c899e42	0.016799096
34	0x3c8286c6	0.015933406
35	0x3c82cd5c	0.015967064
36	0x3b7e7f78	0.0038833302
37	0x3bc15181	0.0058996086
38	0x3cbedea9	0.023299532
39	0x3b38391d	0.0028110214
40	0x3b81d0fe	0.0039616814
41	0x3c83657b	0.0160396
42	0x3c824930	0.01590404
43	0x3b6cf2b0	0.0036155395
44	0x3c5d5b59	0.0135105485
45	0x3c82ca71	0.015965672
46	0x3c94b00f	0.018150358
47	0x3c849293	0.016183173
48	0x3c7879b6	0.015165737
49	0x3c8272c5	0.015923867
50	0x3c8b2aee	0.016988244
51	0x3c4b8840	0.012422621
52	0x39b88469	0.00035193868
53	0x3c82e8a6	0.015980076
54	0x3c859bea	0.016309697
55	0x3c827ea0	0.01592952
56	0x3b778193	0.0037766441
57	0x3c85e300	0.016343594
58	0x3c22e23b	0.009941633
59	0x3c8f6e25	0.017508576
60	0x3cd9244a	0.026506562
61	0x3c87938d	0.01654985
62	0x3b9c9eac	0.0047796573
63	0x3c8d3f7a	0.017242182

res1.1.weight f4 [64]
0	0x3f7e5ce7	0.9936051
1	0x3f800000	1.0
2	0x3f80e972	1.0071242
3	0x3f80e0ef	1.0068644
4	0x3f7e3b7d	0.9930952
5	0x3f7d5e9d	0.98972493
6	0x3f7e54b2	0.99347985
7	0x3f800000	1.0
8	0x3f9677ef	1.1755351
9	0x3f7ecf96	0.995355
10	0x3f81aa3b	1.0130075
11	0x3f7d51fb	0.9895322
12	0x3f7ed419	0.99542385
13	0x3f80de68	1.0067873
14	0x3f7ea0bd	0.9946402
15	0x3f7e3956	0.9930624
16	0x3f7e200b	0.99267644
17	0x3f80d6a1	1.00655
18	0x3f80ea95	1.0071589
19	0x3f7ed58a	0.99544585
20	0x3f7df41c	0.99200606
21	0x3f7ec84b	0.9952437
22	0x3f7e6c0c	0.99383616
23	0x3f7dea74	0.9918587
24	0x3f812059	1.0087997
25	0x3f810282	1.007889
26	0x3f7ff92c	0.9998958
27	0x3f7e0a1e	0.9923419
28	0x3f7ef597	0.9959349
29	0x3f7e4a84	0.9933245
30	0x3f817072	1.011244
31	0x3f7e2d49	0.9928785
32	0x3f7efb9e	0.9960269
33	0x3f806ae3	1.0032619
34	0x3f8042ff	1.0020446
35	0x3f800000	1.0
36	0x3f7db690	0.99106693
37	0x3f7e948f	0.9944543
38	0x3f81bc09	1.0135509
39	0x3f7de649	0.9917951
40	0x3f7e5c49	0.99359566
41	0x3f87aea0	1.0600166
42	0x3f800000	1.0
43	0x3f7e6c0f	0.99383634
44	0x3f7e33bb	0.99297684
45	0x3f7fb4b0	0.9988508
46	0x3f84adb1	1.0365506
47	0x3f80beda	1.0058243
48	0x3f7f1900	0.9964752
49	0x3f7f7fba	0.9980427
50	0x3f7fb6a2	0.9988805
51	0x3f7daf25	0.99095374
52	0x3f7de2ca	0.9917418
53	0x3f800000	1.0
54	0x3f80d19c	1.0063968
55	0x3f800000	1.0
56	0x3f7e72cc	0.99393916
57	0x3f80d612	1.0065329
58	0x3f7df467	0.99201053
59	0x3f80e663	1.0070308
60	0x3f852e14	1.0404687
61	0x3f80dc54	1.0067239
62	0x3f7e99f3	0.9945366
63	0x3f80f426	1.0074508

res1.1.bias f4 [64]
0	0xbbe47e57	-0.0069730687
1	0x00000000	0.0
2	0x3bd1d1cd	0.006403184
3	0x3bf1ead3	0.0073827296
4	0xbbe08843	-0.006852181
5	0xbc15ca21	-0.00914243
6	0xbbe9dbbe	-0.007136791
7	0x00000000	0.0
8	0x3d76c3a8	0.060245186
9	0xbc497f78	-0.012298457
10	0x3c1e1145	0.009647672
11	0xbc419672	-0.011815654
12	0xbb95657e	-0.004559218
13	0x3bdb9742	0.006701381
14	0xbbb2415d	-0.005439921
15	0xbc15366d	-0.009107214
16	0xbbeb7def	-0.0071866433
17	0x3bd4479a	0.006478262
18	0x3bd517c8	0.006503079
19	0xbbae3c68	-0.0053172596
20	0xbc079eb2	-0.008277582
21	0xbba6d1f2	-0.0050909454
22	0xbbd8a1d5	-0.0066110888
23	0xbbe79057	-0.007066767
24	0x3c1b0c18	0.009463333
25	0x3bf12f69	0.007360388
26	0x3b5161a3	0.0031949065
27	0xbc026b4e	-0.007960154
28	0xbb908f0e	-0.0044115847
29	0xbbeee4ed	-0.0072904737
30	0x3c2acaf2	0.0104243625
31	0xbbd8b0e9	-0.006612886
32	0xbb878c7f	-0.0041366215
33	0x3bdcc628	0.0067374893
34	0x3b1e0559	0.0024112074
35	0x00000000	0.0
36	0xbbe03056	-0.0068416996
37	0xbba4aec0	-0.0050257146
38	0x3c5ced26	0.013484275
39	0xbbe5b397	-0.007009934
40	0xbbc6d95b	-0.0060683913
41	0x3db0710b	0.08615311
42	0x00000000	0.0
43	0xbbd0b10c	-0.006368762
44	0xbbefda16	-0.007319699
45	0x382155bf	3.846525e-05
46	0x3c8e2e0b	0.01735594
47	0x3bc9a3fc	0.0061535817
48	0xbb8b5a66	-0.0042527197
49	0xbaa62e09	-0.0012678514
50	0x3afdb431	0.0019356069
51	0xbc2e2252	-0.0106283
52	0xbc0f57aa	-0.008748928
53	0x00000000	0.0
54	0x3bcee3b4	0.0063137654
55	0x00000000	0.0
56	0xbbcb32ee	-0.0062011397
57	0x3bd025b8	0.0063521527
58	0xbc2214e9	-0.009892681
59	0x3bf6333d	0.0075134323
60	0x3c55aa03	0.013041022
61	0x3bd88de6	0.0066087125
62	0xbbb5b959	-0.005545777
63	0x3bed7fd9	0.0072479066

res1.3.weight f4 [64, 64]
0	0xbe088ea3	-0.13335662
1	0xbd60fd1b	-0.05492888
2	0x3ba40b30	0.0050062165
3	0xbe130514	-0.14357406
4	0xbd5a919d	-0.053361524
5	0x3b1ce365	0.0023939249
6	0x3e318281	0.1733494
7	0x3de8f312	0.11374487
8	0x3cfac085	0.030609379
9	0xbbac15b6	-0.0052516116
10	0x3e3ecc07	0.18632518
11	0xbc07e49b	-0.00829425
12	0x3dcce78e	0.10005103
13	0x3cdc3825	0.02688224
14	0xbd9bc159	-0.076052375
15	0xbc7d962d	-0.015477699
16	0xbd74765f	-0.0596832
17	0xbc8f4594	-0.017489232
18	0x3e87526d	0.26430073
19	0x3da60018	0.08105487
20	0x3e6d5584	0.23177153
21	0xbe54106a	-0.20709386
22	0xbdee9972	-0.11650361
23	0xbe2bb40d	-0.16767903
24	0x3d93b6dc	0.07212612
25	0xbdc7819b	-0.09741517
26	0x3d585598	0.052816004
27	0xbdf872d5	-0.121312775
28	0x3e46dfb9	0.19421281
29	0x3e3fb3a5	0.18720873
30	0x3e9725c4	0.29521
31	0x3d459051	0.048233334
32	0xbec43e59	-0.38328817
33	0x3cc3a7a7	0.023883654
34	0x3c9c19a0	0.019055188
35	0xbc083692	-0.008313792
36	0xbdab05cb	-0.08350714
37	0xbce7cb61	-0.02829522
38	0xbda16e2d	-0.078823425
39	0xbe831cd0	-0.2560792
40	0xbe84fcf7	-0.25974247
41	0x3d8e1fac	0.06939635
42	0xbc69a630	-0.014260814
43	0xbe8d31be	-0.27577013
44	0xbe4bb800	-0.19894409
45	0x3d425ad5	0.047449905
46	0xbd492f0f	-0.049117144
47	0xbe605b7d	-0.219099
48	0x3ccbc02b	0.024871906
49	0x3cb0c007	0.02157594
50	0x3e91fcaf	0.28513095
51	0x3dd2b92c	0.10289225
52	0xbd2d457c	-0.042302594
53	0x3e1fc717	0.1560329
54	0x3cff4ed0	0.03116551
55	0xbd95e013	-0.073181294
56	0x3e4eff5d	0.20214601
57	0x3b28ed2e	0.0025776136
58	0x3d0397bf	0.03212714
59	0xbe1cbf97	-0.1530746
60	0x3eca9b4d	0.3957161
61	0x3d23adc6	0.039960645
62	0x3e7343ab	0.23756282
63	0x3ddce1a7	0.10785227
64	0xbc8a801c	-0.01690679
65	0x3e7daab0	0.24772143
66	0x3e9aee49	0.30259922
67	0x3dada42e	0.084785804
68	0x3c932244	0.017960675
69	0xbcc64e97	-0.024207396
70	0xbdf4c2f8	-0.1195125
71	0xbddad2c3	-0.10684731
72	0x3de3aa3a	0.111164525
73	0x3eb22e0b	0.34800753
74	0xbec59e00	-0.38597107
75	0x3dbfb297	0.09360235
76	0xbe84e2b2	-0.25954205
77	0x3e5e1f89	0.21691717
78	0x3e044434	0.12916642
79	0x3e32af82	0.17449763
80	0x3e8f27c3	0.27960023
81	0x3ccbb875	0.02486823
82	0x3dde755a	0.10862227
83	0x3d27c918	0.040963262
84	0x3e93ae1c	0.28843772
85	0xbe3bc067	-0.18335114
86	0xbe0265ad	-0.12734099
87	0xbd8e43e0	-0.0694654
88	0xbe99f3f7	-0.30068943
89	0xbd5a0dd9	-0.053235862
90	0xbe340469	-0.17579807
91	0x3e0d68db	0.1380953
92	0x3e855be4	0.2604667
93	0xbddf79c7	-0.10911899
94	0x3e2b9a9c	0.16758198
95	0x3d9f632e	0.07782589
96	0x3e1c6d52	0.15276077
97	0x3d0f144c	0.034931466
98	0x3db7076c	0.089369625
99	0xbd0bbf4d	-0.034117986
100	0xbe60b9df	-0.21945904
101	0xbd85c441	-0.06531573
102	0xbe16f0e6	-0.14740333
103	0xbe0a2a83	-0.1349278
104	0x3e950c77	0.29111072
105	0xbe4aaf93	-0.19793539
106	0xbe983f4b	-0.2973579
107	0xbd902444	-0.07038167
108	0x3e0b32c5	0.13593586
109	0xbd258a7f	-0.040415283
110	0xbce12d9e	-0.027487572
111	0x3e8412ab	0.25795493
112	0x3da9b040	0.0828557
113	0xbda006e8	-0.07813817
114	0xbe09713c	-0.13422102
115	0x3dc161a0	0.094424486
116	0x3e8a7a34	0.2704636
117	0x3e15251f	0.14564942
118	0x3c563642	0.0130744595
119	0x3d617bf7	0.055049863
120	0x3cb71dda	0.022353102
121	0x3e459fa5	0.19299181
122	0x3e851331	0.25991204
123	0x3deb60a2	0.114930406
124	0xbd3e3905	-0.046441097
125	0x3d99bd45	0.075068034
126	0xbe16a14c	-0.14709967
127	0xbd85bcbc	-0.06530139
128	0x3e50ea8e	0.20401976
129	0xbdd8d72b	-0.10587915
130	0xbc65768a	-0.014005313
131	0x3df5f9c8	0.120105326
132	0xbe879480	-0.26480484
133	0x3db43949	0.08799989
134	0xbd585d27	-0.052823212
135	0xbe4f2c42	-0.20231727
136	0xbcf37239	-0.029717552
137	0xbeb7f661	-0.3593016
138	0x3e10b9e2	0.14133409
139	0x3ef09bb7	0.469938
140	0xbb44ca13	-0.0030027672
141	0x3e190ce7	0.14946328
142	0xbcb43cb0	-0.022001594
143	0xbe05638a	-0.13026252
144	0xbe730eae	-0.23736069
145	0x3d6d3b7b	0.057918053
146	0x3eb63001	0.355835
147	0xbe4103d0	-0.1884911
148	0xbd8311b8	-0.06399864
149	0x3e154671	0.14577653
150	0x3e84396d	0.25825062
151	0xbcc3da37	-0.023907764
152	0xbe101501	-0.14070512
153	0xbed0f4c5	-0.40811744
154	0xbd4bf95e	-0.049798362
155	0xbe93256a	-0.28739482
156	0xbdfb790f	-0.122789495
157	0xbd156d4b	-0.036481183
158	0xbeb51b43	-0.35372362
159	0x3dff6abc	0.1247153
160	0x3e0b812f	0.13623498
161	0xbe480384	-0.19532591
162	0xbe660e29	-0.22466339
163	0xbdcb8153	-0.09936776
164	0xbde92e78	-0.11385816
165	0xbe2d74ec	-0.16939133
166	0x3cacf739	0.021113979
167	0x3e5d0f5b	0.21587889
168	0x3e54caa1	0.20780422
169	0xbe2f6c2d	-0.1713111
170	0x3e4adc3a	0.19810572
171	0xbdc9abe3	-0.09847238
172	0xbe263b0e	-0.16233465
173	0xbe5642bf	-0.20923899
174	0x3eb73fdc	0.35790908
175	0xbe420831	-0.18948437
176	0xbe321ce4	-0.17393833
177	0xbeacf9c8	-0.33784318
178	0x3d84a311	0.06476415
179	0x3e07b441	0.13252355
180	0x3a6bd545	0.0008996318
181	0x3e9929ba	0.29914647
182	0x3dffc00a	0.124878004
183	0x3e93c7f4	0.2886349
184	0x3df73330	0.1207031
185	0x3e0d4e5c	0.13799423
186	0xbe9ba702	-0.30400854
187	0x3e732a41	0.23746587
188	0x3e0f57c6	0.13998327
189	0x3e2270ef	0.15863393
190	0xbe0faccd	-0.14030762
191	0xbd80ede4	-0.06295374
192	0xbd7b180d	-0.061302233
193	0xbe829383	-0.25503168
194	0x3e9a5afd	0.30147544
195	0xbe14f84e	-0.14547846
196	0xbe4937f4	-0.1965025
197	0xbe7c7d84	-0.24657255
198	0x3cee99d4	0.029126085
199	0x3d20db24	0.03927149
200	0x3ea2c133	0.31788024
201	0x3dce9a36	0.10088007
202	0x3c8d217c	0.01722788
203	0xbe4dcac1	-0.20096876
204	0xbdb92e3b	-0.09042021
205	0x3cd8b91f	0.02645546
206	0xbe9f629a	-0.31129915
207	0x3dece722	0.115675226
208	0xba21578b	-0.00061547075
209	0x3e8318ff	0.25605008
210	0x3e5384ed	0.20656176
211	0xbe6207c6	-0.22073278
212	0xbdd22c37	-0.102623396
213	0x3e22faa6	0.15915927
214	0xbe253b77	-0.16135965
215	0x3d818d8b	0.06325825
216	0xbe341210	-0.17585015
217	0x3de86911	0.11348165
218	0xbe18015d	-0.1484427
219	0x3e13a823	0.14419608
220	0xbde930fa	-0.11386295
221	0xbd48e6e5	-0.049048323
222	0xbc80f3e0	-0.015741289
223	0xbd193a4c	-0.03740911
224	0xbdf479c2	-0.11937286
225	0x3d90962b	0.07059892
226	0xbe24db7b	-0.1609935
227	0x3d1595f0	0.036519945
228	0xbe2ffcc2	-0.17186263
229	0xbda5e380	-0.08100033
230	0x3de9acfa	0.11409946
231	0xbdfea68a	-0.124341086
232	0x3e69fc72	0.22850206
233	0x3e37cc34	0.17948991
234	0xbd0845c6	-0.033269666
235	0xbe16b976	-0.14719185
236	0x3ebc7e4e	0.36815113
237	0x3dc0f2b2	0.094212905
238	0x3e088d08	0.13335049
239	0xbe0814f8	-0.13289249
240	0xbe175f2a	-0.14782396
241	0x3e05d7d8	0.13070619
242	0x3ec2f31c	0.38076103
243	0x3d5c2555	0.05374654
244	0xbdb3f504	-0.087869674
245	0x3dae520b	0.08511742
246	0x3df6f35b	0.12058135
247	0x3d9b3914	0.07579246
248	0x3e42ff21	0.19042636
249	0x3e8ccfa6	0.27502173
250	0x3df70296	0.1206104
251	0x3e03bde7	0.12865411
252	0x3ebaa49b	0.3645371
253	0x3d784b48	0.06061867
254	0xbdffc8b3	-0.12489452
255	0xbcf55bef	-0.029951064

res1.3.bias f4 [64]
0	0x3c8d19f6	0.017224293
1	0x3c80bef8	0.015716061
2	0x3b481006	0.003052713
3	0x3c8c6c44	0.017141469
4	0x3b15b771	0.0022844935
5	0x3b3ff5ab	0.0029290717
6	0x3b48476c	0.003056015
7	0x3c8c2fb6	0.017112594
8	0x3b7503aa	0.0037386217
9	0x3b570b0e	0.0032812986
10	0x3c8c2db5	0.017111639
11	0x3b54d1da	0.0032473714
12	0x3c91d24e	0.017800476
13	0x3c8b450a	0.017000694
14	0x3c867017	0.01641087
15	0x3b42f662	0.0029748906
16	0x3c60ab71	0.01371275
17	0x3c8c7ccf	0.017149357
18	0x3c891649	0.01673426
19	0x3c898656	0.01678769
20	0x3b28b212	0.0025740904
21	0x3c909a90	0.017651826
22	0x3c8ce96d	0.01720115
23	0x3c89b800	0.01681137
24	0x3b8e5bc8	0.0043444373
25	0x3b4aa68e	0.0030922028
26	0x3c8afd32	0.016966436
27	0x3b26e2a9	0.002546469
28	0x3c8c10e8	0.017097905
29	0x3c8c2f06	0.017112266
30	0x3b32e88e	0.0027299258
31	0x3c83073b	0.015994659
32	0x3c80fc81	0.015745403
33	0x3c839ca8	0.01606591
34	0x3b0f1a23	0.0021835647
35	0x3b7a4f9f	0.003819443
36	0x3b811011	0.003938683
37	0x3c37aa94	0.011210103
38	0x3b60df84	0.0034312913
39	0x3c8f331a	0.017480422
40	0x3b23bd74	0.002498475
41	0x3b33e191	0.002744768
42	0x3bf18e61	0.007371709
43	0x3c947b96	0.018125337
44	0x3c8f078f	0.017459659
45	0x3b2e8132	0.00266273
46	0x3b836a75	0.0040104934
47	0x3b70338b	0.0036651816
48	0x3b1f82a8	0.0024339352
49	0x3c92dbfd	0.017927164
50	0x3b2ad879	0.002606897
51	0x3b2e1ff8	0.0026569348
52	0x3c8f3994	0.01748351
53	0x3b23a378	0.002496926
54	0x3b794479	0.0038035198
55	0x3b3a3715	0.002841418
56	0x3c90d9ad	0.01768192
57	0x3bb85bb9	0.0056261686
58	0x3bb9e5ee	0.0056731617
59	0x3c80051a	0.015627433
60	0x3c3ffc1b	0.0117178215
61	0x3c895e93	0.01676873
62	0x3c882560	0.016619384
63	0x3b326553	0.0027221038

res1.4.weight f4 [64]
0	0x3f80ef5c	1.0073047
1	0x3f7febad	0.9996899
2	0x3f7e33df	0.992979
3	0x3f810a7f	1.0081328
4	0x3f7e32ce	0.9929627
5	0x3f80e390	1.0069447
6	0x3f7e63b7	0.993709
7	0x3f7f7978	0.9979472
8	0x3f80d2fc	1.0064387
9	0x3f80e087	1.006852
10	0x3f811da4	1.0087171
11	0x3f80f6d3	1.0075325
12	0x3f7e3de3	0.9931318
13	0x3f7e59cc	0.9935577
14	0x3f811258	1.0083723
15	0x3f80f3d9	1.0074416
16	0x3f7ef279	0.99588734
17	0x3f7e36f2	0.9930259
18	0x3f7e5278	0.9934459
19	0x3f80f57a	1.0074914
20	0x3f811e7d	1.0087429
21	0x3f7e892d	0.99428064
22	0x3f7e8fbc	0.9943807
23	0x3f7e4648	0.9932599
24	0x3f807a8c	1.0037398
25	0x3f7e8fab	0.9943797
26	0x3f80fa8f	1.0076464
27	0x3f7e47bf	0.99328226
28	0x3f7ecb12	0.9952861
29	0x3f7e519a	0.99343264
30	0x3f801ac2	1.0008166
31	0x3f80fdc8	1.0077448
32	0x3f80c51e	1.0060155
33	0x3f7d94a1	0.99054915
34	0x3f8167c8	1.0109797
35	0x3f7e32a7	0.9929604
36	0x3f7eb18f	0.9948968
37	0x3f7e1643	0.9925272
38	0x3f80de01	1.006775
39	0x3f80f24f	1.0073947
40	0x3f811671	1.0084974
41	0x3f80b623	1.0055584
42	0x3f807f25	1.0038801
43	0x3f7e3966	0.99306333
44	0x3f810eb5	1.0082613
45	0x3f7e317b	0.9929425
46	0x3f7ecb93	0.9952938
47	0x3f80f186	1.0073707
48	0x3f7e5370	0.99346066
49	0x3f7ed723	0.9954702
50	0x3f80968f	1.0045947
51	0x3f80ea70	1.0071545
52	0x3f7f36cc	0.9969299
53	0x3f7e2e35	0.99289256
54	0x3f7e452c	0.993243
55	0x3f7eba8b	0.9950339
56	0x3f811187	1.0083474
57	0x3f7dfbe7	0.992125
58	0x3f7f7b56	0.9979757
59	0x3f80b96b	1.0056585
60	0x3f7ede63	0.99558085
61	0x3f7e2a20	0.9928303
62	0x3f80e83e	1.0070875
63	0x3f80f70a	1.007539

res1.4.bias f4 [64]
0	0x3bee13d9	0.0072655496
1	0xba4a6cdf	-0.00077219115
2	0xbbddd854	-0.006770173
3	0x3beba125	0.007190841
4	0xbbeaaf06	-0.0071619777
5	0xbbf3b79a	-0.0074376585
6	0xbbe22bcb	-0.006902193
7	0x3be88ce3	0.007096873
8	0xbbc69a37	-0.0060608643
9	0xbbe2e2b1	-0.0069239964
10	0x3be9929d	0.0071280734
11	0xbbdc961a	-0.0067317607
12	0x3bf41dd4	0.007449845
13	0x3be646b9	0.0070274738
14	0x3bda1f79	0.006656584
15	0xbbe7ea7e	-0.007077514
16	0x3bb25e6c	0.005443385
17	0x3be46cb4	0.0069709662
18	0x3bdbaf49	0.006704245
19	0x3bf308e5	0.007416832
20	0xbbf61617	-0.0075099575
21	0x3bf072ed	0.007337919
22	0x3bea08c0	0.0071421564
23	0x3bda8e51	0.0066697975
24	0xbb6c34bd	-0.0036042177
25	0xbbdbfa8a	-0.006713216
26	0x3be607bc	0.007019965
27	0xbbf0732e	-0.0073379492
28	0x3be6ac68	0.0070395954
29	0x3be464a1	0.0069700037
30	0xbbec5e62	-0.0072133997
31	0x3bd03dfa	0.0063550444
32	0x3bc7c545	0.0060965144
33	0x3bcc5367	0.0062355283
34	0xbc056d8d	-0.008143795
35	0xbbc6d85d	-0.006068273
36	0xbbaf52ab	-0.005350431
37	0x3bffeafa	0.007809994
38	0xbbe368be	-0.0069399765
39	0x3c01d78b	0.007924925
40	0xbbdd44ed	-0.0067526014
41	0xbbc9b804	-0.0061559696
42	0xbba67c24	-0.0050807167
43	0x3bebad0b	0.007192259
44	0x3bf717db	0.0075406856
45	0xbbeb08b1	-0.007172667
46	0xbbb3a7a5	-0.0054826313
47	0xbbc6c2e7	-0.0060657146
48	0xbbf65cae	-0.0075183725
49	0x3bfa4066	0.0076370714
50	0xbbf1677e	-0.0073670736
51	0xbbefeaa7	-0.007321674
52	0x3bf1e0ac	0.0073815193
53	0xbbe755e2	-0.0070597986
54	0xbbaf2335	-0.005344773
55	0xbbdaf7ac	-0.006682357
56	0x3bff91b4	0.0077993516
57	0xbc0c3968	-0.008558609
58	0xba2fe832	-0.000671032
59	0x3bbe7f3c	0.0058135074
60	0xbbc61ebf	-0.0060461457
61	0x3bda83ff	0.006668567
62	0x3bda21d4	0.0066568647
63	0xbbf063c3	-0.0073361113

res2.0.weight f4 [64, 64]
0	0x3c1e3c6d	0.009657961
1	0x3bf26cec	0.0073982384
2	0x3e57d0b2	0.21075705
3	0x3e32d905	0.17465599
4	0xbe4df133	-0.20111541
5	0xbe5abdc4	-0.21361452
6	0xbf0016d3	-0.50034827
7	0x3e976d2d	0.29575482
8	0xbe24cefe	-0.16094586
9	0x3e4d1e21	0.20031025
10	0xbe39b078	-0.18133724
11	0x3e82221a	0.25416642
12	0x3ca17886	0.01971079
13	0xbe781065	-0.24225004
14	0x3d76a453	0.060215306
15	0xbdb48302	-0.0881405
16	0xbd824360	-0.06360507
17	0xbe934088	-0.2876017
18	0xbe993187	-0.299206
19	0x3e5c751e	0.21529052
20	0x3cfc5ea3	0.030806845
21	0xbe427438	-0.18989646
22	0xbd05e1e9	-0.032686148
23	0xbe22c1a4	-0.1589418
24	0xbe405425	-0.18782099
25	0x3de722a7	0.11285906
26	0xbe9415d2	-0.28922898
27	0x3e027ef0	0.12743735
28	0xbdf93022	-0.12167384
29	0xbe0131fd	-0.12616725
30	0xbd14cdce	-0.036329083
31	0x3e5f1f6d	0.21789332
32	0x3e56378d	0.20919628
33	0xbdd45c9f	-0.103692286
34	0xbe09a52e	-0.13441917
35	0x3e3515c8	0.1768409
36	0xbe99644a	-0.29959327
37	0xbe7efed4	-0.24901897
38	0xbdcd7941	-0.10032893
39	0x3e3b5c05	0.18296821
40	0xbe17db8e	-0.14829847
41	0xbe022406	-0.12709054
42	0xbe44d5fe	-0.19222257
43	0xbd24ec57	-0.040264454
44	0x3e4adbd5	0.19810422
45	0x3e891931	0.26777032
46	0x3e236420	0.15956163
47	0xbd8bb168	-0.06820947
48	0x3e3429d1	0.17594077
49	0xbb8a21ac	-0.00421544
50	0xbc986ad4	-0.018605627
51	0x3da1fa76	0.079091
52	0x3e7f6468	0.24940646
53	0x3d413575	0.04717012
54	0xbe04adcc	-0.12956923
55	0x3c9566dd	0.018237526
56	0xbe01f171	-0.12689759
57	0xbea64095	-0.32471147
58	0x3e20898d	0.15677471
59	0x3d12f78a	0.035880603
60	0x3d1596b7	0.036520686
61	0x3df71534	0.12064591
62	0x3e8302cf	0.2558808
63	0x3e1b8654	0.15187961
64	0x3cb4924f	0.022042422
65	0xbe88d11c	-0.26722038
66	0xbe660bcb	-0.22465436
67	0x3e77e43f	0.24208163
68	0xbe1991a3	-0.14996962
69	0xbdc7a4aa	-0.09748204
70	0xbe9a9cc2	-0.30197722
71	0xbd647296	-0.05577334
72	0x3e8e333d	0.27773467
73	0xbddeb4af	-0.108743064
74	0xbdc74a25	-0.09730939
75	0x3dc1c350	0.09461081
76	0x3d2f53fe	0.04280471
77	0xbd68bf4b	-0.056823056
78	0xbbbda129	-0.005787034
79	0x3da247b5	0.07923833
80	0x3cebd712	0.028789077
81	0x3db797cc	0.089645
82	0x3b8ffb04	0.004393937
83	0x3e03b536	0.12862095
84	0xbdef4e2f	-0.11684834
85	0xbd0627e7	-0.032752898
86	0x3e5508dc	0.20804161
87	0x3e1d4ce2	0.1536136
88	0xbe061916	-0.13095507
89	0xbe988887	-0.29791662
90	0xbdc3e821	-0.095657595
91	0x3db7a67b	0.089673005
92	0xbd12d099	-0.035843465
93	0x3ea81649	0.32829502
94	0x3d4697cd	0.048484612
95	0xbc8ae7f9	-0.016956316
96	0xbe7ebaf8	-0.2487601
97	0x3d9d985b	0.07695075
98	0xbba4666a	-0.0050170915
99	0xbd2819f8	-0.04104039
100	0xbd97a57d	-0.07404611
101	0xbd940b7a	-0.072287515
102	0x3d24ce7e	0.04023599
103	0xbcfa39e6	-0.030545186
104	0x3dddcb02	0.10829736
105	0xbe7d06c6	-0.24709615
106	0xbd9fdd5a	-0.07805891
107	0x3e3404b7	0.17579924
108	0xbda9634f	-0.08270895
109	0xbd5674be	-0.052357428
110	0x3cfedde9	0.031111674
111	0xbe319151	-0.1734059
112	0xbdf0ed66	-0.1176403
113	0xbd0edc86	-0.034878276
114	0xbd910d33	-0.07082596
115	0x3e1b0e07	0.1514207
116	0xbd19cecd	-0.037550736
117	0xbd46f825	-0.048576493
118	0xbc69fdb8	-0.014281683
119	0xbe713226	-0.23554286
120	0x3e98154b	0.29703745
121	0xbe0240d1	-0.12720038
122	0xbe56f6f3	-0.20992641
123	0x3e8491fb	0.25892624
124	0x3d14318f	0.036180075
125	0xbca18c78	-0.019720301
126	0x3a877db7	0.0010337149
127	0x3da626ae	0.08112846
128	0x3e6114a9	0.21980537
129	0x3d7af9c5	0.061273355
130	0xbc1ff4cd	-0.009762955
131	0x3d8dfd67	0.06933098
132	0x3eaac099	0.33350065
133	0x3e2eb83e	0.1706247
134	0xbea8e0f7	-0.32984135
135	0xbe417c33	-0.18895034
136	0x3de81cd1	0.11333621
137	0xbe61bc76	-0.22044548
138	0x3e963512	0.29337364
139	0xbe6bdebf	-0.2303419
140	0xbcc50280	-0.024049044
141	0x3dc30ccd	0.09523926
142	0xbc965cfe	-0.018354889
143	0x3e4d6f1d	0.20061918
144	0x3ea35c36	0.3190629
145	0x3e0fbe6f	0.14037488
146	0x3e56a1a6	0.20960101
147	0xbebc2c28	-0.3675244
148	0xbe0d04e1	-0.13771392
149	0x3e1b2f56	0.15154776
150	0x3d25c248	0.040468484
151	0x3d8a1003	0.06741335
152	0xbea5c565	-0.32377163
153	0xbe2afafc	-0.16697305
154	0xbb793d70	-0.0038031004
155	0x3eac49da	0.33650094
156	0x3e40767d	0.187952
157	0xbe1f7afa	-0.15574256
158	0xbbfd6dca	-0.007734035
159	0xbe85932b	-0.26088843
160	0xbdf39230	-0.118931174
161	0x3ecb3263	0.3968688
162	0x3d0753ce	0.033038907
163	0x3e3562e4	0.17713505
164	0x3eaa1ec5	0.332266
165	0xbde5aec3	-0.11214974
166	0xbe6d1a20	-0.23154497
167	0x3dd3d544	0.103434116
168	0x3d0c97be	0.0343244
169	0x3e879baf	0.26485965
170	0x3e92f67f	0.28703687
171	0x3e3aedf2	0.18254831
172	0xbe187665	-0.14888914
173	0x3e27f518	0.1640209
174	0x3d880283	0.06641104
175	0xbe0b5c72	-0.13609484
176	0x3dc3c4b0	0.095589995
177	0x3da320aa	0.079652146
178	0x3e1be47a	0.15223876
179	0x3d95d73c	0.07316443
180	0xbdd2b43d	-0.10288284
181	0x3c32df5c	0.010917511
182	0xbdc35563	-0.095377706
183	0x3ed11917	0.40839455
184	0xbe90c055	-0.28271738
185	0x3d9469ea	0.07246764
186	0x3e1b1e2e	0.15148231
187	0x3db5ece6	0.088830754
188	0x3df5a2d4	0.119939476
189	0xbe8f82d4	-0.280295
190	0xbe3f9cf2	-0.18712214
191	0xbe03cf1e	-0.12871978
192	0x3f015b0c	0.5052955
193	0xbdecaba6	-0.11556177
194	0xbe4aa8db	-0.19790976
195	0xbe046d93	-0.12932424
196	0x3ed4c14d	0.41553727
197	0xbdcfc46a	-0.10144885
198	0xbe320be3	-0.17387347
199	0x3e56272b	0.20913379
200	0xbd001c09	-0.031276736
201	0xbec9e6cd	-0.394339
202	0x3e46097c	0.19339556
203	0xbd6427d2	-0.055702038
204	0x3b3f5545	0.0029195112
205	0x3ecc8fcf	0.39953467
206	0x3ed21760	0.4103346
207	0xbea7da3f	-0.32783696
208	0xbe24d3ca	-0.16096416
209	0x3e06e686	0.13173875
210	0xbd386db5	-0.0450265
211	0x3e2cd892	0.1687949
212	0xbd2f9bb1	-0.04287309
213	0x3eed1547	0.46305296
214	0xbc7c4f97	-0.015399835
215	0xbe0bbf7f	-0.13647269
216	0xbe1c17d3	-0.15243463
217	0xbebe85d8	-0.3721149
218	0x3dad3132	0.08456649
219	0xbca5cd78	-0.020239577
220	0x3d9ce9cc	0.07661781
221	0x3da4aa4d	0.08040295
222	0x3def55ea	0.11686309
223	0x3d872b53	0.0660006
224	0x3e47ffcb	0.19531171
225	0xbdc95029	-0.098297425
226	0xbe35bb92	-0.17747334
227	0x3e7c2f82	0.24627498
228	0x3dd29ab6	0.10283415
229	0x3e8e314b	0.27771983
230	0xbe0022c6	-0.12513265
231	0xbe99b747	-0.30022642
232	0x3e03ca1a	0.12870064
233	0xbde5fee9	-0.11230261
234	0x3d81a4e0	0.063302755
235	0x3f0ab742	0.5418588
236	0xbe035941	-0.12827016
237	0xbe978d4c	-0.29599988
238	0x3e398014	0.18115264
239	0xbc65b46c	-0.014020067
240	0x3d4a4ddb	0.049390655
241	0xbd705f1d	-0.058684457
242	0xbe8e3bec	-0.27780092
243	0xbe62d490	-0.22151399
244	0x3e2319d1	0.15927817
245	0x3e7ba174	0.24573308
246	0xbd6de347	-0.058078077
247	0xbe94a574	-0.2903248
248	0x3d34f00f	0.04417425
249	0x3e76fba7	0.24119435
250	0xbeb6ec48	-0.35727143
251	0x3e6d7759	0.23190059
252	0x3e2df5a7	0.1698824
253	0xbdf76599	-0.12079925
254	0x3e9ae9da	0.3025654
255	0xbe753119	-0.2394451

res2.0.bias f4 [64]
0	0x3c8c9120	0.017159045
1	0x3c47fff9	0.012207025
2	0x3c85026a	0.016236503
3	0x3c8b2b91	0.016988548
4	0x3c840129	0.016113834
5	0x3b429ad7	0.0029694343
6	0x3c8c34ab	0.017114958
7	0x3c8c2559	0.017107653
8	0x3c81610a	0.015793342
9	0x3c91cb24	0.01779706
10	0x3b677a51	0.003532071
11	0x3ba03a06	0.0048897294
12	0x3c7ad38f	0.015309229
13	0x3b2c4744	0.0026287595
14	0x3c48fea3	0.012267741
15	0x3bd26178	0.0064203106
16	0x3b436ef2	0.0029820767
17	0x3b34652f	0.002752613
18	0x3c851f19	0.01625018
19	0x3c446bd7	0.011988602
20	0x3c829980	0.015942335
21	0x3c8b6941	0.017017962
22	0x3ca412b7	0.020028455
23	0x3c77d02d	0.015125317
24	0x3c49643a	0.012291962
25	0x3b4757ff	0.003041744
26	0x3c8ad8ad	0.016949022
27	0x3c29ca34	0.01036315
28	0x3d082605	0.033239383
29	0x3b9e9179	0.004839119
30	0x3c99168d	0.01868751
31	0x3c7d10b6	0.015445879
32	0x3c8cd173	0.017189717
33	0x3c883a31	0.01662931
34	0x3c847156	0.016167324
35	0x3c8b4f22	0.017005507
36	0x3c6dc02e	0.014511151
37	0x3c341a21	0.010992558
38	0x3bcfd227	0.006342191
39	0x3c8a3331	0.016870113
40	0x3b711b69	0.003679002
41	0x3c4b5043	0.012409273
42	0x3b493658	0.0030702557
43	0x3c40871a	0.011750961
44	0x3cb98231	0.022645088
45	0x3b49d9b1	0.003079992
46	0x3c48ca0d	0.012255204
47	0x3c064746	0.008195704
48	0x3b1c42b3	0.0023843467
49	0x3c5b7a54	0.0133958645
50	0x3c813f45	0.01577724
51	0x3c016b54	0.007899124
52	0x3c833405	0.016016016
53	0x3b7e739e	0.0038826237
54	0x3c8b8b5f	0.01703423
55	0x3b358270	0.0027696155
56	0x3b3cd21f	0.0028811765
57	0x3c447d51	0.011992768
58	0x3b64c546	0.0034907623
59	0x3c41f586	0.0118383225
60	0x3bab8207	0.0052340063
61	0x3c88cafd	0.016698355
62	0x3b3d2009	0.0028858206
63	0x3c42cb3e	0.011889277

res2.1.weight f4 [64]
0	0x3f80f980	1.0076141
1	0x3f7ffbde	0.99993694
2	0x3f80cd2f	1.0062617
3	0x3f80f10b	1.007356
4	0x3f80cd12	1.0062582
5	0x3f7e43c2	0.9932214
6	0x3f814db0	1.0101833
7	0x3f810de2	1.0082362
8	0x3f8484ce	1.0353029
9	0x3f813df2	1.0097029
10	0x3f7e9a1d	0.9945391
11	0x3f7edae3	0.99552745
12	0x3f80e64e	1.0070283
13	0x3f7e21d6	0.9927038
14	0x3f7bbb6d	0.98332864
15	0x3f7f3a3e	0.99698246
16	0x3f7e3c3e	0.9931067
17	0x3f7e1492	0.9925014
18	0x3f80bdd0	1.0057926
19	0x3f800000	1.0
20	0x3f80be34	1.0058045
21	0x3f80f2a7	1.0074052
22	0x3f81bc89	1.0135661
23	0x3f80a85b	1.0051378
24	0x3f7f0581	0.99617773
25	0x3f7e14ff	0.9925079
26	0x3f80d91a	1.0066254
27	0x3f7e2b31	0.99284655
28	0x3f9c871c	1.2228732
29	0x3f7ee52c	0.9956844
30	0x3f9ac3db	1.209102
31	0x3f8395f8	1.0280142
32	0x3f81721e	1.0112951
33	0x3f811529	1.0084583
34	0x3f80bd24	1.0057721
35	0x3f80eee9	1.007291
36	0x3f8052d0	1.0025272
37	0x3f7eba06	0.995026
38	0x3f7f0eb0	0.99631786
39	0x3f80d6d9	1.0065566
40	0x3f7e9325	0.99443275
41	0x3f800d24	1.000401
42	0x3f7e635c	0.9937036
43	0x3f800000	1.0
44	0x3f814a63	1.0100826
45	0x3f7e1da5	0.99263984
46	0x3f800000	1.0
47	0x3f7d64f3	0.9898216
48	0x3f7dfe6e	0.99216354
49	0x3f80e1ff	1.0068969
50	0x3f80b9ef	1.0056742
51	0x3f7d1001	0.98852545
52	0x3f80c062	1.005871
53	0x3f7eac23	0.9948141
54	0x3f80e666	1.0070312
55	0x3f7e366c	0.9930179
56	0x3f7e2024	0.9926779
57	0x3f800000	1.0
58	0x3f7e54f4	0.9934838
59	0x3f800000	1.0
60	0x3f7d814f	0.99025434
61	0x3f80da8f	1.0066699
62	0x3f7e2b75	0.9928506
63	0x3f800000	1.0

res2.1.bias f4 [64]
0	0x3bfbbb4a	0.0076822387
1	0xbbb6a097	-0.005573343
2	0x3bd1c503	0.0064016595
3	0x3be8013b	0.007080225
4	0x3bd78ec4	0.0065782983
5	0xbbe56dfd	-0.007001637
6	0x3bf57062	0.0074902037
7	0x3becb9e1	0.007224307
8	0x3c3de056	0.01158913
9	0x3c0e8ea7	0.008701003
10	0xbbcf78f7	-0.006331559
11	0xbb9c4aea	-0.0047696726
12	0x3bc63cac	0.006049713
13	0xbbf10326	-0.0073551117
14	0xbd0337ad	-0.03203552
15	0xbb68ab95	-0.0035502661
16	0xbbe52567	-0.006992984
17	0xbbec83bc	-0.0072178524
18	0x3be1a798	0.006886434
19	0x00000000	0.0
20	0x3bca60d6	0.0061760945
21	0x3bfb98b8	0.0076781176
22	0x3c2812c5	0.010258381
23	0x3bcbd38b	0.0062202862
24	0xbd0564c0	-0.032566786
25	0xbbe3de87	-0.0069540176
26	0x3be98820	0.007126823
27	0xbbde9a6f	-0.0067933123
28	0x3db1c0fd	0.08679388
29	0xbb9756dd	-0.004618509
30	0x3cc089fd	0.023503298
31	0x3befc95e	0.007317706
32	0x3bc2dbaf	0.0059465985
33	0x3bea5cee	0.0071521914
34	0x3bce7ba3	0.0063013597
35	0x3bea6a9b	0.0071538216
36	0x3bbc3de0	0.0057446808
37	0xbbbefcfa	-0.005828497
38	0xbb67f033	-0.0035390973
39	0x3be4d2e3	0.0069831475
40	0xbbc7a39c	-0.006092502
41	0x3c7f57eb	0.015584926
42	0xbbdd8a31	-0.0067608585
43	0x00000000	0.0
44	0x3c24861a	0.010041738
45	0xbbe0894e	-0.0068523055
46	0x00000000	0.0
47	0xbbdf43e3	-0.0068135126
48	0xbbf3f066	-0.007444429
49	0x3bbba269	0.005726148
50	0x3bdbc458	0.0067067556
51	0xbbdac459	-0.0066762385
52	0x3bd285ed	0.0064246566
53	0xbbc5df1d	-0.00603856
54	0x3becf781	0.007231653
55	0xbbe2659e	-0.0069090864
56	0xbbe9cd05	-0.007135036
57	0x00000000	0.0
58	0xbbd3af80	-0.00646013
59	0x00000000	0.0
60	0xbc40342c	-0.011731189
61	0x3be177b5	0.0068807253
62	0xbbe35544	-0.0069376547
63	0x00000000	0.0
