best_model.pth (torch, 763874 bytes, 45 tensors)

cnn_block.0.weight f4 [16, 1, 3]
000000 2c a9 f1 3e 1d 80 02 3f 96 36 d0 bd db a0 04 3f
       0.4719938 0.50976735 -0.101666614 0.51807946
000010 56 1c 0e be e1 fd d3 3d ea 90 9d be 8d 76 a2 3e
       -0.13877997 0.10351158 -0.30774623 0.31731072
000020 dd 72 f9 3e e9 dc d8 be 26 71 f7 3e 1a 50 b7 3d
       0.48720446 -0.4235604 0.48328513 0.08950825
000030 db e1 f5 3e 5f 07 07 3e 69 e4 a5 3e 84 7d 92 bd
       0.48023877 0.13186406 0.32400826 -0.071528465
000040 f6 f7 e8 3e a5 91 bd 3d 87 15 62 be 9b b0 48 3e
       0.4550168 0.09256295 -0.22078525 0.1959862
000050 a2 9a 5e be 86 7b 10 bd fb ef 4e be 22 5e d5 3e
       -0.21738675 -0.03527405 -0.20208733 0.4167338
000060 1e 29 a6 be 89 87 0a be bb ad 56 bd f7 bc b1 be
       -0.32453245 -0.13528265 -0.052411776 -0.3471448
000070 20 33 5f 3d 0a fb 11 bf c9 7c 0d 3f 5f 1b eb be
       0.054492116 -0.5702368 0.5526853 -0.4591932
000080 0b 3a f4 3e b8 c6 c4 3d ac f7 3f be 06 ab b6 3e
       0.47700533 0.09608215 -0.18746823 0.35677356
000090 d2 59 ed 3d 51 17 fc 3e 58 a3 ba 3d 62 73 3a be
       0.115893975 0.4923654 0.091131866 -0.18208078
0000a0 fc d8 1e 3e b6 52 20 be b7 ab 8e 3e c2 15 0d 3f
       0.1551246 -0.15656552 0.27865383 0.55111325
0000b0 02 ad bc 3e 53 97 4b be 78 bb c8 3e 07 e0 25 3e
       0.36850744 -0.19881944 0.39205527 0.16198741

cnn_block.0.bias f4 [16]
000000 12 2c 9d 3e fc 65 bb be bc 2e 18 bf 86 3c 7a be
       0.30697685 -0.36601245 -0.5944631 -0.2443715
000010 80 c8 ce be a6 eb e9 3e 1b ff 72 3e 4e 00 83 3e
       -0.40387344 0.45687598 0.23730128 0.2558617
000020 90 14 97 3e c0 8d 24 bc 36 87 ee 3e ba 07 d2 be
       0.29507875 -0.010043561 0.46587533 -0.4102152
000030 41 a3 38 3d db c2 c9 be 3b 5b 49 3e 49 99 1f be
       0.045077566 -0.39406475 0.19663708 -0.15585817

cnn_block.2.weight f4 [32, 16, 3]
000000 c4 27 35 3d 84 58 f6 bc c8 2b f5 3d 64 34 af bd
       0.044227377 -0.030071504 0.11971241 -0.085549146
000010 18 4c b0 bd d1 4e b0 bd 6c f0 04 3e 30 05 45 3d
       -0.08608264 -0.08608783 0.12982339 0.04810065
000020 e6 38 0e 3e 54 f4 f3 bd d7 99 12 be f4 44 e7 bd
       0.13888893 -0.11911836 -0.14316498 -0.11292449
000030 61 d9 c6 bd 64 76 6f 3d 64 b2 53 3d c0 9f f5 3d
       -0.097094305 0.058462515 0.0516838 0.119933605
000040 35 a8 98 bd 2b 84 c9 bd 36 d7 9c 3d e8 f7 6e bd
       -0.07453958 -0.09839662 0.07658236 -0.05834189
000050 a0 68 b3 3d 32 4b 0c bd 44 19 a9 3d a1 ac e5 bd
       0.0876019 -0.0342514 0.08256772 -0.11214567
000060 18 2d 95 bd b8 3e 34 3d 98 f8 f9 3c ba bb 16 bd
       -0.072839916 0.044005126 0.030514047 -0.036800124
000070 3a 33 b0 3d 30 f4 c8 3d 19 5d d6 bd 2f d0 9d bd
       0.08603521 0.098122 -0.10466976 -0.077057235
000080 1c 56 07 3e 0a 7e 47 bd aa 97 51 bd 19 03 0f be
       0.13216442 -0.048704185 -0.05117003 -0.13966025
000090 82 48 a9 bd 84 af 13 3d 08 12 9c bc 06 93 d6 bd
       -0.08265783 0.036056057 -0.019051567 -0.10477261
0000a0 40 e2 5d 3b d2 eb c9 bd f4 c9 fa bd 18 c7 a2 bd
       0.003385678 -0.09859432 -0.12245551 -0.0794813
0000b0 99 5b 01 be ce 38 bc bd 6e be 13 3e 08 54 df 3c
       -0.12632598 -0.09190522 0.14428112 0.027261749
0000c0 e2 80 9a 3d 28 b2 d4 bd 3d 84 74 bd 5b a6 75 bb
       0.07544114 -0.10385543 -0.059696425 -0.0037483189
0000d0 db 48 8c 3d f8 b2 c2 bd 65 b8 40 bd 4e 89 cb bd
       0.068498336 -0.09506792 -0.047050852 -0.09938298
0000e0 62 20 6e bc 1c da 06 bd 60 df 23 bc 42 4f c8 bd
       -0.014534088 -0.03292285 -0.010001987 -0.09780742
0000f0 81 ce 5f bd 49 4d 1c bd fb 84 35 bc da a5 af bd
       -0.054640297 -0.038159642 -0.011079068 -0.085765556
000100 f5 f0 18 3e 38 b7 5b 3b d5 f2 37 3d 14 8d c6 bb
       0.14935668 0.0033525955 0.044909317 -0.0060592983
000110 70 5b 02 be 83 54 01 3e 47 00 4b bc 2c d7 ef bc
       -0.12730193 0.12629895 -0.012390203 -0.029277407
000120 f5 d5 43 be bb 49 64 be 69 51 2a bb 3e 25 01 bd
       -0.19124587 -0.22293751 -0.0025988466 -0.031529658
000130 a0 2b 66 3d 42 97 f2 bd 91 fd 0a 3e 03 ba 9c bd
       0.056193948 -0.118452564 0.1357329 -0.076526664
000140 bd 51 b1 3b 68 f8 f6 3c 12 9b 98 3d c4 a4 ee 3d
       0.0054113553 0.030147746 0.07451452 0.1165252
000150 b8 f8 28 3e 63 ff a4 bd 02 eb 93 3d 18 4b 7e bd
       0.16501129 -0.08056524 0.072225586 -0.062083334
000160 18 93 81 bc 94 41 dd bd ad eb 27 3e 3d f1 94 bd
       -0.01581721 -0.10803524 0.16398497 -0.07272575
000170 f7 07 e4 3d 9a f5 04 3e 7b 3c 0d 3e 71 d9 c3 bc
       0.11134332 0.12984315 0.13792603 -0.023907395
000180 86 c2 1b 3e b8 88 57 3d 4f a6 1f 3d d4 00 bd bd
       0.15210924 0.05262062 0.038976964 -0.092286736
000190 40 96 c3 3d bc 3e 40 3c be 95 58 bd 88 9b df 3d
       0.09550142 0.011733707 -0.05287718 0.10918337
0001a0 36 3a a8 3c ae 96 74 bd c9 9d 95 bd 40 de e1 bb
       0.02053557 -0.05971401 -0.07305486 -0.0068929493
0001b0 36 41 ee 3d 4f eb 97 ba 7a 30 38 bd a3 41 01 bd
       0.11633532 -0.0011590513 -0.044968106 -0.031556737
0001c0 1d 41 b8 bd 87 ad 8e 3d 3b 4a ae 3c eb 34 68 be
       -0.089967944 0.069666915 0.02127563 -0.22676437
0001d0 12 2f 45 bd ec 01 ba 3d 3b c7 2d 3d 88 a6 fd bc
       -0.048140593 0.09082398 0.04242633 -0.030963197
0001e0 93 c2 c6 ba aa e6 99 ba 02 1a fd bc 7c c6 cf bc
       -0.0015164189 -0.0011741717 -0.03089619 -0.0253632
0001f0 62 8d 1c bd c0 fd 7c 3c fd 03 e9 bb a8 ca c9 bc
       -0.03822077 0.015441358 -0.007111071 -0.024632767
000200 93 99 e6 3d 98 0a fe 3d 90 1c 6a bc 8c 5e 04 bd
       0.11259761 0.12404364 -0.014289036 -0.03231673
000210 9e 31 d3 3c a5 67 76 3c 43 81 70 3d 0c ad 25 3d
       0.025780495 0.015039359 0.058717024 0.040448233
000220 eb 3d 06 be 76 2d 5a bd c9 93 13 3e 77 57 a1 3d
       -0.13109557 -0.05326601 0.14411844 0.07878011
000230 b8 fc 86 3c 20 b9 23 3b 2c b6 ff 3a fc f1 5c bd
       0.016477928 0.002498217 0.0019509248 -0.05394171
000240 0e b6 40 bd 28 a7 47 3d ac 7b bc 3d b2 7a 88 3d
       -0.04704862 0.048743397 0.09203276 0.06664027
000250 fe a5 02 be c6 c3 b1 bd c0 9a ba bc d2 f9 0e 3e
       -0.12758633 -0.08679919 -0.022778869 0.13962486
000260 80 0b ab 3c f0 1a 19 bd 58 97 74 3d 02 2e 61 bd
       0.020879507 -0.037379205 0.059714645 -0.054975517
000270 b8 54 bf bd d2 c1 d7 3d 4f 69 86 bd d8 08 ed bc
       -0.09342331 0.10535015 -0.06563055 -0.028934881
000280 a2 08 13 be b0 d6 c5 3d 98 f5 df 3d d4 76 57 3d
       -0.14358762 0.09660089 0.10935515 0.052603558
000290 d8 1d ce bd 12 df 11 be 33 15 f0 bd 74 6e dc 3d
       -0.10064286 -0.14245251 -0.117227934 0.10763255
0002a0 be eb 8d 3d 64 c0 f8 3d 90 db 9a 3d 38 a1 15 3d
       0.0692973 0.121460706 0.075614095 0.036530703
0002b0 80 43 b9 ba e1 ce e0 bd c4 43 fd bd 00 3f 0a be
       -0.0014134496 -0.10976959 -0.12366441 -0.13500595
0002c0 7c 04 72 3d bc 21 91 bd b8 f6 ed bc 0c 1f aa bd
       0.059086308 -0.070865124 -0.029048309 -0.08306703
0002d0 ac 76 d7 bc 52 0e d0 bd e0 26 c1 bd 10 1c 44 3d
       -0.026301704 -0.101589814 -0.09431243 0.047878325
0002e0 5a b4 2f bd 1c 7d b6 3d 0e aa 3d bd 4c d8 d8 bd
       -0.042896606 0.089105815 -0.046304755 -0.1058813
0002f0 ac 9f d0 bc ff 4a 8f bd ec df 34 bd e0 b4 0c be
       -0.025466762 -0.06996726 -0.04415886 -0.13740873
000300 e9 ed 91 3d db 54 e0 bd 17 c1 82 3d e0 23 86 3d
       0.07125456 -0.10953685 0.06384485 0.06549811
000310 4e 30 d3 3d ec 18 b8 bd d4 98 d4 3d 11 b1 35 bd
       0.10311948 -0.089891285 0.10380712 -0.044358317
000320 95 5b 5b 3d 7e cd 0a 3e 0a 5e 85 3b 80 4e 92 ba
       0.053554136 0.13554952 0.004070048 -0.0011162311
000330 26 1d 08 bd 12 f2 f5 bd a2 20 c1 3d d5 64 1c be
       -0.033230923 -0.12009062 0.09430052 -0.1527284
000340 02 4f a5 3d 41 da ca 3d ce ae 02 3e 91 71 2f bd
       0.0807171 0.0990491 0.12761995 -0.042832915
000350 83 a3 02 be 66 d7 bc 3c 29 23 91 3d 55 54 1c be
       -0.12757687 0.023051929 0.070867844 -0.15266545
000360 28 20 21 bd 84 00 c0 bd 10 86 a3 bc fd 7f 91 bd
       -0.039337307 -0.09375098 -0.019961387 -0.0710449
000370 86 aa 71 bd 0e af 3b bd fb 20 16 be 76 a5 df 3d
       -0.059000514 -0.045821242 -0.14661019 0.10920231
000380 53 8f e5 3d ec 7b b9 bc d8 a7 86 bc 80 48 71 bd
       0.112089776 -0.022642098 -0.016437456 -0.058907032
000390 72 53 0f be 5e 8e 18 be 05 94 39 3d c5 4c a2 bd
       -0.13996676 -0.14898059 0.045307178 -0.07924799
0003a0 5d 09 be bd e0 82 38 bc c4 04 6c bd 57 0b 63 bd
       -0.0927913 -0.011261672 -0.057621732 -0.055430736
0003b0 37 ec 7f bb f8 cd fa bc c6 fe d6 bc 4e 30 72 bd
       -0.0039050707 -0.030615792 -0.026244532 -0.0591281
0003c0 b6 95 b6 bd 09 30 19 3e e9 d1 b2 bc ae b2 09 3e
       -0.08915274 0.1495973 -0.021828609 0.13447067
0003d0 79 e7 02 3e bf 9a 6e 3e 35 ab 01 3e c7 d3 5e 3d
       0.12783612 0.23301218 0.12662967 0.054401185
0003e0 68 71 0c be 40 c5 81 3d b8 4c 0c 3e 60 89 1b 3d
       -0.13715136 0.063364506 0.13701141 0.037972808
0003f0 ec 1d 34 3e d7 ad 84 3e 20 c7 9a 3d 0d 8a 41 3d
       0.1758954 0.2591388 0.07557511 0.047250796

cnn_block.2.bias f4 [32]
000000 b4 1b 04 be ff d7 c3 3d 97 a7 ef bd 28 e8 8f bc
       -0.12901193 0.09562682 -0.11701887 -0.017566755
000010 8f 84 ff b9 5d fb ce 3d e1 50 26 bd c8 2a fc 3c
       -0.00048736154 0.101065375 -0.040604476 0.030782118
000020 c9 42 35 3d 29 f3 cf 3d 47 4e 61 3c 50 8f 68 3d
       0.044253144 0.10153801 0.013751573 0.0567773
000030 26 06 af bd 02 6b cd bd 66 a5 02 3e 02 48 aa bd
       -0.085460946 -0.10030176 0.12758407 -0.08314516
000040 b8 49 d7 bc 47 85 03 3c 4f c1 23 3e 0e eb 49 bd
       -0.026280269 0.008027381 0.1599171 -0.04929643
000050 e3 97 b8 bd 28 e6 4f bd 4f 2a c8 3d 14 4a 6a 3d
       -0.09013345 -0.050756603 0.09773695 0.057199553
000060 3a aa 11 3e 46 a8 ae bb 31 90 9c 3d 58 16 0b be
       0.14225093 -0.0053301184 0.0764469 -0.13582742
000070 f8 e2 8f 3d 34 5b a1 3d d3 97 bd 3d 2f e0 b1 bd
       0.07025713 0.07878724 0.09257474 -0.08685338

lstm.weight_ih_l0 f4 [256, 32]
000000 64 b1 08 bd 44 75 60 3d ce a6 71 bd a4 a4 cb bd
       -0.033372298 0.054799333 -0.058996968 -0.09943512
000010 11 08 e0 bd e0 42 3c 3d ae 5b e5 3d 98 29 85 3d
       -0.109390385 0.045962214 0.11199127 0.06502074
000020 6f 72 11 3d 99 92 90 3d dd 82 47 bd 5e 45 76 3c
       0.035509523 0.07059211 -0.048708785 0.015031187
000030 b7 a3 ff bc 78 83 7d bd a5 c4 dc 3d ac 22 8b bd
       -0.031205995 -0.061892956 0.107796945 -0.067937225
000040 bc 6d 95 3c aa 81 a6 bd 98 cf bb 3c e0 6f 18 bd
       0.018240802 -0.081302 0.022926137 -0.037216067
000050 06 fc 90 3d aa 19 2c bd e0 64 de 3d 4c bc cf bd
       0.0707932 -0.042016663 0.10859084 -0.10143337
000060 fe 44 d0 3d ab 65 84 bd 25 02 b4 3d 04 96 57 bd
       0.10169409 -0.06464704 0.087894715 -0.0526333
000070 96 4e 7d 3b 7d dc c1 3b e8 81 dd 3d ff 4f 79 3d
       0.0038651577 0.005916177 0.10815793 0.060867306
000080 9c 96 e1 bd 07 a1 2f 3d d4 cf 5d bd 30 60 bf 3d
       -0.110150546 0.042878177 -0.05415328 0.09344518
000090 18 fc 21 3d e7 55 aa ba 20 8b 05 bd 3f 85 99 3d
       0.039547056 -0.0012995572 -0.032603383 0.07496118
0000a0 eb 28 30 bd 87 2f bb 3d 44 45 cd 3d 07 d9 a5 3d
       -0.043007772 0.091399245 0.10022977 0.08098035
0000b0 14 12 06 3d 2c 18 e0 bd d8 24 b8 3d 60 e8 e1 bb
       0.032732084 -0.109421104 0.089914024 -0.0068941563
0000c0 44 73 17 bd bf bb 97 3c 52 e3 fc 3d fd ca ec 3d
       -0.03697516 0.018522142 0.123480454 0.115621544
0000d0 01 22 52 3d 14 d6 aa 3d 57 f9 ac bd 00 d0 9a 39
       0.05130196 0.083416134 -0.08445995 0.0002952814
0000e0 46 24 a1 bd b2 ba 98 3d 32 02 6b bd ac 7a 36 bd
       -0.07868247 0.07457484 -0.05737514 -0.044550583
0000f0 01 8e ce 3d 3e 0a 1b 3e c1 7d 30 bd d5 a3 48 bd
       0.10085679 0.15140626 -0.04308868 -0.048984367
000100 00 a3 7d 3c a6 1c 37 3d b4 b6 95 bc 84 e4 1f bd
       0.015480757 0.044705056 -0.018275596 -0.03903629
000110 0a e5 a2 bd 5e 90 25 39 e4 0f ac 3d 19 69 51 bd
       -0.07953842 0.00015789407 0.084014684 -0.05112562
000120 51 b3 80 3d 44 93 77 3d 79 f0 d4 3d 0d d0 47 bc
       0.06284202 0.060443178 0.10397429 -0.012195599
000130 04 18 77 3b 3a 15 bc 3d fa d2 a1 3d e3 96 02 3e
       0.0037703523 0.09183736 0.07901569 0.12752871
000140 24 e8 12 bd 88 4d 60 3d c8 38 b4 3d bb cf b4 bd
       -0.035865918 0.05476144 0.08799893 -0.08828684
000150 36 74 f4 3c 88 da d8 bc 14 17 a9 3d 00 f4 65 bd
       0.02984057 -0.026471391 0.08256355 -0.0561409
000160 6b 57 34 3c ac a7 a0 3d 94 32 ff bd 1e 28 d8 bd
       0.01100717 0.07844481 -0.12460819 -0.10554527
000170 ae 9a 6b bd 74 39 ae 3d eb 2c a4 3d cf ac a0 bd
       -0.05752056 0.08507052 0.0801638 -0.078454606
000180 88 43 c3 3c 49 12 21 bd 70 1b e9 bc 64 c7 dc 3d
       0.023835912 -0.03932408 -0.028455466 0.10780218
000190 fd e8 9f 3d e1 bf 79 3b e9 5d 51 3d d4 17 65 3d
       0.07808111 0.0038108754 0.05111495 0.055930927
0001a0 31 a6 6f 3d fb 0a 60 bc 59 f5 2f bd d0 e2 af 3d
       0.0585081 -0.013674493 -0.04295859 0.08588183
0001b0 3f 70 87 3c 24 4c 56 3d fc e8 41 bd 1a 4a b4 3d
       0.016533015 0.052318707 -0.04734133 0.08803196
0001c0 ec 34 ba 3d b9 6e d8 3d 04 79 81 3d aa ec 12 3e
       0.09092125 0.10567994 0.0632191 0.14348093
0001d0 e5 7a f2 3c 4c dd 62 3d 9d b4 17 3e 3e ce f8 3d
       0.029599616 0.055386826 0.14814992 0.121487126
0001e0 8a 03 c4 bc 95 e2 11 3e 98 09 96 3d 90 3f 65 bc
       -0.023927469 0.1424659 0.073260486 -0.013992205
0001f0 b9 2d f1 3d 9c d3 0d bd 9f 12 e3 3d dc 61 15 3e
       0.11776299 -0.034625635 0.11087536 0.14588112
000200 52 90 b0 bd 24 21 5d bd 31 fd c2 bd 10 48 b8 bc
       -0.08621277 -0.053986683 -0.09520949 -0.0224953
000210 a6 57 dc bd c9 e1 13 3d 96 47 ca 3d e9 b8 f7 3d
       -0.10758905 0.036103997 0.09876935 0.12095816
000220 57 47 bd 3d e6 b3 b9 3d 54 4f 9d 3d 3d 20 9b bd
       0.092421226 0.09067516 0.07681146 -0.07574508
000230 cc a7 cb bd 60 cb a9 3b f8 17 f3 3d 51 f3 00 3d
       -0.09944114 0.005181715 0.11869806 0.031482045
000240 fc 9e 30 bc 69 5e 7b bd 02 dc 2c bd cd 54 be bd
       -0.010780092 -0.061369333 -0.042202003 -0.09293518
000250 da 96 02 3e 11 f4 37 bc 53 7a b0 bd d0 b2 5b 3c
       0.12752858 -0.011227624 -0.086170815 0.013409331
000260 44 4c e5 3c 6e d6 50 3c ec 10 5a 3d e6 ab 89 3d
       0.027990468 0.0127464365 0.053238794 0.0672224
000270 e8 d2 ea bd 71 bf 96 bd 19 1e 89 3c 89 88 dc bd
       -0.114660084 -0.07360733 0.016737984 -0.107682295
000280 44 8a e8 bd 91 ec 11 3e 0e 75 ba 3c bc 20 7d bd
       -0.11354497 0.14250399 0.022760894 -0.061798796
000290 9a fc f6 bc 4d 28 96 bd 9b 06 fe 3d 24 ce 95 3b
       -0.030149747 -0.073319055 0.12403604 0.004571693
0002a0 2d dc 19 bd 9b c9 7f bd 31 83 d6 3d 45 6b 4e bc
       -0.03756349 -0.062448125 0.104742415 -0.012598817
0002b0 37 c9 58 bc b8 71 05 bd a9 26 77 bd e6 20 61 3d
       -0.013231567 -0.032579154 -0.060339604 0.054963015
0002c0 47 e6 c4 3d 6c 10 24 bd b8 ec 1c 3d 41 ca a1 bd
       0.096142344 -0.040054724 0.03831169 -0.07899905
0002d0 c1 16 d6 bc bb e9 03 3e 64 80 0b 3d 14 9c f6 3d
       -0.026133897 0.1288213 0.03405799 0.12041488
0002e0 86 0e 31 3c 56 ca 11 bd bb 54 32 bd 84 e5 e2 3d
       0.010806685 -0.035593353 -0.043537837 0.11078933
0002f0 b4 5a ab bd b9 a2 c7 3d 51 e1 7d 3d 4a 1b 66 3d
       -0.083669096 0.09747834 0.061982457 0.05617837
000300 08 72 90 3d a4 20 d7 bb 51 13 dd 3d 02 f6 cb bd
       0.07053 -0.0065651704 0.107947 -0.09959032
000310 09 5b c2 bc fa 4e f4 3d a2 41 86 3d 6f c3 7c 3c
       -0.02372505 0.11929126 0.06555487 0.015427454
000320 73 36 e8 39 5f de 41 bd 87 e4 da 3d 3f 61 38 ba
       0.00044291056 -0.04733121 0.106881194 -0.0007033534
000330 95 42 95 bb 58 2b f2 3c 52 ea bc 3d 8d b5 0a bd
       -0.0045550563 0.029561684 0.092243806 -0.033864547
000340 e4 8b 30 bd 8b 7b eb 3d 4f ae cc 3d f3 32 40 bd
       -0.04310216 0.11498173 0.09994184 -0.04692359
000350 c6 79 be bd 1d 4c 3f 3d 24 9f c3 3d f8 96 f4 3c
       -0.0930057 0.046703447 0.09551838 0.029857144
000360 92 0c f1 3d 7e 67 8d bd 78 90 b6 3d 60 26 9f bd
       0.11769976 -0.06904505 0.08914274 -0.07770991
000370 a1 ab a6 3d e7 ec fc 3d 9d 9f 8d 3d 1b b6 fd 3d
       0.08138204 0.12349873 0.069152094 0.123882495
000380 28 be a8 bd 83 96 af bd da bf b5 bd 90 b9 a0 3d
       -0.082393944 -0.0857363 -0.088744834 0.07847893
000390 92 e1 11 3d ea 69 cc bc 25 e1 cb 3d 29 30 13 3e
       0.03561551 -0.024952848 0.09955052 0.1437384
0003a0 3d 1a c8 bd ee 5b ee 3d 6f 14 39 3d 7d 6b 2f 3c
       -0.097706296 0.11638628 0.045185503 0.01070678
0003b0 1f ed e5 3d c2 d4 e7 3d 75 ba 57 3d d6 65 01 3e
       0.11226868 0.11319877 0.052668054 0.12636504
0003c0 2b 33 55 3d b0 30 37 3d 3d fb b0 bd 81 9e 08 3c
       0.05205075 0.044724166 -0.0864167 0.0083385715
0003d0 f7 45 77 bd 2b 99 0c 3d 8b 19 4a 3d 00 0a 38 3b
       -0.060369458 0.03432576 0.049340766 0.0028082132
0003e0 7c bf 80 bd 49 ac 43 bd c9 6b e3 3d 90 5a 79 3d
       -0.06286523 -0.047771726 0.11104543 0.060877383
0003f0 fe 29 8f 3d 2f 21 78 bc d0 c5 ab 3b a9 63 3f bd
       0.06990431 -0.01514463 0.005242087 -0.046725903

lstm.weight_hh_l0 f4 [256, 64]
000000 3f 7a d7 3d 2b a4 31 bd 57 ac be bd a9 f0 11 3d
       0.105213635 -0.043369453 -0.09310215 0.035629902
000010 2e 4b 0d 3d 53 4e d5 bd ea 37 12 3c de a9 47 bd
       0.034495525 -0.1041533 0.008924464 -0.048745982
000020 0c b2 d7 3d 3c a9 1a 3c 18 ba 76 bd 96 55 f3 3d
       0.105320066 0.009439763 -0.060236067 0.118815586
000030 9f f9 ae bc 6a 49 14 3b 26 37 a5 3d 8e c2 c8 3d
       -0.021359263 0.0022626766 0.08067159 0.09802733
000040 69 8d 9d 3d cf dc 9a bc 2b 92 a7 3d f2 39 6c bd
       0.076929875 -0.018904118 0.08182176 -0.05767245
000050 c8 1a b5 3d 8c e2 c6 bd f0 0e af bc 56 a7 0c 3e
       0.08842999 -0.09711179 -0.021369427 0.13735709
000060 7d 01 8a 3d 05 73 35 bd a8 ab 75 3d 6e e9 77 3d
       0.06738565 -0.044299144 0.059978157 0.06052535
000070 f3 a3 fa bd ed f7 ff bc e0 eb c9 bd ca 13 07 bc
       -0.12238302 -0.03124615 -0.09859443 -0.008244464
000080 82 ef f9 bb 3c 75 10 bd 26 1f c1 bc ae d2 6b 3d
       -0.0076274285 -0.035268053 -0.023574423 0.057573967
000090 fb d3 f3 bc 63 52 ea bd 10 c1 1b 3d 01 da cd bd
       -0.029764166 -0.11441495 0.038025916 -0.100513466
0000a0 af 8f bf bd 6f 73 81 3d f5 22 ed 3d bc aa dd bc
       -0.09353577 0.06320845 0.11578933 -0.027058952
0000b0 23 d6 c3 bd e5 e3 1a 3d 4e 72 c6 bd 3c 6c c2 3d
       -0.09562328 0.037814993 -0.09689771 0.094933
0000c0 41 88 da 3d b0 f8 97 3d 25 85 70 3d de 74 01 bb
       0.106705196 0.0742048 0.058720727 -0.0019753496
0000d0 02 ca e0 bd b1 79 67 bd e3 17 c8 3d d6 2c c9 3d
       -0.1097603 -0.05651254 0.09770181 0.09823005
0000e0 90 01 be 3c 54 e1 5e 3d fd a5 e7 bd 9c 86 9c 3d
       0.023194104 0.05441411 -0.113109566 0.07642862
0000f0 24 0e b5 bd 0a 75 ab bd 77 a1 13 3e 19 a7 bc bc
       -0.08840588 -0.08371933 0.14417063 -0.023028897
000100 27 37 00 bd 00 6e 6f bc 7c 97 05 3e e7 0e 13 3e
       -0.031302597 -0.014613628 0.13046068 0.14361154
000110 5c ef 2e 3d df 3a 59 3d c3 3c 6a 3d ec 3b 9b 3b
       0.04270874 0.05303466 0.057186853 0.004737368
000120 a9 f1 b8 bd ec 04 0e 3d ea 14 5a bd 07 bd 98 3d
       -0.09030468 0.034672663 -0.0532426 0.07457929
000130 a5 11 fe bd 7a 8f 53 bd 30 89 7e bd de a0 00 be
       -0.12405709 -0.0516505 -0.06214255 -0.12561366
000140 05 28 02 3e 87 8a 20 be c3 d4 14 bd 52 7a d3 bd
       0.12710579 -0.15677844 -0.036335718 -0.10326065
000150 11 dc ac bd 9e 35 8b bd 67 1d da 3c c6 60 ee 3d
       -0.08440412 -0.06797336 0.026625348 0.11639552
000160 a4 0b 66 3b 73 67 e7 bc e3 c1 07 bd ef bd a7 3d
       0.0035102153 -0.02824757 -0.03314389 0.08190524
000170 7e 97 86 3d fc e1 69 bd 70 54 ed 3d ec 7b 8e bd
       0.065718636 -0.05710028 0.11588371 -0.0695723
000180 02 fe 96 3d b1 51 d3 3d 8a 00 0a bd 4a 04 37 3d
       0.07372667 0.10318316 -0.03369192 0.044681825
000190 25 7e cb 3c b3 53 95 bd d6 a4 1e 3d 9c d7 01 3e
       0.024840424 -0.07291355 0.03873142 0.12679905
0001a0 04 99 13 bc 81 13 5a bd 9f 09 8e bc a7 41 87 bd
       -0.00900865 -0.053241257 -0.017338572 -0.06604319
0001b0 43 17 8f ba b0 60 19 be a6 dc 99 bd 74 d3 5a bc
       -0.0010916967 -0.1497829 -0.075127885 -0.013356078
0001c0 73 20 b1 bd 98 1c 18 3e 9e e4 08 bc 17 48 cb bd
       -0.08648767 0.14854658 -0.008355288 -0.099258594
0001d0 b2 39 b0 b9 cc 3c 90 3d e4 9a f3 3d c5 0c 87 bd
       -0.00033612322 0.07042846 0.118947774 -0.065942325
0001e0 7b b2 19 3c 97 8e be bd 2a 4a 0f be ef ac b0 bd
       0.009380932 -0.093045406 -0.13993135 -0.086267345
0001f0 a6 aa 91 bc 4f 2b a8 bd 43 22 0c bb 2a ce 93 3d
       -0.017781567 -0.082113855 -0.0021382726 0.07217057
000200 93 8d 7e 3c f1 47 a4 3d b3 29 54 3d ec 22 4b 3d
       0.015536684 0.08021534 0.05179758 0.04959385
000210 33 f2 a7 bd 8a 83 8c 3d 07 91 d9 bd 4b 2e 5c bd
       -0.08200493 0.068610266 -0.10623365 -0.053755086
000220 46 8a a1 bd 67 5f 24 3b a2 f5 e1 bd 3e bc dc bc
       -0.07887702 0.0025081278 -0.11033179 -0.02694523
000230 2e 6d ba 3d a7 90 88 bd 4b 01 93 3d 87 d7 83 bc
       0.091028556 -0.06668215 0.07177981 -0.016093982
000240 5b f4 df 3d a2 d9 f7 3d f8 97 89 bd f3 fe 84 3a
       0.10935279 0.12102057 -0.06718439 0.0010146782
000250 bf b6 bf bc e2 7d 3e bd b0 a8 47 3d 4f 75 f9 bd
       -0.02340257 -0.04650677 0.048744857 -0.12180578
000260 c8 db b3 bd 9e 25 9a bb a4 ff c7 bd 37 03 c6 bd
       -0.08782154 -0.0047041913 -0.097655565 -0.09668582
000270 eb c0 07 3d ea e7 c1 bd 00 c9 1a 3d c4 17 a4 bd
       0.033142965 -0.09468062 0.037789345 -0.080123454
000280 5b 1c d4 bc 32 3a d8 3d b3 82 00 be 00 2e fe bd
       -0.025892427 0.10557975 -0.12549858 -0.124111176
000290 b6 09 b3 3c 3f d8 9a bd 68 2d b7 3d 68 a7 1e 3d
       0.021855216 -0.07560777 0.089442074 0.03873387
0002a0 5e f7 2e 3c 59 cf 98 3d d3 a2 d0 3d 77 98 1c 3c
       0.010679094 0.074614234 0.10187306 0.009557835
0002b0 63 6e bb 3d a5 51 78 bd e3 89 cf 3d 26 6d 12 bd
       0.09151914 -0.060624737 0.10133722 -0.035748623
0002c0 7f 87 70 3d 8e 16 e2 bd 60 4f a9 bd 00 13 ab bd
       0.05872297 -0.11039458 -0.08267093 -0.08353233
0002d0 38 15 ab 3d 90 56 22 bc b7 3b db bd 65 74 e0 3d
       0.083536565 -0.009908333 -0.10704749 0.109597005
0002e0 21 3f ac 3c 20 cc 1e 3e b2 76 81 3d bc 28 31 3d
       0.021026196 0.15507555 0.063214675 0.043251738
0002f0 e1 4c d7 3d bb 32 c5 bd 9f 3e d6 3d 15 43 a2 bd
       0.1051271 -0.09628817 0.10461163 -0.07922951
000300 19 ca 11 3d c4 0a dc bd 92 53 71 bd 92 2b f0 3d
       0.035593126 -0.10744241 -0.05891759 0.117270604
000310 e4 6d 01 bc c4 7f 4d bd 23 f1 92 3d 4d 9b f6 3d
       -0.007899735 -0.050170675 0.071748994 0.1204134
000320 cf bf d8 bd b8 57 7f 3c 88 f2 d6 3c 48 2d 11 3e
       -0.105834596 0.015584879 0.026238695 0.1417743
000330 36 33 9f bd 76 58 5c bc 2e c3 40 bd 81 54 a1 3b
       -0.077734396 -0.013448825 -0.047061138 0.0049234037
000340 6e cf 66 3d b5 1c e8 bc 83 99 1b bd 0b 7d d4 bd
       0.056350164 -0.028334001 -0.037988197 -0.103754126
000350 a1 9a 9f bd e2 d5 9b bd c2 0d e9 3b 89 47 a9 3d
       -0.07793165 -0.07609154 0.0071122358 0.082655974
000360 d9 26 a9 3d 15 9d f4 bd 18 a3 09 bd 6f b1 3c bd
       0.08259363 -0.119440235 -0.033602804 -0.04606765
000370 f8 9b 04 3e 18 44 88 3d f7 d2 9d bd 7c 08 35 bd
       0.12950122 0.06653613 -0.07706254 -0.044197544
000380 2f 10 9e bd 34 1e 8c bc 21 ba aa bd 66 fc 5f 3d
       -0.077179305 -0.017104246 -0.083362825 0.054684065
000390 60 0c ab bd 91 0f 2c bd 2a f5 d2 3c a1 f6 57 bc
       -0.0835197 -0.042007033 0.025751669 -0.0131813595
0003a0 58 90 9c 3d da 13 be 3d b7 2f b1 bd 0a e8 7c 3d
       0.07644719 0.0928113 -0.08651679 0.061744727
0003b0 a1 3c b8 bc c0 cf 27 3d 04 71 a5 bc 8a 5a 77 3c
       -0.022489848 0.04096961 -0.020195492 0.01509727
0003c0 4a f6 b7 3c 69 12 8d 3d d4 3d b4 3d 76 02 ac 3c
       0.022456307 0.06888277 0.08800855 0.020997267
0003d0 8b 53 f7 bb 0e b1 b1 bd da d2 4f bd 2d 92 b3 bd
       -0.007547801 -0.086763486 -0.050738193 -0.08768115
0003e0 49 a8 ca bd 27 f5 0d 3e ee 68 8a bd 11 e7 d5 bd
       -0.09895379 0.1386305 -0.06758295 -0.10444463
0003f0 47 bb a3 bd 58 dc 4d 3d 00 91 56 bd fc a4 a7 bd
       -0.07994705 0.050258964 -0.052384377 -0.08185765

lstm.bias_ih_l0 f4 [256]
000000 8d d1 8f 3b 95 27 d2 3d 40 9e 72 3c c9 ef 06 3e
       0.004388994 0.10261456 0.014808238 0.13177408
000010 86 3f b3 bd e9 e4 91 3d 31 cf a8 3d 8a d1 fd bc
       -0.087523505 0.07123739 0.082426436 -0.030983705
000020 6a cf 8e bd c8 86 0b bb 7d cd 37 bc df d2 3e bd
       -0.06973155 -0.0021290053 -0.011218426 -0.04658782
000030 19 81 9f bd 83 fa 58 3d 78 84 3d 3d ff 65 41 bd
       -0.07788295 0.05297328 0.04626891 -0.04721641
000040 c9 cf 81 bb 25 e2 2f 3c 92 0d b7 3d dd 71 97 3d
       -0.0039615375 0.010735069 0.08938135 0.073947646
000050 6c 4b 0e 3e 3b fc 8f bb 3b 48 65 3d 0e 3c 93 bd
       0.13895959 -0.004394082 0.055977087 -0.07189189
000060 7b fd a0 3d d0 35 23 bd 38 dd ef 3d df 9f 2c 3d
       0.078608476 -0.03984624 0.11712116 0.042144652
000070 97 16 e2 ba 40 f1 9d bc c5 2e 98 3d b6 9e aa 3d
       -0.0017249164 -0.019280076 0.074307956 0.08331053
000080 cc 2d 37 3d 77 4e 01 3c ba 60 98 bd 07 ea 99 bd
       0.04472141 0.007892243 -0.07440324 -0.0751534
000090 dd f0 ef bd 4c 8d 08 bd ba 80 8c bd 0e dd 30 ba
       -0.11715863 -0.033337876 -0.0686049 -0.0006746807
0000a0 3c 45 dd 3d 7d cd 99 3c 38 3d ad 3d da f3 22 3d
       0.10804221 0.018774742 0.08458942 0.039783336
0000b0 66 27 05 3e 8a 51 f8 3d 00 f3 5c 3d 85 3b 07 3e
       0.1300331 0.12124927 0.05394268 0.13206299
0000c0 2a 19 a6 bd 32 00 a8 3d 3f 04 e3 3d 44 3d 08 be
       -0.081102684 0.08203162 0.11084794 -0.13304621
0000d0 6f 3f ad bd 80 67 0f bd 98 fe 87 3d f7 f1 be 3d
       -0.084593646 -0.035010815 0.06640357 0.09323495
0000e0 75 2b ef bd 5d 18 d7 3d cc e8 85 3c 5b 6a 6a bc
       -0.11678211 0.10502694 0.016346358 -0.014307584
0000f0 f1 8b 02 bc c8 26 84 3d de 48 aa 3d d7 7f e3 3c
       -0.007967935 0.064527094 0.083146796 0.02777092
000100 24 13 ac bd e7 59 ba 3c 80 ad ce bd 58 ec c7 bd
       -0.08402088 0.022747947 -0.10091686 -0.09761876
000110 71 36 49 3d 7e 91 f6 39 a7 46 c0 bd a6 58 c5 bd
       0.049124185 0.00047029176 -0.09388476 -0.09636049
000120 1a 4b fc 3d 7e a6 0d 3e e8 ac bc bd e4 ca 19 bd
       0.12319012 0.13833043 -0.09212667 -0.037547007
000130 b7 62 ca 3d a1 a8 91 bc d2 c0 a5 3c 5c 9b 13 bc
       0.098821096 -0.017780604 0.020233545 -0.0090092085
000140 82 34 b8 3d 46 3a cc bd 98 34 ab bd 4c 64 9c 3d
       0.0899439 -0.09972052 -0.08359641 0.076363176
000150 d0 3b bc 3d 8f 75 57 3d aa 1a b4 bc 01 ca 0c bd
       0.09191096 0.052602347 -0.02198537 -0.034372333
000160 a9 26 17 bd c4 d8 63 bd 61 a9 b1 bd dd a3 63 3d
       -0.036902104 -0.055626646 -0.086748846 0.055576194
000170 94 c2 35 bd 6d 9e c6 bd 62 c5 1a 3d 87 82 06 3e
       -0.044375017 -0.09698186 0.037785895 0.1313573
000180 f9 0e f6 3a 89 d7 e9 bd cb 0f b3 3d 5c 59 9b bd
       0.0018772773 -0.11418063 0.08743247 -0.07585403
000190 67 94 ae 3d ba a4 98 bd 57 fa d3 3d 32 79 19 bc
       0.08524399 -0.07453294 0.10350483 -0.009367274
0001a0 67 d0 03 3e 5a 5f 3b 3d 3b e0 f9 3d 1f a4 ad bb
       0.12872468 0.04574523 0.12200972 -0.005299106
0001b0 11 59 3b bd a7 70 0b 3d 41 92 05 3e 87 36 ad bd
       -0.045739237 0.03404298 0.13044073 -0.08457666
0001c0 76 5b 80 3d 41 14 05 3d b4 64 e2 3d de 11 c8 bd
       0.06267445 0.03249002 0.11054364 -0.09769033
0001d0 fe 10 8f bd 92 c5 93 3c fd b9 ea bc 1d d7 60 bd
       -0.06985663 0.018038545 -0.02865314 -0.054892648
0001e0 6c 9a c8 3c 26 b6 b7 3d 20 6f 72 bd 1f d5 f3 3b
       0.024487697 0.08970289 -0.05918801 0.0074411775
0001f0 8a 9b f9 bc fa cf fe bc 72 61 03 bd 84 2c 08 3e
       -0.030469675 -0.03110503 -0.032075353 0.13298231
000200 75 d2 c1 3d 8b fd 00 bb a3 c7 ca bc c4 e5 dd 3d
       0.094639696 -0.0019682373 -0.024753397 0.1083484
000210 44 98 85 bd 9a 32 0f be 94 66 ea bd 79 ed 08 bd
       -0.06523183 -0.13984147 -0.114453465 -0.033429597
000220 8e db 6d bd 80 cd d2 3d 3c 70 be bc 60 3d a1 bc
       -0.05807071 0.10293102 -0.023246877 -0.019682586
000230 bc 91 c9 bd c6 93 f9 3d 15 3e 13 3e 13 a4 cf bd
       -0.0984225 0.12186389 0.14379151 -0.101387165
000240 15 b7 0a 3e 0a 9c fb bc 9f 5d 9f bd c4 10 b3 3c
       0.13546403 -0.030714054 -0.07781529 0.02185858
000250 c9 ae ff bd fb 79 d3 bd 7a ff f9 bc b4 dc cb 3d
       -0.124845095 -0.10326 -0.030517329 0.09954205
000260 23 a8 ef 3d 42 2c ba 3d c8 f8 18 3d a3 8f 92 3c
       0.117019914 0.09090473 0.03734663 0.017890757
000270 78 8b 3e 3d 1d e9 c9 bd 61 33 eb 3d 72 19 09 3e
       0.046519727 -0.09858916 0.11484409 0.13388613
000280 90 ed b0 bd 69 12 f2 bd b7 33 9e ba bf 75 82 bd
       -0.086390615 -0.11819918 -0.0012069856 -0.063701145
000290 70 59 39 bd c7 3f e1 3d 87 d5 07 bd 08 34 10 3e
       -0.04525131 0.10998493 -0.03316262 0.14082348
0002a0 89 5f 25 bd a2 c7 5a 3b d0 d7 c5 3c 39 a4 cd bc
       -0.040374313 0.003338315 0.024150759 -0.025102722
0002b0 62 a4 53 bd f0 8f a8 bd fb 88 84 bd da d7 11 3d
       -0.05167044 -0.08230579 -0.064714395 0.035606243
0002c0 6d cb 6d 3d 39 b2 4d 3d af 6e 65 3d ef 15 35 bd
       0.05805533 0.050218794 0.05601376 -0.04421037
0002d0 e7 7f 10 be cb 89 98 3d 54 34 3c 3d c9 e1 04 be
       -0.14111291 0.07448157 0.04594834 -0.12976755
0002e0 7a 92 f9 3d e4 73 06 bd 84 44 04 be 81 5f c3 bd
       0.12186141 -0.032825366 -0.12916762 -0.095397
0002f0 e8 85 69 bd 94 20 d0 bd 85 ae 41 3d 22 e7 1e bd
       -0.05701247 -0.10162464 0.047285575 -0.038794644
000300 67 90 5c bd b5 33 09 3e 28 32 58 bd 4e 50 9d 3c
       -0.05384865 0.13398631 -0.052782208 0.019203331
000310 e9 8e 80 bd 1a 0c 64 3b 09 8c 74 bd cc 35 88 bd
       -0.06277258 0.0034797252 -0.05970386 -0.06650886
000320 69 8e ac bd 1e ff 0e bd ee a6 ca 3c a5 f7 5a 3d
       -0.084256 -0.034911267 0.024737801 0.05345883
000330 89 65 c8 3d e2 69 58 bd b7 df 8b bd dc 4e c2 3a
       0.09784991 -0.052835353 -0.068297796 0.0014824527
000340 5a 55 04 3e 25 e0 f2 3b c6 45 04 3e b6 ae 0a 3e
       0.12923184 0.007411974 0.12917241 0.1354321
000350 2e ed df 3d ab e6 ff bc fa c4 13 3d ac 9b 6f bd
       0.1093391 -0.03123792 0.036076523 -0.05849807
000360 3c 11 27 3d 26 c5 58 3d e0 bf 84 bd 9e 45 9c bd
       0.04078792 0.05292239 -0.0648191 -0.07630466
000370 ce de 4b bd 42 69 65 3c 1e 19 da bb 3f 94 8b 3d
       -0.04977303 0.014002146 -0.0066558262 0.06815385
000380 a1 19 4a bd 2d 3f cf 3d 6a ba 61 bd d3 d9 77 3d
       -0.049340848 0.10119472 -0.05510942 0.060510468
000390 98 37 ed 3d 0d 76 f7 3d 52 f3 94 bd 5a e0 76 bd
       0.11582869 0.12083063 -0.07272972 -0.060272552
0003a0 77 ac 5e bd 12 59 cb bd 5c 8e 4c bc 33 02 62 bd
       -0.054363694 -0.09929098 -0.012485113 -0.05517788
0003b0 97 bb 87 3d ac 88 fc 3d 45 0b 8a 3d b1 73 a7 3c
       0.06627577 0.123307556 0.06740431 0.020440908
0003c0 7c 23 01 bd 53 70 fe bc d1 25 f1 3d 91 d2 f9 bd
       -0.03152798 -0.03105942 0.11774791 -0.121983655
0003d0 a2 a8 f2 3b bb 5e 0c be fc 79 1f bd 37 59 da bd
       0.0074053565 -0.13708012 -0.038934693 -0.10661548
0003e0 1d 53 01 be 38 2d 09 3d 2b a5 07 bd fa ca f8 3c
       -0.12629361 0.03349039 -0.0331165 0.030370224
0003f0 b4 fb f3 3d e6 bb 28 bd af fa 88 3d 06 c2 73 bd
       0.11913243 -0.04119482 0.06688439 -0.059511207

lstm.bias_hh_l0 f4 [256]
000000 60 f0 d8 3d b7 8e 1a 3e 14 a3 32 bd b1 29 8d bd
       0.10592723 0.15093504 -0.043612555 -0.06892718
000010 50 56 cf 3d 62 42 f3 3d 3b 18 ab 3d 84 7f 4c 3c
       0.10123885 0.11877896 0.08354231 0.012481574
000020 1a 76 32 3d 24 dd 4c 3d e0 83 97 3c 17 1a 82 bc
       0.04356966 0.050015584 0.0184955 -0.015881581
000030 46 ad 64 3d bb 8d f8 3d 0b 56 08 bc 77 f9 8e bd
       0.05582931 0.12136408 -0.0083212955 -0.069811754
000040 dd bc 6f bd 0c 7f 78 3c 09 7b 9f 3d 74 5f 1d 3d
       -0.058529723 0.015167009 0.07787139 0.03842111
000050 eb dd 13 3e 6d 38 a2 3c 2c a2 96 3d 52 0d ba bd
       0.14440124 0.019802297 0.073551506 -0.09084572
000060 ba ce ca 3d fb d5 c3 3d cd e2 53 3d 53 09 63 3d
       0.09902711 0.09562298 0.051729966 0.055428814
000070 49 06 d9 bd a2 0c 10 3e f9 2e a1 3b 99 71 ba bd
       -0.10596902 0.14067319 0.0049189297 -0.09103698
000080 ee 19 5e 3d 4c da 7a 3d a8 7e d4 3d 41 a6 d6 3d
       0.054223947 0.06124334 0.1037572 0.10480929
000090 3a ea e1 3c b1 f5 a7 3d 46 37 e4 3d 9e 23 a1 3d
       0.027577508 0.08201159 0.11143355 0.078681216
0000a0 59 dd 84 3d 1b 17 cb bc 84 f9 80 bd 7d 40 ed 3c
       0.06487531 -0.024791291 -0.06297591 0.028961414
0000b0 ef 67 80 bd 01 a9 c0 3c 15 87 b5 bd dc 15 c3 bd
       -0.06269824 0.023518087 -0.088636555 -0.09525654
0000c0 b1 25 d3 bc f9 24 df bd dd fc ce 3d 6e d3 84 3c
       -0.025774809 -0.10895724 0.101068236 0.016214099
0000d0 36 90 50 bc 99 e7 cb 3d cc 17 8c 3d 79 33 84 3d
       -0.012729695 0.09956283 0.068404764 0.0645513
0000e0 21 91 ad bd 0b 68 ea bd 9d 1e 9c bc bc d0 c4 3d
       -0.08474947 -0.11445626 -0.019057566 0.096101254
0000f0 27 f7 ab bd 36 b9 d5 bd 80 b1 f8 3c ff a5 7d 3d
       -0.0839675 -0.10435717 0.030358076 0.061925884
000100 8e 81 bb 3d 3b 87 61 3d 23 dd 95 bc aa 2a b1 bc
       0.0915557 0.055060606 -0.018293923 -0.02162679
000110 74 5a 51 3b 2b bc e2 3d 47 ad 9a bd 24 65 dd bd
       0.0031944783 0.110710464 -0.07552581 -0.10810307
000120 ef c4 1a bc 44 a8 e2 3c 7a 19 67 3d 67 cc 94 3d
       -0.009446367 0.027668126 0.05642078 0.07265549
000130 b7 2c 13 3e ac a2 15 bd e6 39 93 3d c6 78 69 bd
       0.14372526 -0.03653209 0.071887776 -0.056999944
000140 25 01 70 bd b8 16 4b bd 98 12 0e 3e df 5d 64 bd
       -0.05859484 -0.049582213 0.1387428 -0.055753585
000150 47 08 7b bc 4d 8f a3 3c 76 8f 89 bd a0 7e 81 3d
       -0.015321798 0.019965792 -0.06716816 0.0632298
000160 92 43 95 bd 6f 8b ed 3d 05 c8 ed 3d 1e f4 7d 3d
       -0.07288279 0.115988605 0.11610416 0.062000386
000170 3f 61 cf 3d c9 7c bf 3d c2 24 4d 3d 2a 63 91 3d
       0.1012597 0.09349973 0.050083883 0.07098992
000180 4c cb 37 3c db ff 59 bd 32 33 0d 3d b6 ee cc bd
       0.011217903 -0.05322252 0.03447265 -0.10006468
000190 fb 7b ee bd d1 94 56 3c 83 8a 97 bd 64 37 09 bd
       -0.11644741 0.013097004 -0.07399466 -0.03350009
0001a0 d7 87 8f 3d 0a 21 51 bd 24 6b 14 3e 24 c8 c2 bd
       0.07008331 -0.0510569 0.14493996 -0.0951083
0001b0 4f 32 b4 bd bb b6 7e 3d cd a0 2d 3d 58 4d 49 3d
       -0.08798658 0.062185984 0.04238968 0.049146026
0001c0 e5 00 76 3d 4a 41 af bc 10 29 c5 bd 96 9a 8d 3d
       0.060059447 -0.021393437 -0.09626973 0.069142506
0001d0 af 1c b6 bc 58 8d ae 3d 50 de 66 bd a4 f4 b1 3d
       -0.022230474 0.08523053 -0.056364357 0.086892396
0001e0 c4 be cc 3c 73 84 2d bd ea 4b a8 bb e9 49 09 3e
       0.024993308 -0.04236264 -0.005136003 0.134071
0001f0 4b f8 fb 3d ed ee 0f be d1 ff d9 bc 8e dc a3 bc
       0.123032175 -0.14055987 -0.02661124 -0.02000263
000200 e7 38 6e 3d 51 d6 f4 bd f3 5e 91 bd 4c 63 3e 3d
       0.058159735 -0.1195494 -0.07098188 0.046481416
000210 98 89 e2 3b 98 91 e1 bd bc 6f 15 3d 57 d0 eb 3d
       0.006913375 -0.11014098 0.03648351 0.11514347
000220 59 a0 b5 bc 4c 09 17 3e c1 d4 9c 3c 2d d5 33 3d
       -0.022171186 0.1474964 0.019144418 0.043904472
000230 eb 5f 67 bd 7a 4b f7 3d 4c a2 ef 3d af a4 0a be
       -0.05648796 0.12074943 0.117008775 -0.13539384
000240 83 de 89 3d ce 81 d2 bd 69 d5 c0 bd 9d 79 ba bd
       0.06731894 -0.102786645 -0.09415705 -0.09105227
000250 b3 2c d6 bc 86 8b c0 bc 66 81 4d bd d2 f0 d7 3d
       -0.026144361 -0.02350403 -0.050172232 0.1054398
000260 23 8a 30 3d be a3 de bd c5 ff b3 bd 19 17 ed bd
       0.043100487 -0.10871075 -0.087890185 -0.11576671
000270 a9 18 e1 bc 4a 31 44 3d 1a 6e 51 3d fd 53 e1 bb
       -0.02747758 0.04789857 0.05113039 -0.0068764673
000280 56 20 b0 3d e1 23 c1 3b c3 34 05 3e 4f 4f 10 bd
       0.085999176 0.0058941697 0.13008408 -0.035231885
000290 13 af f6 bd c2 5d 33 bd 3c af b6 bc 1f 9c 10 3e
       -0.120451115 -0.043790586 -0.022300355 0.14122055
0002a0 a3 8f a4 bb c6 6b 77 bd 5f 3c ce 3d 56 cb fd 3d
       -0.0050220056 -0.060405515 0.100701086 0.12392299
0002b0 b1 c7 cc bd bb 68 35 bd ab 13 19 3e 71 a5 0d 3e
       -0.099990256 -0.044289332 0.14948909 0.13832642
0002c0 60 e8 c8 3c 89 71 c5 3d 27 a8 cb 3d dd 8a 02 bb
       0.024524868 0.09640796 0.09944182 -0.0019919195
0002d0 dd 75 9c bd 88 b7 56 3c d7 2f f4 3c d6 bd d7 3d
       -0.07639668 0.013105281 0.029807968 0.10534255
0002e0 5c 82 80 3d 9c 37 82 bd 65 4f af 3d d7 37 93 bd
       0.06274864 -0.06358263 0.08560065 -0.07188385
0002f0 6f 7f a1 bd dc 0b ac 3d 30 ad be 3d 5a 17 d3 3d
       -0.07885634 0.084006995 0.09310377 0.10307188
000300 09 96 72 3c e7 2c af bd a2 b8 e6 3d 68 53 36 3d
       0.014806279 -0.08553486 0.11265685 0.044513136
000310 8f ac 9c 3d a8 c2 06 3e 8b ed 82 3d d6 58 ca 3d
       0.076501004 0.13160193 0.06392964 0.09880225
000320 21 ba c2 3b 70 01 e3 3d f7 fd d5 3d 3b 3f e6 3d
       0.0059425985 0.110842586 0.104488306 0.11242529
000330 fc 04 8a 3d b5 43 8c 3d 27 c1 f7 3b 04 e4 81 bc
       0.06739232 0.068488516 0.0075608674 -0.015855797
000340 ab be 5d bd 04 6f 9d 3d ae 6f ae bc 08 09 fe 3d
       -0.054136913 0.0768719 -0.021293487 0.12404066
000350 0b 0c 14 3d b5 83 51 bd 56 b9 20 bd b6 f2 fc 3a
       0.036144298 -0.051150996 -0.03923925 0.0019298408
000360 3a 28 52 bd fa 64 ae bc fb a0 b9 bc 62 05 93 bd
       -0.051307894 -0.021288384 -0.02265977 -0.07178761
000370 66 73 02 3e a3 da fa bc 40 6d fc 3d d7 fa 05 3e
       0.12739334 -0.030621832 0.12325525 0.13083969
000380 3f ed 9c 3d ab 73 c6 3d 32 d9 56 3d 08 9d fa bd
       0.076624386 0.09690031 0.052453227 -0.122369826
000390 2e 97 82 bd 01 8b f7 3c d3 01 0b 3c 2c c4 09 3d
       -0.063764915 0.03021765 0.008484322 0.03363435
0003a0 a7 b7 76 bd f4 c6 b9 bd 4e e9 76 3b e5 bc 2c 3d
       -0.06023374 -0.090711504 0.0037675682 0.04217233
0003b0 bf e3 92 3d a5 6a 00 3b c9 e3 b7 3d eb b1 9b bd
       0.07172345 0.0019594815 0.089789934 -0.076022945
0003c0 85 fe 91 bd 4e 5e 50 3d 1e 52 f2 3d b1 31 af bd
       -0.07128624 0.050871186 0.11832069 -0.085544
0003d0 72 f9 4c bd 3c be d8 3c 91 a5 f8 3b 8f f7 e0 bd
       -0.050042577 0.026457898 0.0075880964 -0.10984718
0003e0 5b 0e d6 bd 75 72 ea bd 89 15 30 bc 36 88 74 3b
       -0.10451957 -0.11447612 -0.010747322 0.0037312633
0003f0 8c c4 89 bc 91 13 46 bd 58 43 96 bd 93 91 9b 3d
       -0.016817354 -0.048358504 -0.073370636 0.075961255

lstm.weight_ih_l1 f4 [256, 64]
000000 f8 5e 02 3e 9f 9e 8e bc 52 45 88 3d 77 06 10 3e
       0.1273154 -0.01740962 0.06653847 0.14064966
000010 a1 b4 48 bd af bf b2 bc 96 fd 97 bd 44 6a 50 bd
       -0.049000386 -0.021819917 -0.074214146 -0.050882593
000020 19 0f b5 ba 0e f7 98 bc d2 d9 04 be 41 cd 0a 3e
       -0.0013813704 -0.018672492 -0.12973717 0.1355486
000030 fc 01 14 be e6 4a db 3d a9 3a 3e 3d 53 19 51 3c
       -0.14453882 0.10707645 0.04644266 0.012762385
000040 1e 23 17 3e 89 2c 5b 3d 72 f5 ba 3d 7c e9 a6 3c
       0.1475949 0.05350927 0.09128846 0.020375006
000050 22 82 a1 bd 36 f5 ad bc f6 17 b6 bd da 31 49 bd
       -0.07886149 -0.02123509 -0.08891289 -0.049119808
000060 43 ae e1 3c df 78 a0 bd b0 6b c0 bc 50 a3 44 bd
       0.027548915 -0.07835554 -0.02348885 -0.04800731
000070 81 36 88 bd 43 c1 5c bc dc 1d 5f bd 82 c5 6a bc
       -0.06651021 -0.013473812 -0.054471835 -0.014329316
000080 3a ea 37 bd ab 53 d4 3d 05 68 ab bc 15 1c c1 bd
       -0.04490111 0.10367521 -0.020923624 -0.09429184
000090 46 2e 58 bd 21 4d b7 3d b3 56 bf 3c ae 5d 0e 3e
       -0.052778505 0.08950258 0.023356771 0.13902923
0000a0 27 a6 f1 bc 95 91 7c 3c 54 94 7a bd c8 ef 00 3d
       -0.029498173 0.015415569 -0.061176613 0.031478673
0000b0 18 a1 ae 3c aa a9 89 bd aa 55 39 3c 97 74 c6 3c
       0.02131705 -0.06721814 0.011311928 0.024225516
0000c0 47 c9 5b bd ba b9 94 bc 11 83 c3 bd 28 c2 8a bd
       -0.05365875 -0.018154968 -0.09546483 -0.067753136
0000d0 27 0c f9 bc c8 56 88 b9 ba 73 70 37 74 75 0f bd
       -0.030401303 -0.00026004598 1.4332059e-05 -0.03502412
0000e0 48 8d bd 3c 7e 9b c0 3d 3f f5 bd bc 3f 20 5f 3d
       0.023138657 0.09404658 -0.023188232 0.05447411
0000f0 98 3d 8a bd 24 1c a8 3c 8d b0 43 3d 7e 47 10 3d
       -0.06750029 0.020521231 0.047775794 0.03522443
000100 eb cc 62 bd 36 6f 1c 3d b9 3b 45 3d 76 b4 89 bd
       -0.055371206 0.038191997 0.04815266 -0.06723873
000110 45 cd a6 bd 2a f6 87 bd 92 02 ca bd 89 f8 9c bd
       -0.08144621 -0.06638749 -0.098637715 -0.07664592
000120 db e5 2d 3c 1b cd 49 bd de 0c d0 bd 9b 7c 10 3e
       0.010613884 -0.04926787 -0.10158704 0.14110033
000130 c2 f8 ec 3c da aa 19 3e 09 a8 e9 3d 44 81 f4 bd
       0.02892721 0.15006581 0.11409003 -0.11938718
000140 9c bd 0d 3e 37 a0 a4 bb 53 30 7c 3c b3 08 01 be
       0.13841861 -0.005023982 0.015392381 -0.12600975
000150 27 5e 63 bc 89 ef 71 3d ca 9a 30 bd 7a 56 3e 3d
       -0.013877428 0.05906633 -0.04311637 0.04646919
000160 9c b1 1f bd fc 71 1c 3d d9 a1 9c bd a2 8b aa 3c
       -0.03898774 0.03819464 -0.076480575 0.020818535
000170 5b 31 8d bd 49 91 60 bc 16 e5 19 3e eb 7d 0d bd
       -0.068941794 -0.013706514 0.15028796 -0.034543913
000180 98 79 72 bd 77 89 a7 3d 8d 8c 89 bd 36 24 c5 3c
       -0.059197992 0.08180516 -0.06716261 0.024065118
000190 ba 9a ff bd aa 81 7f bd fb 8f ca bd b1 d1 82 3d
       -0.124806836 -0.062379517 -0.09890743 0.06387652
0001a0 a2 18 ad bc 00 53 eb bd 72 9f b4 bd 67 4d 16 3d
       -0.02112991 -0.1149044 -0.08819474 0.03669491
0001b0 56 14 67 3d 68 cc a3 bd c4 fd 6b 3d 9d d8 07 3e
       0.05641588 -0.07997972 0.057615057 0.13266225
0001c0 59 3f fd 3d 36 fb e3 3d f0 34 96 3d e6 9a 2a 3d
       0.12365598 0.11131899 0.07334316 0.04165163
0001d0 9d dc 12 be 37 15 b6 bd c7 61 46 bd 32 51 a6 3d
       -0.1434197 -0.08890765 -0.04843309 0.081209555
0001e0 53 9c 10 3e aa 80 08 3e be 40 76 bd 25 30 15 be
       0.14122133 0.13330331 -0.060120337 -0.14569147
0001f0 87 e4 fa bd 2d be 8c 3d 04 29 82 3d ee cc 14 3e
       -0.122506194 0.06872211 0.06355479 0.145313
000200 67 6a ca 3c 7f 9d 2d bd f1 a8 09 be 81 e9 4a bd
       0.02470894 -0.042386528 -0.13443352 -0.049539093
000210 4e b9 2c 3d 52 3f c0 3c 39 aa 5d bd b3 e3 aa bc
       0.042168908 0.023467693 -0.054117415 -0.020860529
000220 6c 71 a4 bd a0 6e 69 bc 4d f4 c2 bd fd 95 d9 bc
       -0.08029446 -0.014247566 -0.09519253 -0.026560778
000230 60 c9 1d 3d 58 c4 b1 bd 3a 0f 25 bd 8d 3f 9f bd
       0.038522124 -0.08680028 -0.040297724 -0.07775793
000240 1f 1a aa bb d9 41 22 3d 13 21 45 bd 52 da aa 3d
       -0.005191102 0.03961358 -0.048127245 0.083424225
000250 c9 3b 93 bd 08 bf ba 3d 22 f2 92 3d b8 40 35 bd
       -0.071891375 0.091184676 0.071750894 -0.044251174
000260 9b 5a 85 3d 90 63 c8 3d 5a b3 e7 bc 45 d8 0d 3d
       0.06511422 0.09784615 -0.028283764 0.03463008
000270 f1 2c e6 3d b4 a5 ed 3d 06 30 47 bc 4e 6f 96 3d
       0.11239041 0.11603871 -0.012157446 0.073454484
000280 d2 f9 a6 3d 57 77 b3 3d 35 8c dd bc 1c 22 0a be
       0.08153118 0.08762997 -0.027044395 -0.13489574
000290 27 c5 71 3d d7 f2 1b bc fd 02 2e bd e3 44 ee bd
       0.05902591 -0.009518347 -0.04248332 -0.11634233
0002a0 a9 77 c0 bd 46 66 52 bd d5 b9 cc bc 00 e6 ab bd
       -0.09397823 -0.051367067 -0.024990955 -0.083934784
0002b0 93 44 84 bd dc c8 c3 bc cf cf a5 3b 1f 45 08 3d
       -0.06458392 -0.023899488 0.005060173 0.033269044
0002c0 a4 af 9d 3d 5e f6 52 3d d3 32 93 bd e9 b0 a7 3d
       0.076995164 0.051504485 -0.07187428 0.0818804
0002d0 05 d9 bb 3d 70 61 da 3d 4f bc 24 3d fd 67 ee 3d
       0.091722526 0.10663116 0.040218648 0.11640928
0002e0 44 ea 17 3d c3 a9 aa 3c c7 70 dc bd 50 f2 2d bc
       0.037088647 0.020832902 -0.10763698 -0.010616854
0002f0 77 e5 8a 3d 74 8c 94 3d 28 ca 98 bd 57 c7 ec 3b
       0.06782048 0.07253352 -0.07460433 0.0072259116
000300 cd 44 95 3d 8d 67 6e bd a0 f9 e3 3c b9 f0 85 bc
       0.07288513 -0.058204222 0.027828991 -0.016350137
000310 8d 15 2f bc 6e 95 c0 3d e9 07 ce 3d 50 f9 a1 bd
       -0.01068629 0.094035015 0.100601025 -0.07908881
000320 ef 01 41 3d 7c 30 17 be 65 13 96 3d 4c 64 9d bc
       0.047120985 -0.14764589 0.07327918 -0.019212864
000330 29 cc 83 3c 9f 5b 87 3d 7b 09 00 3d c0 5d 8b 3b
       0.016088562 0.06609272 0.03125904 0.004253119
000340 5f 34 79 bd 48 c3 d8 3d 5d 5d d2 3d 9b cd 98 39
       -0.06084096 0.10584122 0.10271714 0.00029144887
000350 bf c7 85 3d 22 74 b5 bd b6 d7 0e 3e 7a 1b 9a bd
       0.06532239 -0.08860041 0.13949475 -0.07524772
000360 49 67 fd bd 6a c3 03 3e 66 2e d0 bc 3d ed 1e 3e
       -0.12373216 0.12867513 -0.02541275 0.15520187
000370 5d 23 73 3d 19 f7 27 bd a1 3c 1e bc 55 ea 8e 3d
       0.059359897 -0.041007135 -0.00965801 0.06978289
000380 97 22 ee bd d7 24 31 3c 61 12 15 bd d7 a3 d2 bd
       -0.11627691 0.010812006 -0.03639448 -0.10285156
000390 c1 d0 7f 3d e6 99 ad 3d c7 b7 c4 3d 10 76 c9 3c
       0.062454943 0.084766194 0.09605365 0.02459243
0003a0 37 3f d8 3c 4f 3d e7 bc d7 96 f0 bb 92 b1 a5 bc
       0.02639733 -0.028227476 -0.0073422003 -0.020226274
0003b0 41 81 e1 3d c0 e9 4d bd 9b 10 5f bd e5 94 fd bd
       0.11010981 -0.05027175 -0.054459196 -0.12381915
0003c0 ac 7a 55 3d 7e b2 2c 3d a3 0e 0d be f8 c3 0d 3d
       0.052118942 0.04216241 -0.13775115 0.03461072
0003d0 d7 cf 01 3e 49 bb a0 bc 46 72 de 3d 16 ed bd bc
       0.12676941 -0.019620555 0.1086164 -0.02318434
0003e0 77 e9 b5 3d 54 e2 b4 3b a0 37 ea 3d 1a 27 9a bd
       0.088824205 0.0055201445 0.11436391 -0.07526989
0003f0 cc 08 1e 3e 72 97 04 3d 0e 2f 4a 3d dd de c6 3c
       0.15433043 0.032370992 0.04936128 0.024276191
