trajectory_model.pth (torch, 246350 bytes, 13 tensors)

conv1.weight f4 [16, 1, 3]
00000000: 1ada ec3e d719 003f a1dd eabd 3d1d 123f
00000010: 6a1c b0bd 0cc1 203e 298e 82be 1ce1 bb3e
00000020: 8e72 093f 51b0 bbbe f598 123f 2538 383e
00000030: d6b3 eb3e 6292 e53d 8fba 9e3e d758 82bd
00000040: eb02 ed3e df95 d23d 51ad 5bbe 0aef 4e3e
00000050: 1cb2 6dbe 6189 ccbd 3890 88be 27d0 b33e
00000060: 667c bebe 668b 3abe cf53 9ebd f7bc b1be
00000070: 2033 5f3d 0afb 11bf e6b7 073f 80a2 f6be
00000080: f08e e83e b8c6 c43d acf7 3fbe 06ab b63e
00000090: 8a39 e03d f8d1 f83e 111e a93d 6273 3abe
000000a0: fcd8 1e3e b652 20be 4f86 7a3e 5e63 043f
000000b0: 13bc ab3e 8d3e 84be 8c56 aa3e a659 d23d
0.46260148 0.5003943 -0.114680536 0.57075864 -0.085991696 0.15698642 -0.25499085 0.36695182
0.5369042 -0.36657956 0.57264644 0.17990167 0.4603564 0.11209561 0.31001708 -0.06364601
0.4629129 0.10282492 -0.21452834 0.20208374 -0.23212475 -0.099871404 -0.2667253 0.35119745
-0.37204283 -0.18217239 -0.07730829 -0.3471448 0.054492116 -0.5702368 0.5301498 -0.48170853
0.45421553 0.09608215 -0.18746823 0.35677356 0.10948475 0.48597693 0.08257688 -0.18208078
0.1551246 -0.15656552 0.24465297 0.5171412 0.33541927 -0.25828972 0.33269155 0.10271005

conv1.bias f4 [16]
00000000: 9755 973e 031d 9dbe 4ef3 0dbf 96a8 15be
00000010: 8727 d0be aa23 f83e f822 813e c63e 733e
00000020: a3d8 9c3e c08d 24bc 981b e33e ba07 d2be
00000030: 983d 1e3d dbc2 c9be 6cf8 243e ec42 4cbe
0.29557487 -0.30686197 -0.5544938 -0.14615092 -0.40655157 0.4846471 0.25221992 0.23754415
0.3063403 -0.010043561 0.4435699 -0.4102152 0.03863296 -0.39406475 0.1611039 -0.19947404

conv2.weight f4 [32, 16, 3]
00000000: c427 353d 8458 f6bc c82b f53d 6434 afbd
00000010: 184c b0bd d14e b0bd 6cf0 043e 3005 453d
00000020: e638 0e3e 54f4 f3bd d799 12be f444 e7bd
00000030: 61d9 c6bd 6476 6f3d 64b2 533d c09f f53d
00000040: 35a8 98bd 2b84 c9bd 36d7 9c3d e8f7 6ebd
00000050: a068 b33d 324b 0cbd 4419 a93d a1ac e5bd
00000060: 182d 95bd b83e 343d 98f8 f93c babb 16bd
00000070: 3a33 b03d 30f4 c83d 195d d6bd 2fd0 9dbd
00000080: 1c56 073e 0a7e 47bd aa97 51bd 1903 0fbe
00000090: 8248 a9bd 84af 133d 0812 9cbc 0693 d6bd
000000a0: 40e2 5d3b d2eb c9bd f4c9 fabd 18c7 a2bd
000000b0: 995b 01be ce38 bcbd 6ebe 133e 0854 df3c
000000c0: fa16 6a3d e860 f9bd d529 acbd a334 cbbc
000000d0: 0f9a 363d 660b e1bd de61 febb daf1 23bd
000000e0: 88f8 3f3d 1bf6 79bc b51a 0f3d a5b4 5bbd
000000f0: a297 9dbd 5bfa 82bd d45a 01bd 3702 d3bd
00000100: c0e4 063e 9db4 9fbc 2227 ab3d 808e f13c
00000110: 5277 22be 8aa2 de3d 82b5 07bd a098 44bd
00000120: ca75 16be 1a60 30be 9430 963c 3e25 01bd
00000130: a02b 663d 4297 f2bd 6805 f23d ef66 c4bd
00000140: c163 80bc 68f8 f63c 129b 983d c4a4 ee3d
00000150: 0944 153e 3b78 cdbd b19c 463d 184b 7ebd
00000160: 1893 81bc 9441 ddbd 76c8 143e 388c bdbd
00000170: 4412 b63d b8ad 2d3d b121 263d c7cf acbd
00000180: e0c7 113e 1aad 2f3d ef2a f43c ec6d c9bd
00000190: 8f56 b73d a1f9 f63b bdf0 d43b 3600 483e
000001a0: d5e4 d03d cb5b 13bd 65a1 b7bc 2bef 293d
000001b0: b8c7 dc3d fb49 1dbc 60cb 60bd 57d1 29bd
000001c0: 5683 ccbd b020 733d 6844 793d 0068 3fbe
000001d0: a636 82bb f673 a13d 8560 f93c 74e9 43bd
000001e0: f0e1 693d bd24 6d3d 8790 0d3d 7cc6 cfbc
000001f0: 628d 1cbd c0fd 7c3c f063 8ebc 08ee 0ebd
00000200: 59b5 cc3d 980a fe3d 901c 6abc 8c5e 04bd
00000210: 08ac 853c 5b6f b73b 6538 483d 0cad 253d
00000220: eb3d 06be 762d 5abd cafd 093e 8035 8e3d
00000230: 3f0c c23b f720 bcbd 97ea c1bd 98eb 0abe
00000240: 0eb6 40bd 28a7 473d ac7b bc3d b27a 883d
00000250: fea5 02be c6c3 b1bd c09a babc d2f9 0e3e
00000260: 800b ab3c f01a 19bd 5897 743d 022e 61bd
00000270: b854 bfbd d2c1 d73d 4f69 86bd d808 edbc
00000280: a208 13be b0d6 c53d 98f5 df3d d476 573d
00000290: d81d cebd 12df 11be 3315 f0bd 746e dc3d
000002a0: beeb 8d3d 64c0 f83d 90db 9a3d 38a1 153d
000002b0: 8043 b9ba e1ce e0bd c443 fdbd 003f 0abe
000002c0: 7c04 723d bc21 91bd b8f6 edbc 0c1f aabd
000002d0: ac76 d7bc 520e d0bd e026 c1bd 101c 443d
000002e0: 5ab4 2fbd 1c7d b63d 0eaa 3dbd 4cd8 d8bd
000002f0: ac9f d0bc ff4a 8fbd ecdf 34bd e0b4 0cbe
00000300: f845 ba3d 66ef b8bd b270 a93d 67de a43d
00000310: 3df1 f13d f199 c0bd 0627 073e 69a1 17bd
00000320: 1778 a63d ee77 2b3e fb19 283c 512f fa3c
00000330: e5b7 8ebc f46c d6bd 89d8 af3d ad04 0abe
00000340: 25e7 c83d 338a ee3d f0ad c03d f56d 9cbd
00000350: c256 19be e699 203d 7f1f b13d 4056 0cbe
00000360: 9bce b1bd d509 10be 217c 88bd fd7f 91bd
00000370: 86aa 71bd 0eaf 3bbd eb9e 03be b519 023e
00000380: 9daa 043e ec7b b9bc d8a7 86bc 8048 71bd
00000390: fce9 f2bd 2fd4 03be 9cdd 853d c54c a2bd
000003a0: 5d09 bebd e082 38bc 4c8a 16bd 1efb 10bd
000003b0: a886 823c ed40 17bd f67c 3ebd 6e74 9abd
000003c0: a32c a6bd a406 213e 5e71 10bd b728 ce3d
000003d0: 64ed 973c 7223 543d 0144 683e a090 0b3e
000003e0: ff8c 61bd bc92 de3d 36c6 3c3e ac00 b03d
000003f0: 1e76 213e a73a 573e 9677 923c 79ce 733d
0.044227377 -0.030071504 0.11971241 -0.085549146 -0.08608264 -0.08608783 0.12982339 0.04810065
0.13888893 -0.11911836 -0.14316498 -0.11292449 -0.097094305 0.058462515 0.0516838 0.119933605
-0.07453958 -0.09839662 0.07658236 -0.05834189 0.0876019 -0.0342514 0.08256772 -0.11214567
-0.072839916 0.044005126 0.030514047 -0.036800124 0.08603521 0.098122 -0.10466976 -0.077057235
0.13216442 -0.048704185 -0.05117003 -0.13966025 -0.08265783 0.036056057 -0.019051567 -0.10477261
0.003385678 -0.09859432 -0.12245551 -0.0794813 -0.12632598 -0.09190522 0.14428112 0.027261749
0.05715082 -0.121766865 -0.08406416 -0.024805373 0.044580515 -0.10988502 -0.0077631315 -0.04002557
0.046867877 -0.01525643 0.03493758 -0.053639073 -0.07694937 -0.06395408 -0.03158076 -0.10303157
0.13173199 -0.019495303 0.08357073 0.029486895 -0.1586583 0.108708456 -0.033132084 -0.047997117
-0.1469337 -0.1722416 0.01833371 -0.031529658 0.056193948 -0.118452564 0.118174374 -0.095899455
-0.015672566 0.030147746 0.07451452 0.1165252 0.14576735 -0.10032698 0.048489276 -0.062083334
-0.01581721 -0.10803524 0.14529595 -0.0925526 0.08890203 0.042402 0.040559474 -0.08438068
0.14236403 0.042889692 0.029805629 -0.09835419 0.089520566 0.0075370823 0.006498425 0.1953133
0.10199896 -0.035976212 -0.022415826 0.041487854 0.10780281 -0.009600158 -0.054881454 -0.041459408
-0.09985988 0.059357345 0.060856253 -0.18692017 -0.0039737998 0.07883446 0.030441532 -0.04783006
0.057100236 0.057896364 0.03456166 -0.0253632 -0.03822077 0.015441358 -0.017381638 -0.034894973
0.09995527 0.12404364 -0.014289036 -0.03231673 0.016317382 0.0055979914 0.048881907 0.040448233
-0.13109557 -0.05326601 0.13475719 0.06943798 0.00592187 -0.09185975 -0.094685726 -0.13566434
-0.04704862 0.048743397 0.09203276 0.06664027 -0.12758633 -0.08679919 -0.022778869 0.13962486
0.020879507 -0.037379205 0.059714645 -0.054975517 -0.09342331 0.10535015 -0.06563055 -0.028934881
-0.14358762 0.09660089 0.10935515 0.052603558 -0.10064286 -0.14245251 -0.117227934 0.10763255
0.0692973 0.121460706 0.075614095 0.036530703 -0.0014134496 -0.10976959 -0.12366441 -0.13500595
0.059086308 -0.070865124 -0.029048309 -0.08306703 -0.026301704 -0.101589814 -0.09431243 0.047878325
-0.042896606 0.089105815 -0.046304755 -0.1058813 -0.025466762 -0.06996726 -0.04415886 -0.13740873
0.09095377 -0.09030037 0.08273448 0.080502324 0.11813591 -0.09404362 0.1319848 -0.037019167
0.08128374 0.16744968 0.0102601005 0.03054014 -0.017421672 -0.1047 0.08586223 -0.13478346
0.09809712 0.11647453 0.09408176 -0.0763816 -0.14974502 0.03920927 0.086485855 -0.13704777
-0.08681985 -0.1406625 -0.06664301 -0.0710449 -0.059000514 -0.045821242 -0.12853591 0.12705119
0.12955709 -0.022642098 -0.016437456 -0.058907032 -0.11861035 -0.1287391 0.06536409 -0.07924799
-0.0927913 -0.011261672 -0.036752984 -0.035395734 0.01593335 -0.036927152 -0.04650589 -0.075417385
-0.081139825 0.1572519 -0.035264365 0.100663595 0.018545814 0.051791616 0.22682191 0.13629389
-0.055066105 0.10867831 0.18434986 0.08593878 0.15767714 0.21018468 0.017879289 0.05952308

conv2.bias f4 [32]
00000000: b41b 04be 869b a33d 43df 02be 28e8 8fbc
00000010: 1882 673c 071f f33d b7eb 14bd 379d 1c3d
00000020: f9a0 cb3b 9ab3 b83d 7048 703c d4c5 153e
00000030: 7407 b9bd 026b cdbd 81e6 023e 39c4 d1bd
00000040: c002 163d 1cb8 50bc 7168 083e 9e0f 51bd
00000050: 4cab f0bd f0ac a7bc 1662 a53d 144a 6a3d
00000060: e6bf 013e 4187 01bd a24a 953d 5816 0bbe
00000070: 9f0e 6b3d 2c46 343d 146a bc3d 1907 9fbd
-0.12901193 0.07988648 -0.1278048 -0.017566755 0.014130138 0.11871152 -0.036357608 0.03823587
0.006214258 0.09018631 0.014665708 0.14626247 -0.09034625 -0.10030176 0.12783243 -0.102425046
0.036623716 -0.012739208 0.13321091 -0.051040284 -0.11751422 -0.020468205 0.08075349 0.057199553
0.1267086 -0.03162313 0.07289626 -0.13582742 0.05738699 0.044012234 0.0919992 -0.07765026

lstm.weight_ih_l0 f4 [256, 32]
00000000: 64b1 08bd ad1d 7b3c 4dfd cbbd a4a4 cbbd
00000010: 12f0 04be 9b28 ffbb dd53 833d 0284 a33c
00000020: ae8a 07bb 5c69 053d eee1 b7bd 1afa de3d
00000030: c662 febc 7883 7dbd 7dc4 dc3d 5cba dcbd
00000040: 34b6 3f3e c3f3 f5bd 0e2b 9abc 39d5 7dbd
00000050: f467 de3c 9d84 a7bd 5a7b 8c3d 4cbc cfbd
00000060: 1b6d 853d 2f22 d8bd 0aaf 6b3d 0496 57bd
00000070: dc7c f7bb 0aab 0dbd ebe9 933d 061f 003d
00000080: 9c96 e1bd 4507 11bc 05f1 c8bd 3060 bf3d
00000090: 3446 233c f477 32bd 1e9d 95bd 01db fb3c
000000a0: 5ef4 a9bd 2fb7 383d 8624 603d dbba 6b3c
000000b0: ecc0 053d 2c18 e0bd 2a25 b83d 89d5 50bd
000000c0: 3837 693d 3042 d9bc a1c9 9a3d 54cd af3d
000000d0: a3de 033c fd1e 2f3d 82e2 04be 00d0 9a39
000000e0: 1a6a 00be 8f56 003d c2dd d6bd ac7a 36bd
000000f0: ecf0 a33d c949 d83d 9b0c b6bd 8438 a4bd
00000100: 00a3 7d3c f02f 423d 7bb0 833a 84e4 1fbd
00000110: d4c4 a1bd 1f8b a83d 3c92 1f3e 986e 24bd
00000120: 98fb 993d 2583 9e3d 5905 f43d 2f1d 79bd
00000130: 0e04 813b 3a15 bc3d 38d2 a13d 3de1 103e
00000140: dcf0 b63d aff1 8b3d 7a7a cc3d f98b 81bd
00000150: d30d 3a3d aa3f 27bc 0fd1 c73d 00f4 65bd
00000160: 2328 af3c fd51 ce3d 1a0a d3bd 1e28 d8bd
00000170: 0e43 92bd f5d7 c83d 69eb d03d 0425 8ebd
00000180: 8843 c33c 29b0 cabd ac9e 72bd 64c7 dc3d
00000190: 412c 373d 0a96 31bd d733 133c a3c2 c53c
000001a0: 8ea3 313d 435b 4ebd 0596 9dbd 4226 053e
000001b0: e198 893c 244c 563d dce8 41bd d178 6f3d
000001c0: a2b9 893e e2b9 983d 8cfc c73c 9e32 d23d
000001d0: 1ee9 553a 894b 78bb 0832 e83d 3ece f83d
000001e0: eb9e 66bd e781 ba3d 8036 2e3d 903f 65bc
000001f0: 801c de3d 5039 89bd 1976 a53d 7f32 eb3d
00000200: 5290 b0bd 2f6d aebd ba35 13be 1048 b8bc
00000210: 9751 07be a701 44bd 01f7 043d e322 903d
00000220: 229b 763d 82d8 523d d005 0b3d ccb5 79bb
00000230: 4043 cbbd 60cb a93b dc17 f33d 5633 5abc
00000240: d46d 2c3d f02a d3bd 6235 9fbd 38cd d4bd
00000250: 1469 ad3d 20b9 03bd a4b1 04be d0b2 5b3c
00000260: 0269 f4bb c185 eabc d142 f33c e6ab 893d
00000270: 6710 ebbd acbf e4bd 95b7 b9bc e564 0abe
00000280: 448a e8bd 2aed bd3d 7e36 7dbc bc20 7dbd
00000290: 2531 53bd d513 f4bd a69b 9f3d 34c0 0abd
000002a0: 7a70 9bbd a56c d3bd bfa0 863d a73c 1dbd
000002b0: 1c29 57bc b871 05bd 6e27 77bd f81b 7a3c
000002c0: d9e2 943e 2dfb a1bd 9e65 a8bb e0b3 d5bd
000002d0: 43f7 86bd 5034 bf3d acee cfbb 149c f63d
000002e0: bd6c fbbc 511a 9ebd 1719 acbd 84e5 e23d
000002f0: 5a63 d4bd 91a2 6b3d cb05 be3c 44e3 fe3c
00000300: 0872 903d ff9d 3cbd 1e93 983d 02f6 cbbd
00000310: 83c6 3fbd 2312 f03d 3b3e 843d 9535 b3bc
00000320: 6e1c 20bd fd28 a3bd 3de5 943d b4fa 8f3d
00000330: 3295 8abb 582b f23c 2eea bc3d 18da 87bd
00000340: cff5 e03d 2704 a83d 17ea 7c3d 6c9a 92bd
00000350: 6039 05be 83af c93c e885 803d f896 f43c
00000360: 3fe2 ae3d 50d2 ccbd 635e 703d 6026 9fbd
00000370: d326 803d 7100 b33d 971a 1f3d b70d cb3d
00000380: 28be a8bd 8d7a ddbd 8ff2 c4bd 90b9 a03d
00000390: e42b 4f3d 3684 59bd 889b d03d eb6b 0c3e
000003a0: 9d94 dcbd e26d e13d f5f2 263d 93d0 6ebd
000003b0: ba58 e63d c2d4 e73d 59bb 573d 579e f53d
000003c0: 8f9b 623d 0216 2b3d a7f1 bfbd 2361 343d
000003d0: 0b3b 86bd 0db9 7f3d 079f 2e3d 000a 383b
000003e0: b98c 8fbd 8dce 41bd 769b d93d 905a 793d
000003f0: 1c7c 6a3d 2060 8abc 89ac 26ba 721b 4abc
-0.033372298 0.0153268995 -0.09960423 -0.09943512 -0.12982205 -0.007786823 0.0641248 0.019960407
-0.0020682025 0.03257118 -0.089786395 0.10887547 -0.031052958 -0.061892956 0.10779665 -0.10777733
0.18721849 -0.120093845 -0.018819358 -0.061970923 0.027149178 -0.08179591 0.06859465 -0.10143337
0.06514951 -0.10553395 0.057539977 -0.0526333 -0.007552726 -0.034586944 0.07222351 0.031279586
-0.110150546 -0.008851831 -0.09811596 0.09344518 0.009965468 -0.043571427 -0.07305358 0.030744078
-0.082985625 0.045096572 0.05472233 0.0143878115 0.032654688 -0.109421104 0.089914635 -0.050984893
0.056937426 -0.026520818 0.07557989 0.08584085 0.008048686 0.042754162 -0.12977031 0.0002952814
-0.12540475 0.03133255 -0.10491516 -0.044550583 0.080049366 0.105609484 -0.08889123 -0.08018592
0.015480757 0.047408998 0.0010047102 -0.03903629 -0.0789887 0.0822966 0.15583128 -0.040144533
0.07518691 0.077398576 0.119150825 -0.060818847 0.003937251 0.09183736 0.07901424 0.14148422
0.08932659 0.06833207 0.09984298 -0.06325526 0.04542334 -0.01020805 0.09756672 -0.0561409
0.021381443 0.10074232 -0.10304661 -0.10554527 -0.07141696 0.098068155 0.10201151 -0.06940654
0.023835912 -0.09896881 -0.059233353 0.10780218 0.04471994 -0.04335598 0.008984528 0.024140662
0.04336887 -0.050380003 -0.076946296 0.13002875 0.016796531 0.052318707 -0.047341213 0.05846483
0.2689944 0.07457329 0.024412416 0.10263561 0.00081600423 -0.003788682 0.11337668 0.121487126
-0.0563039 0.09106808 0.042532444 -0.013992205 0.1084528 -0.067003846 0.08079166 0.11484241
-0.08621277 -0.08516919 -0.14375964 -0.0224953 -0.13214718 -0.04785314 0.032462124 0.07037904
0.06020654 0.05147601 0.03394109 -0.0038102744 -0.09924936 0.005181715 0.11869785 -0.0133179035
0.042096928 -0.10310924 -0.07773854 -0.10390705 0.08467308 -0.03215897 -0.1295839 0.013409331
-0.007458807 -0.028628232 0.029694946 0.0672224 -0.11477738 -0.11169371 -0.022670547 -0.1351505
-0.11354497 0.09273751 -0.0154548865 -0.061798796 -0.05156054 -0.11917845 0.077933595 -0.033874705
-0.075898126 -0.10323457 0.06573629 -0.03838792 -0.01313236 -0.032579154 -0.060340337 0.015265457
0.2907932 -0.07909236 -0.005139067 -0.10434699 -0.0659013 0.0933615 -0.0063455906 0.12041488
-0.030691499 -0.07719863 -0.08403223 0.11078933 -0.10370512 0.057528082 0.023196122 0.031114228
0.07053 -0.046049114 0.074499354 -0.09959032 -0.046820175 0.11722209 0.06457182 -0.021876136
-0.039089613 -0.07966802 0.07270286 0.0703024 -0.0042292112 0.029561684 0.09224354 -0.06633395
0.10984384 0.08203917 0.061746683 -0.0715836 -0.13010168 0.024619823 0.062755406 0.029857144
0.08539247 -0.100010514 0.058683764 -0.07770991 0.06257405 0.087403186 0.038843717 0.09914725
-0.082393944 -0.1081439 -0.09616577 0.07847893 0.050578967 -0.0531046 0.10185915 0.13713042
-0.10770533 0.110072866 0.040759046 -0.05830438 0.11247392 0.11319877 0.052668903 0.119930916
0.055324133 0.041769035 -0.093722634 0.04403795 -0.0655423 0.062432338 0.04263213 0.0028082132
-0.070092626 -0.047316123 0.10625355 0.060877383 0.057247266 -0.01689154 -0.0006358107 -0.012335645

lstm.weight_hh_l0 f4 [256, 64]
00000000: ca8a 6d3d cb32 54bb f14a 02be 7833 123d
00000010: 63e8 693c 60c6 7bbd 22b1 583d aa09 cbbc
00000020: 1ed3 8b3d c0ef 563b 8eae 96bd 0b48 d03d
00000030: ccd3 fcbc 290a aabb 57b0 443d 5eee 063e
00000040: be48 413d 6b4d 893c a823 c33d 5d19 3bbd
00000050: 68c6 f93d b541 a7bd 41d4 b63a 03c0 d23d
00000060: 1981 a53d dfcf 60bc f30f f23d 8752 ac3d
00000070: 5cfc cfbd 9629 f43b 895a dfbd ccca 1bbd
00000080: 5b05 f8bc 43b2 1cbd 2119 16bc 824f 833d
00000090: 7311 d53b 0872 10be c57b 053d 95ca 07be
000000a0: 37d8 c7bd ba47 bd3d 1161 c13d 50d4 60bd
000000b0: 295c 83bd 8dab 8e3d 4efb 07be b114 8a3d
000000c0: 4213 933d daa2 013d 34f6 923c 1e30 1c3d
000000d0: edca adbd 5268 1cbd a2a6 a13d 9a1e bf3d
000000e0: a41d 14bc a92f 443d 1c0d f2bd e88b cc3d
000000f0: 7ca1 7ebd 8a57 62bd 8afa d53d abb9 17bd
00000100: cb73 a3bd fe78 0d3d 8027 ae3d 36e3 f83d
00000110: 33a4 663c bdc6 d23d 94ed d23d 6964 0dbd
00000120: fdd9 c0bd 3c8a 8cbc 3791 61bd 3410 3e3d
00000130: a80c b6bd 688a bcbd 5867 e1bd d470 9fbd
00000140: 6c14 9f3d 757d ddbd 09a1 983a 6dde 85bd
00000150: 5edb 18bd 82a7 0fbd 4912 633d 5254 8c3d
00000160: b07b fcbc e671 953c 2224 353c 9214 033e
00000170: 6bf3 8e3d e840 02bc 41f3 8d3d 6d75 ecbd
00000180: a9b5 453d c2c7 e63d 11d2 a8bd 6011 2e3d
00000190: 7ad6 883d 0027 f7bd aaf5 4c3d 0094 a03d
000001a0: 2a61 41bb c628 0fbc b345 3ebd 08a0 c3bd
000001b0: 6fa2 343d c807 d1bd df77 fabd 7f36 76bd
000001c0: 3e80 0abe de44 d63d 759d 67bd 935a 50bd
000001d0: 66b0 423d 0ee8 873d 3663 ba3d 2b67 83bd
000001e0: 477e 19bd 6482 a1bd 4f29 e6bd 3155 20bd
000001f0: 3182 ef3c 0719 4cbd 9cc7 43bd ff0c 313d
00000200: 2693 f93c 2d9f 9d3d 1956 8c3d 10b4 683d
00000210: 416a 48bd 493b 843d 6d71 fdbd 1204 4b3d
00000220: a347 cebd 63ff dc3c 5c7f d3bd ef14 93bc
00000230: 7ada 2c3d 8c23 31bd 4d04 b13d fd1c fbbc
00000240: 5c20 003e feb4 e03d 9de8 89bd c055 1cbd
00000250: 863c 14bd f5ae 97bd 4b78 0e3d db8a d0bd
00000260: 013b 7abd 9cdf f0bc 8c47 ddbd 8e90 00be
00000270: dc5d 2b3d e278 d7bd 68eb bd3d 04f4 86bd
00000280: bff1 79bc 9b74 873d c910 dfbd bf52 0ebe
00000290: e32e cabb 9a93 25bd b9c0 433d 3a2c 593d
000002a0: 746c cb3c 1e7f 153d dbd5 e43d cae5 eb3c
000002b0: bd55 963d 4d52 a4bd d6c8 e93d 849b 4abc
000002c0: 30cf 963d 54e4 cdbd 13fe 87bd fdbb a1bd
000002d0: 9240 6e3d 872a 42bc 13fa e6bd f937 083e
000002e0: 2cfa 2f3d 60d2 de3d 7a85 273c 22fd f53b
000002f0: 21be a73d 9dae bdbd f2f0 073e 4cbc a4bd
00000300: 21f3 d3ba 2368 a1bd 2c0b b2bd e2b7 c63d
00000310: 9934 81bc 7d7c 86bc 7e92 d53d c644 f43d
00000320: ecac 66be c6d5 273c e2ff fd3c cbe5 063e
00000330: 59da 20be 8855 d13c 6fff 9dbd e98f 0e3d
00000340: 8147 f93c e916 c83a e200 e2bc a346 a7bd
00000350: b41b 43bd 179c b9bd 280c 893c 05ae 563d
00000360: 295e dd3d 8211 bbbd ed51 ce3b 9dec 9bbc
00000370: bbd7 033e 7867 ce3d a537 c6bd 0223 93bd
00000380: 9965 e4bd 53f2 efbc 6fda 65bd 5b91 143d
00000390: b560 6cbd f191 88bd 7b0b 1c3c 1b72 29bd
000003a0: 5e26 ba3d 6542 f23d c7d0 c9bd c09d 543d
000003b0: ae98 003c b23b 8a3d 928a 4ebd 60bb 4ebc
000003c0: d042 93bb ad92 043d c13e 5d3d 642a 653d
000003d0: ebfe 9f3c 544f c2bd c191 a5bd 6c5c 99bd
000003e0: e304 02be a628 f83d d365 8ebd f7bc a5bd
000003f0: b840 5fbd 3ec2 983d 8a92 b0bd 6130 e8bd
0.057993688 -0.0032378908 -0.127239 0.035693616 0.014276597 -0.061468482 0.052903302 -0.024784882
0.06827377 0.003279671 -0.073575124 0.10169991 -0.030862711 -0.0051891995 0.048019733 0.13176867
0.047188513 0.016760549 0.09528285 -0.045678485 0.12196046 -0.081668295 0.0013948755 0.102905296
0.08081264 -0.013721435 0.11819448 0.08414178 -0.101555556 0.0074512465 -0.1090594 -0.0380352
-0.030275991 -0.03825594 -0.009161265 0.06411649 0.0065023242 -0.14106 0.03258874 -0.13260873
-0.097580366 0.092421964 0.09442342 -0.054889977 -0.064140625 0.069663145 -0.13279459 0.06742228
0.071814075 0.031649448 0.017939664 0.038131826 -0.08485971 -0.038185425 0.07893111 0.09332009
-0.00904027 0.047897015 -0.11818907 0.099876225 -0.062165722 -0.055259265 0.10448177 -0.0370423
-0.0798107 0.034539215 0.08503628 0.12152712 0.014077234 0.102918126 0.10299221 -0.034519587
-0.09416578 -0.017155759 -0.05507013 0.04640217 -0.08889133 -0.092060864 -0.110060394 -0.07785192
0.07767567 -0.10814945 0.0011644672 -0.06536565 -0.03731858 -0.035071857 0.05543736 0.0685202
-0.030820698 0.018242788 0.011055978 0.12800816 0.06980022 -0.007950045 0.069311626 -0.11545835
0.048268948 0.112685695 -0.08243192 0.04249704 0.06681533 -0.120679855 0.05003897 0.07840729
-0.0029507377 -0.0087377485 -0.04645319 -0.09552008 0.04410022 -0.10206562 -0.12229895 -0.060110565
-0.13525483 0.10462354 -0.056546647 -0.05086763 0.047531508 0.06636058 0.09100954 -0.06416162
-0.037473943 -0.07886198 -0.11238348 -0.039143745 0.029236885 -0.049828555 -0.047797784 0.043225285
0.030465674 0.07696376 0.06852359 0.056812346 -0.048929457 0.0645662 -0.1237515 0.04956443
-0.10072257 0.026977247 -0.10327026 -0.017954318 0.042200543 -0.04324679 0.086433984 -0.030653471
0.12512344 0.109720215 -0.067338206 -0.038167715 -0.036190532 -0.07406417 0.03478269 -0.101827346
-0.061091427 -0.0294035 -0.10804662 -0.12555143 0.04183756 -0.105211034 0.09273416 -0.06589511
-0.015255391 0.066140376 -0.108918734 -0.13898753 -0.00617014 -0.040423967 0.047791217 0.053020693
0.024831988 0.03649818 0.11173602 0.028796095 0.07340572 -0.0802351 0.114152595 -0.012366179
0.07363737 -0.10053316 -0.06640258 -0.07897184 0.058167048 -0.01185096 -0.112781666 0.13302602
0.042963192 0.108799696 0.010224694 0.0075069824 0.08190561 -0.092618205 0.13275507 -0.08043727
-0.001617048 -0.07881191 -0.08693537 0.097030416 -0.01577215 -0.016416783 0.10428332 0.1192718
-0.22526902 0.010243839 0.031005803 0.13173597 -0.15708293 0.02555348 -0.07714736 0.034805212
0.030429604 0.0015265617 -0.027588312 -0.0816777 -0.04763384 -0.09062975 0.01672943 0.05241205
0.10808975 -0.09134199 0.0062963874 -0.019033724 0.12875263 0.10078329 -0.09678582 -0.071844116
-0.11152191 -0.029290354 -0.056116518 0.036271434 -0.057709415 -0.06668461 0.0095242215 -0.041368585
0.09089349 0.1182907 -0.09854274 0.051908255 0.007848902 0.06749667 -0.05042512 -0.012617916
-0.0044940487 0.032366443 0.054014925 0.05594863 0.019530734 -0.09487787 -0.08084441 -0.07488331
-0.12697177 0.12117128 -0.06953015 -0.08092683 -0.05450508 0.07458924 -0.086217 -0.113373525

lstm.bias_ih_l0 f4 [256]
00000000: 98ad debc 1623 5d3d f5ee bf3c 4ba7 d13d
00000010: 9221 d7bd 5dcb f43c 2cd2 473d 767e bbbc
00000020: 169c a4bd 1c8f 31bd 827e af3a ece5 9abd
00000030: d739 f5bd c5ea c33c 2c02 aa3c 3c35 86bd
00000040: 4f69 2dbd 7336 8f3a 17e0 3f3d 2d19 6b3d
00000050: 5992 fc3d 8ed1 70bb 96fb e63c aafc a3bd
00000060: d321 1f3d 4a72 23bd bf46 963d da3d 1e3d
00000070: cbce 5d3a e872 51bd 14e8 8d3d 3e26 763d
00000080: 65a4 0e3d a5c2 db3c 32af 7abd 3b18 aebd
00000090: 2f92 12be af2e 61bd 3734 3bbd 22e8 88bc
000000a0: 5ce8 d13d 2dd6 063d 0cfc 373d 6983 823d
000000b0: e75e e13d 58bb c03d 8b91 143d e443 ec3d
000000c0: 739d e8bd 0380 513d 58af 9a3d 78b4 e4bd
000000d0: dcaf c5bd 2d5a 14bc 9ce3 6b3d 66b5 ef3d
000000e0: 617d d5bd dccb be3d 6f56 a0bc 6fe2 adbc
000000f0: 450f c4bc 8be0 c03d c3a2 4e3d 3d1f 093c
00000100: c58f e1bd 1031 d3bc d4cd b6bd 7563 01be
00000110: a79e fa3c 8a96 2abd 11ec febd 65d9 b8bd
00000120: d656 e43d 69f5 c43d a687 99bd a3c9 89bd
00000130: b25c 703d d624 31bd 3e2b a6bb 3746 d7bc
00000140: 5a22 533d 1a5c dcbd 79a5 febd c35c 6a3d
00000150: da29 9b3d 885d 5f3d 71cb 37bd e52c 2abd
00000160: c7fe 8bbd 8fad 5fbd a20b 01be f56c 5e3d
00000170: 3ceb 2dbd 0ec9 03be e243 ec3c f192 dd3d
00000180: a943 9bbb 4567 cebd 96df f93d f3a3 b2bd
00000190: 6cb2 7c3d 7bcc c7bd 78a9 003e 320d aebc
000001a0: be21 023e aa68 783d 34b7 a73d 1926 093d
000001b0: 8b4f 83bd 9ad8 f53b cafd e03d 2bee cabd
000001c0: 4e98 fa3c e405 4a3b c0c4 983d f6d9 a2bd
000001d0: 8edc a7bd 517a 363d d1d5 08bd c8ca 02bd
000001e0: c189 1b3d 79b0 a03d 8482 d5bd 708d a53a
000001f0: 584d 32bd 82de 9abb 9ac9 80bd 7fcf ea3d
00000200: f132 563d 135b 103d d459 01bd 0269 ac3d
00000210: 8119 b5bd 74e9 d5bd e837 8cbd cb00 d9bc
00000220: 001b acbd 406e 973d 1c9c 513b 9dfa 65bd
00000230: 2d85 8bbd 936a ba3d 0dbb ec3d e963 a1bd
00000240: a3b7 c53d 8953 98bc f587 40bd ac04 173d
00000250: cfb4 dbbd 29d6 c5bd 3ab0 803a bd89 b53d
00000260: 3824 ad3d 5fd0 cd3d 1656 a73d d0cc 9f3c
00000270: bebd 003c bbd9 8dbd 90ac de3d 5d2a ea3d
00000280: 9506 dbbd 8a0e f1bd 4a65 c4bc 6c8b 8bbd
00000290: 1493 f1bc 2f6e b53d fac0 02bd 6ed7 fb3d
000002a0: faf4 8eba f6a1 7d3c 50c6 96bc 813d efbc
000002b0: bed0 e5bc 2244 4cbd 8517 bebd 9b26 9b3c
000002c0: 972d d53c f388 723c 1f1a 583c d48c 62bd
000002d0: ada5 04be 6d71 4f3d 5dd0 063d 1a96 e5bd
000002e0: bd70 fe3d f5e4 0ebc 3ac8 b7bd 7a04 a5bd
000002f0: 53c4 26bd bf54 ddbd 74d0 84ba 7f7b 77bd
00000300: cd15 9abd f4a9 bd3d 8b69 dabc 23d7 85bb
00000310: 824e aabd 1627 cabc c35a abbd 9893 65bd
00000320: 9a3e afbd ff29 86bd e4dd 2c3d 20a4 513d
00000330: 859c 613d ee9f a0bd ceca b2bd a6b9 b8bb
00000340: 49c4 dd3d d52e 433c 7966 d93d 58c7 d73d
00000350: 8419 cb3d 286e e1bc 6ce8 323c 122d 8abd
00000360: d6ca ef3b 8ce6 733d e491 c6bd c9e6 a6bd
00000370: 52f6 48bd dfba aebb c9d3 4dbc 7dc8 693d
00000380: f103 80bd d95c ff3d 9a5a 87bc 3a46 673d
00000390: 8524 be3d 7b78 d23d 5b87 3ebd 8f56 6fbd
000003a0: 6c7c 25bd e0d7 a6bd d35e 2cbd 7607 cfbc
000003b0: e7b6 5a3d 2e54 d13d 8576 683d d590 3e3c
000003c0: c09c 41bd db22 5abd f87d c83d c542 cebd
000003d0: 2c27 ccbb f529 dfbd 0301 27bd df9b a4bd
000003e0: 7c1b e4bd 6359 ad3c c31c 9abd 423b 103d
000003f0: 8822 f23d 1156 13bc 1af1 183d 96e5 5ebd
-0.027182385 0.05398854 0.023429373 0.10236987 -0.1050445 0.029882127 0.04878442 -0.02288745
-0.080375835 -0.04334937 0.0013389143 -0.07563385 -0.11973923 0.023915658 0.020752989 -0.065531224
-0.04233676 0.0010926261 0.046844568 0.057397056 0.12332601 -0.0036745998 0.028196137 -0.08007176
0.038850617 -0.039903916 0.073377125 0.038633205 0.00084612955 -0.051134974 0.06929031 0.060095064
0.034824748 0.026826212 -0.061202236 -0.08500715 -0.14313577 -0.05497616 -0.045704093 -0.016712252
0.10249397 0.032919098 0.044918105 0.06372721 0.11004429 0.09410733 0.036271613 0.115363866
-0.11358156 0.051147472 0.075529754 -0.11167234 -0.09652683 -0.009054703 0.057590112 0.11704521
-0.10424305 0.09316227 -0.019572465 -0.021226136 -0.023933062 0.09417828 0.05044819 0.008369264
-0.1101375 -0.02578023 -0.08925977 -0.12635596 0.03059323 -0.04164747 -0.1244737 -0.0902584
0.11149375 0.09617121 -0.07496576 -0.06727912 0.05868215 -0.04324802 -0.005071073 -0.026278598
0.051546432 -0.107597545 -0.12433905 0.05721737 0.07576342 0.054532558 -0.04487175 -0.04154672
-0.06835704 -0.054608878 -0.12602094 0.05430313 -0.042460665 -0.12869665 0.028840963 0.108190425
-0.0047382903 -0.10078291 0.12200849 -0.08722677 0.061693594 -0.097557984 0.12564647 -0.021246526
0.12708184 0.06064669 0.0818924 0.0334836 -0.06411656 0.0075026276 0.109859064 -0.09908708
0.030590203 0.0030826265 0.07459402 -0.07951729 -0.08196364 0.044550244 -0.033407036 -0.03193167
0.03797317 0.078461595 -0.104252845 0.0012630653 -0.043530792 -0.004726232 -0.062884524 0.11465358
0.052294675 0.035243105 -0.031579807 0.08418466 -0.08842755 -0.10444918 -0.06846601 -0.026489636
-0.08403587 0.073940754 0.0031983918 -0.056147207 -0.06812511 0.09102359 0.115591146 -0.078803845
0.096541665 -0.01859452 -0.04700466 0.03686969 -0.10727846 -0.096599884 0.0009818145 0.08864162
0.08454174 0.10049509 0.081707165 0.019506842 0.007857738 -0.069262944 0.108727574 0.114338614
-0.10694615 -0.11770351 -0.02397408 -0.06813702 -0.029489078 0.088589065 -0.031922318 0.12296949
-0.0010906749 0.015480509 -0.01840511 -0.029204132 -0.028053638 -0.049869664 -0.0928183 0.018939307
0.026022715 0.014803159 0.0131898215 -0.055310085 -0.12953825 0.05064528 0.032913554 -0.1121027
0.12423847 -0.00872158 -0.08973737 -0.080574945 -0.040714573 -0.1080718 -0.0010132925 -0.06042051
-0.075236894 0.092609316 -0.026661655 -0.004084484 -0.083157554 -0.02467684 -0.08366921 -0.05604896
-0.08556862 -0.06550979 0.0422038 0.051181912 0.05508091 -0.07843004 -0.08730088 -0.0056373654
0.10828454 0.011913021 0.10615248 0.10536069 0.09916976 -0.027518347 0.0109196715 -0.06746878
0.007317881 0.05954604 -0.09695795 -0.081494875 -0.049063034 -0.0053323354 -0.012562701 0.057075966
-0.06250752 0.12468881 -0.016522694 0.056463458 0.09284309 0.10276886 -0.046515804 -0.058432158
-0.04040186 -0.08146644 -0.04208262 -0.025272112 0.053397086 0.10221134 0.056753654 0.01163121
-0.04726863 -0.053255897 0.09789652 -0.10071329 -0.0062302556 -0.108966745 -0.04077245 -0.080375426
-0.11138055 0.021160787 -0.07525017 0.035212763 0.118229926 -0.008992688 0.037339307 -0.05441817

lstm.bias_hh_l0 f4 [256]
00000000: ea47 983d 3f87 d13d 0553 0fbd 0162 c9bd
00000010: 4474 ab3d 4690 9e3d 4064 4c3d b292 a83c
00000020: 60dc 063d f719 103c 6b62 fe3c 2006 38bd
00000030: 64f0 643c 2b0b bd3d d998 0abd c67b b4bd
00000040: 2476 c6bd 6007 b53b 02bb 103d aa29 b33c
00000050: aedb 033e 6b1d a83c dc79 3b3d eecd cabd
00000060: 4cc4 723d b4b7 c33d 3ed7 023c 4ea7 543d
00000070: 33c2 d3bd 4cdc de3d c93b cfb8 26fd e9bd
00000080: a790 353d 0834 a43d c387 ef3d 0d78 c23d
00000090: 25ae d13a 354a 773d ea8e 093e 464b 803d
000000a0: c200 733d 4b70 2ebc f138 d2bd 12b3 583d
000000b0: f157 a9bd 3d7c 6dbb ccb7 d9bd 2e49 e5bd
000000c0: e29b 6ebd 9b32 0fbe f6a7 863d b0f5 193d
000000d0: 9d09 cabc 0d88 003e ff15 743d e8f6 b43d
000000e0: 0de3 93bd 4c5a 01be 082f 61bd 49a5 b63d
000000f0: 75a9 ccbd 73ff 98bd 5763 19bb bc2d 2e3d
00000100: ef04 863d 4d0d d63b a87a d9bb a44a 4ebd
00000110: 9a45 7bbc 217a 8c3d a852 d9bd e1e5 d0bd
00000120: c733 adbc 3a6a 6dbc 14b2 963d 18d0 2f3d
00000130: cb24 d43d 55f3 7dbd 04ce 3e3d 6f1a 98bd
00000140: d9a3 c6bd b75a 6bbd 35b4 c83d ee64 99bd
00000150: f1e5 00bd 4c5f b33c 826e b8bd 479a 653d
00000160: e2ae d5bd 31a1 ef3d 1e5a 9d3d 87bd 783d
00000170: e94c d33d 2012 7d3d 6181 283d c6e1 433d
00000180: 13cf 963b 2c1f 23bd 7769 8d3d 4d39 e4bd
00000190: 905b 0fbe 2faa 22bc 0864 54bd 9cdf 39bd
000001a0: 5d2a 8c3d b817 14bd 60ad d63d ddb5 66bd
000001b0: 95d5 d9bd 0601 123d eba5 b23c 17de 0d3d
000001c0: 652c e53c 6314 50bd 8164 07be 7ed2 b23d
000001d0: 46a5 0cbd 09d9 e43d 1757 7abd b6fa e03d
000001e0: ec9b 1d3d 5590 5bbd 569f 4dbd 7cf6 023e
000001f0: 9c38 e13d 87d7 e9bd b531 6bbd ea00 1dbd
00000200: 838e 813c e1a0 a8bd fb59 9fbd 9cd3 b63c
00000210: 3762 85bc 0e16 99bd ace6 a83d c706 fa3d
00000220: 152b 45bd 78b3 f23d 3ebc 3a3d 17c8 f33b
00000230: e08d d6bc 3b22 b83d 13e1 b53d 7509 e7bd
00000240: e69f e83c c7af b9bd b1bb 81bd 8dbb 9bbd
00000250: b18a 0cbc c6fb 89bc 50f8 98bc db9d c13d
00000260: 870a 2e3c a1ff cabd b34c 32bd 9ec7 e9bd
00000270: 2d74 87bd ed27 9e3d c760 383d 2977 d8bc
00000280: 5107 863d 2562 d13b 06c9 db3d ca7a 22bd
00000290: f266 d6bd 7d80 85bd 4686 acbc a0a7 fc3d
000002a0: c955 0c3d 98af 45bd e829 6e3d 0165 f53d
000002b0: 9769 9cbd f333 42bc c598 f83d a628 f93d
000002c0: 5802 f6bb 2cd3 793d 7be8 673d 4f7e 56bc
000002d0: 5dc1 84bd c8d0 2fbc ee67 893c 3aeb fb3d
000002e0: a360 853d e1b4 21bd 3108 003e 94b9 69bd
000002f0: bd1e 80bd b1d7 9e3d 7985 373d 6ccd a63d
00000300: fdac d7bb 2ff5 01be b21b 0e3e d7e0 ad3c
00000310: 93d9 653d 06db d33d 71b1 233d bcc4 df3d
00000320: 3fb7 973b f556 a43d 37c3 f93d 6395 e13d
00000330: b6b6 c93c a1b1 2f3d 1379 3bbc 5437 bcbc
00000340: b5c5 99bd a1a6 a63d c981 35bd 0273 c03d
00000350: b8c8 d43c 8a47 42bd 0fe2 83bd 6bb6 e6bb
00000360: 16a0 adbd 7a44 70bc 4874 60bd 8da6 9dbd
00000370: 892d 033e fc9e 4cbd 5254 f03d a845 f53d
00000380: 12f6 813d 5291 f63d 2f73 ba3d 7573 01be
00000390: 59aa b1bd d628 473c e21f 0e3d f64d 113d
000003a0: 9c87 3dbd c245 95bd 4f99 d3bc a59d 933d
000003b0: 3a07 713d e4c4 9cbc bb13 a23d c0bc adbd
000003c0: 273b b2bd 02e7 ea3c 3aaa c93d e8a1 83bd
000003d0: c169 82bd 6185 5f3d e36e bc3b 373a abbd
000003e0: 6c83 b7bd 64d9 01be df99 58bd af78 0c3c
000003f0: 9828 91bc 645a 84bc 7fc5 d2bd c7ff a53d
0.074355915 0.10230874 -0.034991283 -0.09833146 0.08371785 0.07742362 0.049900293 0.020577762
0.03292501 0.008795253 0.031052789 -0.044927716 0.013973329 0.09230646 -0.033837173 -0.088126704
-0.09690502 0.005524561 0.035334595 0.021870453 0.1287677 0.02052184 0.04577051 -0.09902559
0.059269235 0.09556523 0.007985888 0.051917367 -0.10339775 0.10881862 -9.881665e-05 -0.11425237
0.044327404 0.08017737 0.11695816 0.09495554 0.0015997334 0.060373504 0.13433424 0.06264357
0.059326895 -0.01064689 -0.10264767 0.05290515 -0.082687266 -0.0036237382 -0.106307596 -0.111955985
-0.05825413 -0.13984148 0.06575005 0.03758782 -0.024662787 0.12551899 0.05959129 0.08836156
-0.07221041 -0.12632102 -0.054976493 0.089182444 -0.09993259 -0.07470598 -0.0023405158 0.042524084
0.0654391 0.0065323473 -0.006636936 -0.05036415 -0.0153364185 0.06859232 -0.106114686 -0.10200096
-0.021142853 -0.014490658 0.073581845 0.042923063 0.1035858 -0.061999638 0.04658319 -0.07426917
-0.0969922 -0.05745956 0.09799997 -0.07489954 -0.03146929 0.021896027 -0.09005453 0.056055333
-0.10433747 0.11700667 0.07683204 0.060727622 0.10317404 0.061784863 0.04113901 0.047822736
0.004602322 -0.03982465 0.069048814 -0.11143742 -0.13999772 -0.00992827 -0.05185321 -0.045379266
0.06844018 -0.036155432 0.104822874 -0.056325782 -0.10636441 0.035645507 0.021807631 0.03463563
0.02797527 -0.050800692 -0.13221933 0.087315544 -0.034337305 0.11174209 -0.06111821 0.10985319
0.038478777 -0.053604443 -0.050200783 0.12789339 0.109971255 -0.11418062 -0.05742045 -0.03833095
0.015815025 -0.0823381 -0.07780834 0.0223177 -0.016282184 -0.0747491 0.08247122 0.12208324
-0.04813679 0.11850637 0.045589678 0.007439624 -0.026190698 0.08990904 0.0888082 -0.11281101
0.028396558 -0.0906673 -0.063346274 -0.07604132 -0.0085779885 -0.016843688 -0.018673092 0.09453937
0.010622627 -0.099120386 -0.043530177 -0.11415027 -0.06613956 0.07722459 0.04501417 -0.026424007
0.06544364 0.0063898736 0.107317016 -0.039667882 -0.10468854 -0.06518648 -0.02106012 0.123366594
0.0342615 -0.048263162 0.058145434 0.119821556 -0.07637327 -0.011853206 0.121385135 0.12165956
-0.0075076036 0.060992405 0.056618195 -0.013091638 -0.064821936 -0.01073093 0.01677319 0.12300725
0.065125726 -0.03947914 0.12503125 -0.057061747 -0.06255863 0.077559836 0.044805024 0.0814465
-0.006581901 -0.12691186 0.13877752 0.021225376 0.056115698 0.1034451 0.039964143 0.10926196
0.004629999 0.08024398 0.121954374 0.110148214 0.024623256 0.04289401 -0.011442441 -0.022975601
-0.07508413 0.08137251 -0.044313226 0.09396936 0.025974616 -0.047431506 -0.06439602 -0.007040789
-0.084777996 -0.014664764 -0.054798394 -0.07697783 0.12810339 -0.049956307 0.11734833 0.119761765
0.06345762 0.120394364 0.09104001 -0.126417 -0.08675069 0.012155732 0.034698375 0.03547474
-0.046271905 -0.07288696 -0.02582994 0.07207803 0.058844782 -0.019136854 0.079139195 -0.08483267
-0.08702689 0.028674606 0.09846921 -0.064273655 -0.06367827 0.05457056 0.0057505234 -0.08360713
-0.089606136 -0.12680584 -0.052881118 0.008573695 -0.017719552 -0.016156383 -0.10291576 0.08105426

lstm.weight_ih_l1 f4 [256, 64]
00000000: a603 e83d 3eec db3b 42c4 653d d7df d23d
00000010: bf4a 86bd dc09 1a3a 8b84 88bd 4a9f 46bd
00000020: bb7a 83bc d2b6 6dbd 150d d7bd c1ae d73d
00000030: f3de 06be 6f0d b63d 56b2 053d 6e8b c63c
00000040: 1346 063e 9d35 8c3d 6e40 083e aad6 bc3c
00000050: 0143 8bbd f59a 14bc c2ed 78bd 0e5f 7cbd
00000060: bed0 023b f55b 8abd c4c1 f73a 94b9 febc
00000070: 9963 afbd 8c8d c43b 65d4 76bd 9b0e fabc
00000080: 757b 8ebd 9140 b03d d346 8fbd 4290 cabd
00000090: f4ee fabc e133 a43d f83b db3b 35b5 fd3d
000000a0: 0759 9d3b d6dd a73c 8b9f b6bd a858 cb3c
000000b0: e573 0a3d a785 5fbd f83f 02ba fde7 493c
000000c0: 1343 92bd 40e3 39bd bfc8 e3bd 910c 48bd
000000d0: 5c02 92bc 2d99 06bd 14ef 7abc b5f0 ebbb
000000e0: f132 723c 8b06 aa3d a1c2 0abb 8337 823d
000000f0: 42c7 5dbd 3fbd 053d 6d80 1c3d 77fa 5b3c
00000100: 5d9e 82bd 93bd 693d a412 233d 742e dabd
00000110: f8b4 bdbd 6131 42bd 15d9 c2bd 6e90 c0bd
00000120: d2a7 d5bb 99d9 acbd 4e85 8dbd d777 de3d
00000130: 2b32 2d3d 6c1f 0c3e 8483 d43d 513e dfbd
00000140: 0806 fb3d a9e5 193c 71bb 6c3d f941 f0bd
00000150: 7eca d8bb 0bb8 8f3d 1019 b5bc f06c 183d
00000160: aab3 8abd 7ee7 453d 6b32 7ebd 5f73 153d
00000170: 60f1 d2bd a5bc 01ba 621b 103e 696c 43bd
00000180: 81d7 b4bd 4966 503d 06e8 f3bd 947d a13b
00000190: 2621 dcbd 5705 93bd fcad 08be e736 523d
000001a0: 7361 a33c 36d9 ddbd 1790 e6bd ba31 463d
000001b0: 2509 873d 4edc 8cbd a0b8 403d 8920 fb3d
000001c0: 9ccb db3d 8f0c b33d 1b94 803d 83c9 663d
000001d0: 294d 07be 7bfd fabd a01d 88bd a287 013e
000001e0: 50af 093e 097c d73d 0344 1ebd ac4e 0dbe
000001f0: 608c e2bd 84b3 953d f6ea 633d 6d46 e63d
00000200: 126d 1f3d fe2b 40bd 1806 edbd 125e 13bd
00000210: 0ad4 643d cde2 a43c 78ab 92bd cfb7 643a
00000220: c8d1 b4bd 6b48 bcbb 918d bbbd c3d6 cdbc
00000230: 9766 613c b4de a0bd 0c77 d8bc 8a4b ccbd
00000240: 2b29 943a 69f6 093d 1285 2fbd 92c1 8d3d
00000250: af5d aebd f20f 7a3d 6951 6a3d b49f 11bd
00000260: 3bbd 943d 65cb a93d bfea 0dbd 7abc b63c
00000270: d5ea ed3d 10b2 ce3d c1da 153c f1c9 b23d
00000280: b42a 9a3d 705a 713d baed 25bd 90b5 03be
00000290: a7c6 703d 769a 0a3c 86ee 85bd b6c2 d9bd
000002a0: d720 b1bd 5620 9dbd 716d debc e8dd 70bd
000002b0: 6714 97bd b96e 22bd 9528 fa3b 37d4 213d
000002c0: d0ba b43d 0ade 073d c8cd 8ebd 6a02 913d
000002d0: b5a1 a63d 276a d43d 3d21 1a3d ff94 f23d
000002e0: f503 5e3d c1a1 50bc 6a2d f4bd a4ab 0fbd
000002f0: 0a8a 3d3d a933 823d 7f5d 89bd aa59 d5bb
00000300: 60dd f23d 19ac bebd e36d 993d e347 6c3c
00000310: 4d1b 113d a700 743d fc5d 493d 2f70 1bbd
00000320: 9224 3e3d 032b 07be 05c5 983d a412 4f3c
00000330: ac7d 12bd e4bf d73d 1fd9 963d 9361 2bbd
00000340: 2db8 69bc 1f0e 893d d77d a23d f29f 5bbd
00000350: be44 a93c 29e0 f7bd cfa2 d03d 22fc efbc
00000360: ab98 a9bd a66a a33d 6a15 70bd 43ab cd3d
00000370: 5739 693d 08c6 a6bd e5de 013d 2711 ed3d
00000380: 67e7 c0bd 919c 18bc 4123 d5bc e2d2 f6bd
00000390: 860a c73c 3d0f f53d 48f3 8f3d c2bb 8d3d
000003a0: 0bda ce3c 6f49 70bd d299 c63c 9a21 8c3c
000003b0: cc5a 803d 76e4 c4bd d504 39bc ca59 a0bd
000003c0: 4df7 c43d 5103 973d 3c3e c1bd 8a4f f7ba
000003d0: 0a44 a53d eef4 aabc 12f1 073e 194e 24bc
000003e0: 0108 fa3d cb62 28bc bd88 a63d 421b ecbd
000003f0: 0d08 dc3d 4f14 debb 4972 be3d aa30 4b3d
0.11328821 0.006711512 0.05609537 0.102966 -0.065572254 0.0005876103 -0.066659056 -0.048491754
-0.016049733 -0.05803568 -0.10500542 0.105313785 -0.13170986 0.08889281 0.032640778 0.024236407
0.13112669 0.068461634 0.13305828 0.023051579 -0.06799889 -0.009070148 -0.06077362 -0.06161409
0.0019960846 -0.06755821 0.0018902351 -0.03109435 -0.085639186 0.005998319 -0.06026115 -0.030524543
-0.06957141 0.08606065 -0.069959305 -0.09890796 -0.03063152 0.080177076 0.0066904984 0.12388078
0.0048018727 0.020491522 -0.08917149 0.024822548 0.033801932 -0.05457082 -0.00049686385 0.012323377
-0.071417 -0.045382738 -0.11122274 -0.04884011 -0.01782339 -0.032860924 -0.01531579 -0.0072003254
0.014782653 0.08302029 -0.0021173137 0.06358244 -0.054145105 0.032651182 0.038208414 0.013426415
-0.06377862 0.057065558 0.0398127 -0.106533915 -0.09263033 -0.047410373 -0.09514061 -0.09402548
-0.00652025 -0.08439941 -0.069101915 0.108627014 0.042284172 0.13683861 0.10376647 -0.10900558
0.1225701 0.009393134 0.057795946 -0.11731333 -0.006615936 0.07017525 -0.022106677 0.037213266
-0.067725495 0.04831647 -0.0620598 0.03648698 -0.10299945 -0.00049490697 0.14072946 -0.04771081
-0.088301666 0.050878797 -0.11909489 0.0049283 -0.1074851 -0.07178753 -0.1334762 0.05132189
0.019943928 -0.10832445 -0.11257952 0.048387267 0.06593541 -0.06877957 0.047051072 0.12262065
0.10732195 0.0874263 0.06278249 0.05634452 -0.13213028 -0.12255379 -0.066462755 0.12649396
0.13445783 0.10521705 -0.03863908 -0.13799542 -0.11061931 0.073096305 0.055643998 0.112439014
0.038922377 -0.046916954 -0.11573428 -0.035978384 0.05586628 0.020127678 -0.07161611 0.00087248994
-0.08829075 -0.0057459376 -0.09157861 -0.02512682 0.0137573695 -0.07854977 -0.026423953 -0.099753454
0.0011303773 0.03368226 -0.042851515 0.06921686 -0.085139625 0.061050363 0.057206545 -0.035552695
0.07262655 0.082907476 -0.0346477 0.02230667 0.11617056 0.100925565 0.009146393 0.087299235
0.07527676 0.05892414 -0.040509917 -0.1286223 0.0587832 0.008459678 -0.06539635 -0.10632841
-0.08648842 -0.07672183 -0.027151795 -0.058805376 -0.07376938 -0.039656375 0.0076342323 0.039509024
0.08824694 0.033170737 -0.069728434 0.070805386 0.08136312 0.103718095 0.037629355 0.11844825
0.054202992 -0.012733878 -0.119227245 -0.0350758 0.046274222 0.0635751 -0.06707286 -0.006510933
0.1185863 -0.09310169 0.07491662 0.014421436 0.035426427 0.059570935 0.049161896 -0.037948783
0.046421595 -0.13200001 0.074594535 0.012638722 -0.03576438 0.10534647 0.07365631 -0.0418411
-0.014265102 0.066921465 0.07934158 -0.053619333 0.020662662 -0.12103302 0.10187303 -0.029295031
-0.08281072 0.07979326 -0.058614172 0.10042431 0.05693945 -0.0814324 0.03170671 0.11575537
-0.094191365 -0.009314672 -0.026017787 -0.120519415 0.02429701 0.11965797 0.07028824 0.069205776
0.025250455 -0.05866378 0.02424327 0.017105866 0.06267318 -0.09613888 -0.011292656 -0.07829626
0.096174814 0.073736794 -0.094356984 -0.0018868309 0.08069618 -0.020868745 0.13275555 -0.010028386
0.12208558 -0.01027746 0.081315495 -0.115286365 0.10743723 -0.0067773233 0.09299142 0.049606957

lstm.weight_hh_l1 f4 [256, 64]
00000000: f122 9c3c bbac cdbd 2b48 e53d 3a0f 353d
00000010: ed72 823d b80b e53d 0e0c aa3d bf8e 463d
00000020: 016a 1f3b 598e 853c 6930 ecbb fa0e b7bd
00000030: 08d1 a5bd 0fef 673d 09fd ba3c 626e f3bc
00000040: 1463 34bc 0ee5 ac3d b527 a73d 25a1 4abd
00000050: 7ec1 df3c 226d bcbc f86d 0abd 9f78 06bd
00000060: 7928 72bc ce4a 9f3c c4bf cfbd 50aa d73d
00000070: c4bb 4b3c 6c67 cd3d 07b4 273d 86f4 ba3d
00000080: b3e8 52ba ee18 85bc 45e9 07be b5fe c53d
00000090: 33c6 0c3d 23fa a6bb 04a7 c23d da44 2bbd
000000a0: 28e6 e63d d76c 89bb 61bc e93c 0846 e7bd
000000b0: c497 d33d 0525 1b3d 62f8 ebbd cab1 9abd
000000c0: 4587 24bc 1d92 de3d 5456 c2bd 3273 0abc
000000d0: a285 823d 556b 06be d277 7dbd ce47 d6bc
000000e0: 5fef e5bd 274c 82bd b2a2 92bd 2a60 afbc
000000f0: b1af e5bd 3d2a 51bd 3c68 c9bd c92e 92bd
00000100: 161d dfbd db71 90bd 7b40 e23b c6a4 fe3d
00000110: b914 48bc 5a97 ac3a cfa7 07be 85dc 703d
00000120: b93f 35bb 3025 06bc 77b3 0b3e 1cd9 2e3d
00000130: a903 613c 545f 2cbd 88ea 173b 5ab3 bfbd
00000140: ca95 db3d 52e9 acbd 276b 9a3d c773 fe3d
00000150: eaf0 4b3d 949c 0c3e efc1 95bd 74df eb3c
00000160: 28ba 183d 1338 c3bd dd1c d4bd 700d a43c
00000170: d6c9 e43d a679 ad3d 5492 7e3d a9aa b53d
00000180: 9a9d c43d 37f0 f7bd d83c 02be 4ff2 f13d
00000190: da7b 2fbd a4e4 c03c 027e 7abd 6dcb 173d
000001a0: f5e7 c43c a044 033e 7484 29bd cf90 f03c
000001b0: 147f d3bc 5631 b43d 7b38 943b 2e1f f83d
000001c0: c6b4 b6bd d2be 85bd e6bf ab3d 87d5 d3bd
000001d0: 8978 54bd da1c 383d 8f2e 02bd 0fe0 b0bd
000001e0: 943a 73bc dbd8 ad3d 695c af3c 91a1 12bd
000001f0: 2c71 09be 66aa dbbc 9267 bc3d 24d7 a0bd
00000200: 77ee d93d 31ce c73b 6ae2 c73d f53b 313c
00000210: 49d8 edbd 652e 613d 1eaf c8bd c06d fb3c
00000220: b8a6 43bb 0920 debd cbda 4a3d f292 9cbd
00000230: edd3 923d 8dec 16bd ce92 9abd c20f ddbd
00000240: ae04 93bd deb4 df3d 6407 fa3d 84aa 963d
00000250: faa4 b7bd d86f 013d 95d1 9abd 0518 773d
00000260: 7685 ee3d e472 5d3d a0f8 ff3c db16 51bc
00000270: 5d49 62bd 06be 88bd 279a 8ebd 9275 8d3d
00000280: 4220 da3d 1d51 a9bb c53b ee3d 108d 183d
00000290: 9a1b 32bd 67e7 b13d 9c50 c4bd 0044 803c
000002a0: eb99 8cbd 7483 933d 0410 0dbc bf0e 44bb
000002b0: 370a b5bc d9c5 b4bd 305d aabc 7ec8 803d
000002c0: 76de 11bd 43bc 33bd 2710 d13d 6469 70bb
000002d0: 8faa 7f3d 817c 593d 887e 66bd bda3 10bd
000002e0: cde3 d5bd 35c0 833d f148 cf3d cb4f a6bd
000002f0: 73ff bf3d 24a2 1cbd 74b9 923d d259 503d
00000300: 9204 9f3c bf81 0e3d 96c0 043d 8702 6abd
00000310: ee93 bbbd b91d b73d 4a11 0b3d 7967 3d3c
00000320: e144 273d 01e3 97bc 4f66 d4bd f908 843d
00000330: 333e 8abd 890f 18bd 36a2 34bd 195b ea3d
00000340: fc51 72bd 5e60 2a3c 91e3 833b 3447 e13d
00000350: fa25 e83d ff86 733d 7eeb 0dbd c13f 963d
00000360: d450 f43c 8eae edbd 11dc bab9 4c26 c13d
00000370: 63ae b8bd 7f06 6bbd 6f44 51bd c6c5 c93d
00000380: 8411 c1bd 78aa ecba 2c0b cabd dae7 e03d
00000390: 8d87 83bd 0943 6a3d 64ab a4bd 46a4 39bd
000003a0: aa20 743c b2a1 473c 9a4c ccbd da39 f3bd
000003b0: f506 8ebd 6c83 85bd 4ad6 843d 8bac 653d
000003c0: 7731 91bd 6c5e 8ebd 8248 d83d a1aa d0bd
000003d0: 390e f93d c25e 8fbc 7747 bebd 7a6e 393d
000003e0: ff61 9a3d 4594 3b3d b1d2 b4bc 82e7 76bd
000003f0: d2d5 80ba 8f18 94bd 2885 2d3d 7609 84bd
0.01905963 -0.10042711 0.111954056 0.044203974 0.063695766 0.11183876 0.083030805 0.048475977
0.0024324658 0.016303228 -0.0072079194 -0.089384034 -0.0809651 0.05662447 0.022825735 -0.02971572
-0.01100995 0.08442126 0.081618704 -0.049470086 0.027313944 -0.023001257 -0.03379628 -0.032829877
-0.014780157 0.01944485 -0.10143998 0.105305314 0.0124349035 0.10029492 0.04094317 0.091286704
-0.0008045539 -0.016247239 -0.13272579 0.09667722 0.034368705 -0.0050957366 0.09504512 -0.04181371
0.112743676 -0.004193883 0.028532209 -0.11292654 0.10331681 0.0378771 -0.11521985 -0.07553442
-0.010042016 0.10867713 -0.09489122 -0.008450316 0.06373145 -0.13126881 -0.061881848 -0.026157286
-0.11227297 -0.06362181 -0.07159938 -0.02140816 -0.11215151 -0.051065672 -0.09834334 -0.0713783
-0.108942196 -0.07052966 0.0069046593 0.12433772 -0.012211972 0.0013167665 -0.13247608 0.058804054
-0.002765639 -0.008187577 0.13642679 0.04268752 0.013733783 -0.0420831 0.0023180563 -0.093603805
0.10721929 -0.0844294 0.07539969 0.124244265 0.0497903 0.13731605 -0.073123805 0.028793074
0.037286907 -0.0953218 -0.10357068 0.020025939 0.1117131 0.08470468 0.062151268 0.088704415
0.096003726 -0.12106364 -0.12718523 0.11813795 -0.042842723 0.023546524 -0.061155327 0.037059236
0.024036387 0.12819147 -0.041386083 0.029365925 -0.025817432 0.087984726 0.0045233346 0.12115322
-0.089211985 -0.06530537 0.08386211 -0.103434615 -0.051872764 0.04494939 -0.031782683 -0.08636486
-0.014845509 0.084886275 0.02140637 -0.035798613 -0.13422078 -0.02681465 0.09199442 -0.07853535
0.10641187 0.006097578 0.09759982 0.0108175175 -0.11613519 0.054975886 -0.09799026 0.030691981
-0.002985401 -0.10845954 0.049525063 -0.07645215 0.07169328 -0.036846686 -0.07547532 -0.10794021
-0.07178627 0.109231696 0.12208441 0.07356742 -0.08967014 0.031600803 -0.07559506 0.06032564
0.116465494 0.054064646 0.031246483 -0.012761797 -0.055245746 -0.06676869 -0.06962996 0.069071904
0.10650684 -0.00516714 0.11632494 0.037243903 -0.043483354 0.086867146 -0.095856875 0.015657425
-0.06865295 0.07202807 -0.008609775 -0.0029916016 -0.022099597 -0.08826799 -0.020796388 0.06288241
-0.035612546 -0.043880712 0.10208159 -0.0036683911 0.062418517 0.05309725 -0.056273013 -0.035312403
-0.1044384 0.06433145 0.10121334 -0.08120688 0.09374895 -0.038240567 0.071642786 0.05086691
0.019411359 0.034791704 0.032410227 -0.057131317 -0.09159075 0.08941216 0.033952035 0.011560314
0.040837172 -0.018540861 -0.10371076 0.06447024 -0.06750145 -0.03712419 -0.04410001 0.11443157
-0.059160218 0.010398952 0.0040249308 0.10999909 0.113353685 0.059454914 -0.03464841 0.07336379
0.029823698 -0.11605559 -0.00035640647 0.09431133 -0.090176366 -0.057379242 -0.051090654 0.098521754
-0.09427169 -0.0018056175 -0.09865412 0.10981722 -0.06422339 0.057192836 -0.08040503 -0.04532268
0.014900366 0.012184547 -0.09975548 -0.11876269 -0.06934921 -0.06519207 0.06486185 0.056072753
-0.07089513 -0.06951603 0.10560705 -0.10188795 0.12160916 -0.017501239 -0.092909746 0.045271374
0.075382225 0.045795698 -0.022073122 -0.060279377 -0.0009829348 -0.07231247 0.042363316 -0.06447117
